keras/npy_weights/Block17_1_Branch_1_Conv2d_0b_1x7_kernel.npy (npy, 458880 bytes, 1 tensors)

array f4 [1, 7, 128, 128]
0	0x3a0a00b9	0.000526439
1	0x3b2b3111	0.0026121775
2	0x3b924193	0.0044633835
3	0xbad2e81e	-0.0016090905
4	0xb78a328e	-1.6474423e-05
5	0x3c422a01	0.011850835
6	0x3adda12f	0.0016908998
7	0xba494524	-0.0007677844
8	0x3a034629	0.0005007708
9	0x3adf49d3	0.0017035551
10	0x3acf30d6	0.0015807401
11	0x3a53d80c	0.0008081205
12	0x3b10325d	0.0022002675
13	0xbbb3741c	-0.005476488
14	0x3b504b85	0.0031783294
15	0xbba678c2	-0.0050803134
16	0xb902d20e	-0.00012476018
17	0xbb5217b0	-0.0032057576
18	0x3aa91165	0.0012898861
19	0x3be0cb56	0.006860177
20	0x3b2e215a	0.0026570172
21	0x3b4bbb28	0.0031086896
22	0xb8d0ce96	-9.9566925e-05
23	0x3b0fe762	0.0021957983
24	0xbabb42f0	-0.0014286917
25	0xbc008f21	-0.007846625
26	0xbb6741d4	-0.003528704
27	0x3b10dda5	0.0022104767
28	0x3b9d348f	0.0047975252
29	0x3b6a80fd	0.003578245
30	0xbaf158fd	-0.0018413361
31	0xbc5603e9	-0.013062456
32	0x3a28dbd2	0.0006441447
33	0x37ea3ca9	2.792322e-05
34	0x3bf2db59	0.007411402
35	0xba0c365c	-0.00053486763
36	0x3ae1c7a8	0.001722564
37	0x3bc058a5	0.0058699423
38	0x3b6c6e29	0.0036076403
39	0x3c151f1d	0.009101656
40	0xba1a4a1c	-0.0005885677
41	0xbbb435d1	-0.0054995795
42	0xba6332b6	-0.00086669193
43	0x3b0603a1	0.002044894
44	0xbba1a0d8	-0.004932504
45	0x3bfc084e	0.0076914197
46	0xbb911187	-0.0044271383
47	0x3c383d27	0.011245049
48	0xbb64ddfa	-0.0034922347
49	0xb9cda964	-0.00039226853
50	0x3b5da67d	0.0033821159
51	0xbbebb6db	-0.007193429
52	0xba9b8744	-0.0011865874
53	0x3ae49f08	0.0017442415
54	0xbb42e5b8	-0.0029738974
55	0xbb757d9b	-0.00374589
56	0x3beb1283	0.0071738376
57	0xbbd23711	-0.006415256
58	0x3a78d807	0.000949264
59	0x3b521c82	0.003206045
60	0xbba4e573	-0.0050322353
61	0xbb8ede54	-0.0043599997
62	0xba2dd083	-0.0006630497
63	0x3b07e06a	0.0020733126
64	0xbbb61c5d	-0.0055575804
65	0x3b809196	0.003923605
66	0xbb9ea31e	-0.0048412224
67	0xbb899dc5	-0.004199716
68	0xb9a6a32c	-0.0003178356
69	0xbb9f5421	-0.004862324
70	0x3b9a5fbb	0.004711119
71	0x3b839343	0.0040153577
72	0x3baad579	0.005213436
73	0xbb0ff193	-0.0021964058
74	0xb5df7216	-1.6647998e-06
75	0xbb697a3e	-0.003562584
76	0x3a9e0bfb	0.0012058014
77	0xbb7a0f57	-0.0038156116
78	0x3af18435	0.0018426242
79	0x3acbc245	0.0015545568
80	0x3c2f02c9	0.010681816
81	0xbb53e293	-0.0032331094
82	0xbb8dd01a	-0.004327786
83	0xbb1c793e	-0.0023875977
84	0xbae6a62f	-0.0017597134
85	0xb8f87bb3	-0.00011848602
86	0x3b79e114	0.0038128542
87	0xbade8ff4	-0.0016980157
88	0x3bf4cd31	0.00747075
89	0x3bb13eaa	0.0054090815
90	0x3b0d3a08	0.0021549482
91	0x3a29f08f	0.00064826844
92	0x3beb620b	0.0071833185
93	0x393ca28a	0.00017989628
94	0xbbafe496	-0.0053678257
95	0xbbf04e76	-0.007333572
96	0xbb85abb0	-0.0040793046
97	0xb8591051	-5.1752028e-05
98	0x3b06b351	0.0020553658
99	0x3b819e7f	0.003955662
100	0xbb826806	-0.0039796857
101	0xbbc0e9f0	-0.0058872625
102	0xbbbccb5c	-0.005761547
103	0xbc085661	-0.008321376
104	0xbb044f18	-0.0020188745
105	0xbb8215ec	-0.0039698984
106	0x3bba268e	0.0056808656
107	0xbb233198	-0.0024901386
108	0xbaafea59	-0.0013421281
109	0xb94348e3	-0.00018623802
110	0x3b6c17b3	0.0036024868
111	0x3ac583f8	0.0015069237
112	0xbb5786bf	-0.0032886711
113	0x3af732ad	0.0018859707
114	0x3bf0799c	0.0073387157
115	0x3a74bb31	0.0009335755
116	0xbacfcc47	-0.0015853726
117	0x3a7e57a0	0.0009702388
118	0x38f1c48a	0.00011528384
119	0x3b0b1943	0.0021224774
120	0x3aac4080	0.0013141781
121	0xbb0c2b1c	-0.0021388
122	0xbb75ec7b	-0.0037524987
123	0xbaa3e38b	-0.0012503726
124	0xbb994791	-0.004677721
125	0xbaf6fe98	-0.0018844185
126	0x3b07a266	0.0020696162
127	0x3b087039	0.0020818843
128	0xb972cd9f	-0.00023155518
129	0xb7b54034	-2.1606778e-05
130	0xbb6024c1	-0.0034201595
131	0xbbb42651	-0.0054977317
132	0x3b53ff91	0.0032348374
133	0xbae8f167	-0.0017772139
134	0x3bf8560d	0.0075786174
135	0xbbc9c1ae	-0.0061571216
136	0xbbdc1b07	-0.006717089
137	0xbb50c0bc	-0.003185316
138	0xbb9709f6	-0.0046093417
139	0xbba24775	-0.004952366
140	0x3b99663d	0.004681377
141	0x3b6bf3e3	0.0036003522
142	0xbb4024e0	-0.0029318854
143	0x3a98f653	0.001167009
144	0x3bf5cad3	0.007500985
145	0xba911a64	-0.0011070487
146	0x3b686547	0.0035460757
147	0x3afdbc81	0.0019358547
148	0x3a975276	0.0011544961
149	0xbc12a9a7	-0.008951581
150	0x39345c13	0.00017200438
151	0x3b9f71c9	0.004865859
152	0x3ad5b4eb	0.0016304528
153	0x392095bf	0.00015314574
154	0xbb1aa5fa	-0.0023597465
155	0x3a77d05d	0.0009453351
156	0xbb358974	-0.0027700337
157	0x3bce4f00	0.0062960386
158	0x3b3f560d	0.0029195577
159	0xbb2458ed	-0.0025077418
160	0x3bc116d9	0.005892616
161	0x3c16d7f7	0.0092067635
162	0xbb26fed6	-0.0025481484
163	0x3c7c28f0	0.01539062
164	0xbb115680	-0.0022176802
165	0x3ae31a55	0.0017326573
166	0x3c2ff61b	0.010739828
167	0x3c097867	0.008390523
168	0x3b4d5e41	0.0031336697
169	0x3c08800c	0.00833131
170	0x3c94c485	0.018160114
171	0x3ab320d4	0.00136664
172	0xba62d38f	-0.00086527405
173	0xbbd1197c	-0.006381212
174	0x3a93eaf3	0.001128523
175	0xba796051	-0.00095129485
176	0xbb342281	-0.0027486386
177	0x3c300cf4	0.010745276
178	0x3a9e7367	0.0012088836
179	0x3b984e2f	0.004647992
180	0x3b342bbf	0.0027491895
181	0xbbadd8d6	-0.00530539
182	0x39ef2d50	0.00045619393
183	0x3b739b27	0.0037171335
184	0xbb5f8de5	-0.0034111675
185	0x3b82c693	0.003990957
186	0x3b83e46b	0.0040250323
187	0x3b08f746	0.002089934
188	0x3b9c95a7	0.004778582
189	0x3ac7f615	0.0015255833
190	0x3b292eb0	0.0025815181
191	0xbba9b159	-0.005178612
192	0x3b8373ad	0.0040115924
193	0xba528401	-0.00080305344
194	0x3b0d590e	0.0021567973
195	0xbbaad663	-0.005213545
196	0x3c25c4fb	0.010117765
197	0xbc088cdd	-0.008334366
198	0xbbe4ef8a	-0.006986563
199	0xbb73e193	-0.003721331
200	0x3b556059	0.0032558648
201	0xbbd34177	-0.006447013
202	0xba95430f	-0.0011387783
203	0xbbd90bd9	-0.006623727
204	0x3c2e741f	0.010647803
205	0xbb0f8684	-0.0021900246
206	0x3a3c86f7	0.0007191742
207	0xbbc94624	-0.0061423946
208	0x39aff0e3	0.00033558076
209	0x3b8bd81b	0.004267705
210	0xbb753a36	-0.003741873
211	0x3b61429b	0.0034371975
212	0x3aefae2c	0.001828616
213	0xbb7bdd5b	-0.0038431499
214	0x39d650b3	0.00040877386
215	0xbbbaa853	-0.0056963353
216	0x3a6a8646	0.00089464
217	0x38db73a1	0.00010464271
218	0x3acadf04	0.0015477841
219	0x3b7242db	0.0036966118
220	0x3b462fda	0.0030240924
221	0xbb3c53c2	-0.0028736447
222	0x3b5a330a	0.0033294582
223	0xbb3ac334	-0.0028497698
224	0xbc01f3ab	-0.00793163
225	0xbaa068ce	-0.0012238265
226	0xbb81cb07	-0.0039609703
227	0x3a83ee30	0.0010065492
228	0x3b33e7b3	0.0027451336
229	0x3b2cde34	0.002637756
230	0x3b1d49be	0.0024000253
231	0xba2c06ad	-0.0006562274
232	0x3bf1e020	0.007381454
233	0x3c2b6d5f	0.010463088
234	0x39c3ea20	0.00037367735
235	0x3bc90e74	0.006135756
236	0x39ccfd69	0.00039098717
237	0xbac5fcde	-0.0015105268
238	0xbb3efafb	-0.0029141295
239	0x3b9c76a1	0.004774884
240	0x3b690d4b	0.0035560902
241	0x3c2d21df	0.0105671575
242	0xbb7f4c5b	-0.0038955424
243	0xbb366e4a	-0.0027836733
244	0x3b20cf4e	0.0024537626
245	0x3b8d394f	0.00430981
246	0x3a9fafad	0.0012183093
247	0xbbddaab5	-0.0067647346
248	0xb8913e5a	-6.925753e-05
249	0xbafe8ab6	-0.0019420001
250	0x3b5365df	0.0032256765
251	0xbb964ebb	-0.004587022
252	0x3b485882	0.0030570333
253	0x3b47da3a	0.0030495063
254	0xbc05c447	-0.008164472
255	0x39bc87f8	0.0003595946
