keras/npy_weights/Block17_2_Conv2d_1x1_kernel.npy (npy, 917632 bytes, 1 tensors)

array f4 [1, 1, 256, 896]
00000000: ca0f 16ba ea8a 1eba 2725 58ba 2ece b4b9
00000010: 745c 54b8 6de2 0aba 9022 a9ba 9628 97b9
00000020: 3fd1 3eba 17ce 15bb ae1b 3bb9 52cc 5cb9
00000030: a7a9 9bb9 b88e 26ba 552c edba d89f ff39
00000040: afc1 343b b462 5239 172e d8b9 5990 a0b9
00000050: aa7c 61ba c2e7 82b9 1560 1b3a 559d 42ba
00000060: bfae 8db7 c1a1 b4b9 a71a 50ba c5ed 73bb
00000070: 59bc 9bb9 fe74 95ba 9fd6 d138 700d 353a
00000080: 5c9a d939 ea72 4eb9 b974 10ba 97f0 95b9
00000090: 0f27 083a 7011 b0ba 744c 4fba c591 87ba
000000a0: 5430 e0b9 9e8a 5fba 9ad2 3cba 66be d23a
000000b0: 0208 b83a eaf2 cfba 43d9 b338 0b5d 81b9
000000c0: 2b8d 5a3a 8222 22b9 c922 e3b9 c4b2 cab9
000000d0: 67c5 1a3a bd56 7c3a 3082 d2ba 71d8 5eba
000000e0: 00cd f738 2358 7bb9 5002 f2ba 76a3 4aba
000000f0: 4d35 bcba 62b7 0fba dba3 96ba ea73 38b9
00000100: bd61 453a bd4e 0e3a f01a 8639 3846 f8ba
00000110: d064 78ba 70e0 c238 4d5d ccb9 fbd9 b0b9
00000120: 6818 ddb8 6997 d2b9 6349 ae3a 4fe8 353b
00000130: c96d 083a 8314 88ba abe8 90ba 5023 6fb9
00000140: b31f ceb9 027b 6839 4166 1bbb 3769 baba
00000150: 4bf1 c4b9 e943 c8ba 2b25 8cba 250e d5b9
00000160: d397 35ba a0c6 1cbb 418b a2ba c152 06ba
00000170: 5997 48ba 0f84 e8b9 fce9 1cba 93b1 0abb
00000180: 25a7 59b8 c816 17ba 055c daba 2a6a ebb9
00000190: d6c9 fdb9 e982 2d3a 4349 4439 2e85 d7b9
000001a0: 8c50 2fb8 835d af39 a170 233a 6d8d 5139
000001b0: ca05 f1ba d086 21ba 48b8 23ba 2e28 4138
000001c0: d179 193a 6c6c 38b9 8f56 d3ba fed2 1a3a
000001d0: 75dd 16ba 94fd 79ba bfc4 053a ea26 6aba
000001e0: 36d6 b7ba 284b 48b9 abe8 aeba a750 73b9
000001f0: 7dfd 3eba 2958 2aba 14c8 64ba 24a2 8b3a
00000200: 8238 1f38 3bff 23bb b180 96b9 818b bdb9
00000210: 7065 91ba 2f94 3aba 8e51 8e38 07f9 7d3a
00000220: d6e8 1239 e16a 3f3a 2df8 97b9 a9e7 e3b9
00000230: 6ab3 35ba a9a7 9bba 7e83 eaba d797 36ba
00000240: ac5a 67ba af57 9c38 a9e2 37b9 25d9 fdb9
00000250: 95d9 4ab9 071f 25ba 7ff5 1cba 5092 ebba
00000260: 3474 21ba d150 173a 0564 9bba 7855 f5ba
00000270: 915c 07ba ef7a 19ba db37 2aba 817a fcb9
00000280: e193 96ba b5e7 1d3a c755 1dba 1f9b 0439
00000290: 22ff 6cb9 98c8 8e3a 70c8 3a3b a483 03ba
000002a0: 19a7 a939 d45a feb8 90b4 8cba 3c2a 9339
000002b0: 4983 32ba b3c8 f937 f0f7 05ba 3df6 6bba
000002c0: c577 b3ba eac9 28ba f5d7 0aba 0495 06ba
000002d0: 4b93 07ba 1095 afb9 6ee2 2dba 128c 85ba
000002e0: fc9d 4eba 0b1e 48ba 6a14 73ba 70e6 a43b
000002f0: 9428 6bba b4b1 1dba 41f2 a9ba 6f0e 94b8
00000300: 514e 40ba 9e3d 82b9 3267 d5b9 eb59 2aba
00000310: 87ab 1239 576d 27bb 4291 38ba 3634 f6b9
00000320: b3db 04ba a272 bdba 7566 b138 5299 a1ba
00000330: d4f2 07bb 3207 8fb9 2515 32ba d5b5 a838
00000340: 4e5b 97ba 1d59 ce38 55ea 5eba 0ef8 a93a
00000350: a49d 35ba 0c52 a9ba 6ff1 adb9 4b4d c438
00000360: 57ab 27ba 63d3 e0b9 556e 90ba f1aa 93b9
00000370: e559 7138 8878 50b7 f042 2839 08f9 4239
00000380: c313 9dba 2ecb 06ba 217a d7b7 fcbc 05ba
00000390: 42b7 45b9 2217 efb8 1fa9 753a 1450 0ebb
000003a0: 3c40 c9b8 6dec b3b8 5e9a 93b9 4b60 4cba
000003b0: df03 64ba 0c0e eeb8 2194 d238 4230 9dba
000003c0: ccb2 a6b9 e903 68b9 ff57 a5b9 4265 b3ba
000003d0: bd5c 96b9 e8e7 e8b9 b6ca 55ba f335 11bb
000003e0: 8133 e2b9 58c0 48ba c7aa f4ba 81eb a6ba
000003f0: 07c1 04b9 461d f8b8 b2c1 11bb 4197 04bb
-0.00057243987 -0.00060479215 -0.0008245282 -0.0003448589 -5.0630842e-05 -0.00052980223 -0.0012903977 -0.00028831203
-0.0007279105 -0.0022858435 -0.00017844021 -0.0002105695 -0.00029690305 -0.0006353664 -0.0018094877 0.00048756483
0.0027581265 0.0002006393 -0.0004123307 -0.00030625126 -0.0008601645 -0.00024968205 0.0005927098 -0.0007423957
-1.6889882e-05 -0.0003445279 -0.0007938542 -0.003722058 -0.00029704234 -0.0011402664 0.00010005873 0.00069066044
0.00041504472 -0.000196885 -0.0005510557 -0.00028598748 0.00051938085 -0.0013432931 -0.0007907816 -0.0010343125
-0.00042760617 -0.00085274305 -0.0007203013 0.0016078472 0.0014040472 -0.0015865241 8.575853e-05 -0.0002467412
0.00083370757 -0.00015462379 -0.0004332273 -0.00038661633 0.0005904049 0.0009625962 -0.0016060527 -0.000850088
0.00011816062 -0.00023970059 -0.0018463824 -0.0007730046 -0.0014359147 -0.0005482343 -0.0011492925 -0.00017590789
0.0007529518 0.0005428603 0.00025578542 -0.0018941825 -0.00094754715 9.2924456e-05 -0.00038979427 -0.00033731744
-0.00010542647 -0.0004016713 0.0013297017 0.0027756875 0.00052043475 -0.001038209 -0.0011055669 -0.00022805971
-0.00039315 0.00022171068 -0.002371207 -0.001422203 -0.0003756381 -0.0015279028 -0.0010692229 -0.00040637064
-0.00069272256 -0.00239221 -0.001240112 -0.00051240256 -0.0007651947 -0.0004434888 -0.0005985794 -0.0021162971
-5.1892497e-05 -0.00057635875 -0.0016659504 -0.0004490179 -0.000484063 0.00066189334 0.00018719309 -0.00041107222
-4.1798266e-05 0.00033448273 0.00062347396 0.00019984478 -0.0018388566 -0.0006161751 -0.00062454166 4.6052206e-05
0.0005854639 -0.00017587998 -0.0016123819 0.0005906074 -0.00057550456 -0.0009536382 0.0005102865 -0.000893219
-0.0014025632 -0.00019101484 -0.0013344487 -0.00023204331 -0.00072856975 -0.0006498122 -0.0008727324 0.001065318
3.796118e-05 -0.0025023955 -0.00028706112 -0.00036152828 -0.0011092853 -0.0007117418 6.7862784e-05 0.0009688292
0.00014010383 0.0007301998 -0.0002898587 -0.00043469414 -0.0006931337 -0.0011875528 -0.0017891971 -0.0006965375
-0.0008825462 7.454992e-05 -0.00017536677 -0.00048417706 -0.00019345277 -0.0006298874 -0.00059875095 -0.0017972682
-0.0006158978 0.00057722355 -0.001185537 -0.0018717488 -0.0005163635 -0.00058548053 -0.00064933085 -0.00048156458
-0.0011488163 0.0006023602 -0.00060018565 0.00012646288 -0.00022601758 0.0010893522 0.0028500818 -0.00050168694
0.0003235869 -0.00012128582 -0.0010734964 0.00028069492 -0.0006809724 2.9776571e-05 -0.0005110493 -0.0009001231
-0.001369231 -0.0006438779 -0.00052964623 -0.00051338994 -0.00051717897 -0.0003348966 -0.0006633167 -0.0010188839
-0.0007881818 -0.0007633871 -0.0009272756 0.005032353 -0.0008970585 -0.00060155545 -0.0012965874 -7.0598784e-05
-0.0007335889 -0.0002484144 -0.00040703412 -0.0006498384 0.00013987544 -0.002554735 -0.0007040688 -0.00046959677
-0.0005068138 -0.0014453719 8.459102e-05 -0.0012329018 -0.0020744102 -0.00027280446 -0.0006793312 8.044733e-05
-0.0011547597 9.839444e-05 -0.0008503546 0.0012967603 -0.00069280923 -0.0012918129 -0.00033177013 9.360405e-05
-0.0006396076 -0.00042882105 -0.001101921 -0.00028165386 5.75426e-05 -1.24258295e-05 0.00016046665 0.00018594053
-0.0011984039 -0.00051419705 -2.5686868e-05 -0.0005101708 -0.00018855653 -0.00011400717 0.00093712093 -0.002171521
-9.5963915e-05 -8.579423e-05 -0.00028153037 -0.0007796331 -0.00086980866 -0.00011351341 0.000100411715 -0.0011992531
-0.000317952 -0.00022126701 -0.00031536815 -0.0013686793 -0.00028679325 -0.00044423272 -0.00081555115 -0.00221574
-0.00043144453 -0.0007658056 -0.0018666618 -0.001273498 -0.00012660409 -0.00011831014 -0.0022240696 -0.0020231756
