keras/npy_weights/Block8_2_Branch_1_Conv2d_0c_3x1_kernel.npy (npy, 442496 bytes, 1 tensors)

array f4 [3, 1, 192, 192]
0	0x3b8576f4	0.004073018
1	0x3b14e36d	0.0022718564
2	0x3b538002	0.0032272344
3	0x3b6d8199	0.0036240576
4	0x3a79f3f8	0.00095349504
5	0x3ad0745e	0.0015903821
6	0xbae0f558	-0.0017162962
7	0x3b445bee	0.002996202
8	0xbb1d7e2a	-0.0024031498
9	0x3ac45585	0.00149791
10	0x3b7db935	0.0038715128
11	0xbb49f6f3	-0.003081736
12	0xbb3eecb9	-0.0029132797
13	0x3ac56104	0.001505882
14	0x3bb21423	0.0054345294
15	0x3b4ae63c	0.0030959984
16	0x3b7433b6	0.0037262267
17	0x37229929	9.691613e-06
18	0x3b4ac13c	0.003093793
19	0x3ac1b261	0.0014777893
20	0x3adda369	0.0016909662
21	0x3b59d1eb	0.0033236693
22	0x3b5a90d8	0.0033350494
23	0x3ab6eac7	0.0013955467
24	0xbb0abce6	-0.002116972
25	0x3b926cb2	0.004468524
26	0xb9ee5ee7	-0.00045465605
27	0x3b81d202	0.0039618025
28	0x3b2df650	0.0026544519
29	0xbb4318a3	-0.0029769323
30	0xbb7a4805	-0.00381899
31	0x3b71a38c	0.0036871163
32	0x3b8ebc14	0.0043559168
33	0x3b44f152	0.0030051065
34	0x3aae0db8	0.0013279235
35	0x3b7d0d8b	0.0038612809
36	0xba15221d	-0.0005688982
37	0x3b6067a7	0.003424147
38	0x3a633bb3	0.00086682587
39	0x3b1001eb	0.00219738
40	0x3a65a879	0.0008760761
41	0x3b79d420	0.003812082
42	0x3b0833d5	0.0020782847
43	0x3addc5f0	0.0016919952
44	0x3ab11ca0	0.0013512559
45	0x3b2d8aed	0.0026480511
46	0x3a71f530	0.0009229956
47	0x3bae23bb	0.005314318
48	0x3adca917	0.0016835061
49	0xba5174b9	-0.00079901103
50	0x3aa6ca48	0.001272508
51	0x3b43bfa5	0.0029868868
52	0x3aa1077f	0.0012285559
53	0xbac31294	-0.0014882856
54	0x3b8bf624	0.0042712856
55	0x3af4ad2e	0.0018667334
56	0xbb7804a8	-0.0037844572
57	0xbbc17640	-0.005903989
58	0xb9acb3ba	-0.00032940303
59	0x3a371929	0.0006984645
60	0x3b1f6e17	0.0024327093
61	0x3b7c5504	0.0038502822
62	0xb89977ce	-7.317924e-05
63	0x3bc97904	0.0061484594
64	0x39a6cec3	0.00031816037
65	0xbb736b86	-0.0037142946
66	0xbb894fa6	-0.004190403
67	0x3ac28762	0.0014841373
68	0x3b4d13e1	0.0031292366
69	0xba86b622	-0.0010277668
70	0xbb408ccf	-0.0029380803
71	0xba3459dd	-0.0006879846
72	0x3ab10670	0.0013505947
73	0xba5f91aa	-0.00085284805
74	0x3a6087d7	0.00085651636
75	0x3af6a4db	0.0018817441
76	0x3b33183d	0.002732768
77	0x3984f83d	0.00025361954
78	0x38d4135d	0.000101125544
79	0xbb26bdcc	-0.0025442718
80	0xbaa1ee8c	-0.0012354418
81	0x3b4c92a3	0.0031215332
82	0x3b191e5d	0.0023364045
83	0xbb9327dd	-0.004490836
84	0xb9a07a6b	-0.00030608787
85	0xba4ddb68	-0.00078528235
86	0xb9b8247f	-0.00035122407
87	0x3b6379d0	0.0034710057
88	0x3b545521	0.0032399374
89	0x3b84cb77	0.004052575
90	0x3b6d095e	0.0036168913
91	0x39ec1609	0.00045029845
92	0xbac575ad	-0.0015064977
93	0x3b2d1dcc	0.0026415465
94	0x3afb3764	0.0019166288
95	0xbb549788	-0.0032438952
96	0x3aa19a54	0.0012329319
97	0x3b0156cd	0.0019735575
98	0x3aeb4e65	0.001795244
99	0xbb4b4f26	-0.0031022518
100	0x3ac2501a	0.0014824898
101	0x3b88e361	0.0041774963
102	0x38c173b1	9.224506e-05
103	0x3b7eedf7	0.0038899162
104	0x3b0d1aa2	0.0021530767
105	0x3b36b168	0.0027876738
106	0xba5b6849	-0.0008369727
107	0x3ba6473a	0.005074409
108	0x3aeeecc4	0.0018228521
109	0xbb9147ab	-0.0044335923
110	0xb853e0f5	-5.0515828e-05
111	0x3bcb94bf	0.0062128003
112	0xb9bfee62	-0.00036607968
113	0x37b5ef09	2.168819e-05
114	0x3acb37ee	0.0015504339
115	0x3a6c560c	0.00090155075
116	0xba9e0efb	-0.0012058908
117	0x3b861379	0.004091677
118	0xb9db6ccb	-0.00041851992
119	0x3bbd2bb0	0.00577303
120	0xbb8b5b0f	-0.0042527984
121	0x3b80d48c	0.0039315876
122	0xbafe14de	-0.0019384881
123	0x3a03acbb	0.0005022992
124	0x3bc0bfff	0.0058822627
125	0x3b98ea3f	0.004666596
126	0x380679bb	3.206146e-05
127	0xbbb32fd1	-0.0054683466
128	0xbb8225f8	-0.0039718114
129	0x3b39a49b	0.0028326872
130	0xba4b73dd	-0.00077611004
131	0xb89094ef	-6.894196e-05
132	0xbb8999a9	-0.004199226
133	0x3b56bf2e	0.003276776
134	0x3af34181	0.001855895
135	0xba34de5f	-0.0006899591
136	0x3a8d282b	0.0010769417
137	0xbb3b54b3	-0.002858442
138	0x386d25b7	5.6540328e-05
139	0x3aa625eb	0.0012676095
140	0x3b86ebf5	0.0041174837
141	0xbb6c2810	-0.0036034621
142	0x3b33c3f6	0.0027430034
143	0xb9d41c78	-0.00040457002
144	0x3b2c7040	0.0026312023
145	0xbb358c39	-0.0027701987
146	0x3b6cfe82	0.003616244
147	0x3b9aa6b1	0.004719578
148	0xbb874c1c	-0.004128946
149	0xbb71a568	-0.0036872271
150	0xba0d63b8	-0.00053935824
151	0x3b4c86b0	0.003120821
152	0x3a9560bd	0.0011396628
153	0x3ae1a803	0.0017216209
154	0x3b0fa45d	0.0021918037
155	0xbb9126ea	-0.0044296877
156	0x393edaca	0.00018201317
157	0x3ab5d130	0.0013871547
158	0x3a5b9adb	0.0008377262
159	0x3ae65175	0.0017571884
160	0x3b10c492	0.0022089821
161	0xb7de1782	-2.6475409e-05
162	0x3b899231	0.0041983356
163	0x3ab1c1de	0.0013561805
164	0x3b5ab197	0.0033370012
165	0x3b71c0e5	0.0036888656
166	0x3b4d99ac	0.0031372113
167	0x3a31cb19	0.0006782278
168	0x399677ce	0.0002869949
169	0xb9634198	-0.00021672843
170	0xb9c80c73	-0.00038156248
171	0x3ad7dbcb	0.0016468702
172	0x3b0c9fd9	0.0021457581
173	0x3b41f248	0.0029593874
174	0x3b83362e	0.0040042615
175	0x3a09e070	0.0005259579
176	0x3b486b68	0.0030581597
177	0x3bb17afa	0.0054162713
178	0x3b0e4c6c	0.0021713031
179	0xb91ae271	-0.0001477094
180	0x3b7414d0	0.003724385
181	0xbb7d95fb	-0.0038694132
182	0x3b4a9bef	0.0030915698
183	0xbb062cca	-0.0020473474
184	0x3a9a6467	0.001177919
185	0xbbd9e6d6	-0.0066498322
186	0xbaf5c92f	-0.0018751974
187	0x3abbee20	0.0014337935
188	0x3a997def	0.0011710505
189	0x3b4ad24e	0.0030948105
190	0x3b9b385a	0.0047369422
191	0x3b736593	0.00371394
192	0x39872684	0.00025777903
193	0xbbd07315	-0.006361375
194	0xbb2289fa	-0.0024801479
195	0xbae036ff	-0.0017106234
196	0x3b44d9a7	0.0030036957
197	0xba945701	-0.0011317433
198	0xbba62a2b	-0.005070945
199	0x3b70d81b	0.0036749903
200	0xbbcd7e27	-0.006271142
201	0xba67622c	-0.00088265794
202	0xb9ddde1d	-0.00042317892
203	0xb9f64819	-0.00046974493
204	0xbbe595d2	-0.0070063854
205	0xba78e049	-0.00094938703
206	0x399085af	0.00027565422
207	0xbb1e8a52	-0.0024191332
208	0xbab9c9f7	-0.001417457
209	0xba0e5169	-0.0005429001
210	0x3b25fcb1	0.0025327618
211	0xbbd19cf6	-0.006396885
212	0x3ad16631	0.001597589
213	0x3b988327	0.0046543065
214	0xbb236311	-0.0024930874
215	0xbb8090e3	-0.003923522
216	0xbb27e765	-0.00256201
217	0xbb01a8cf	-0.0019784456
218	0xbb9cf02d	-0.0047893734
219	0x3aac17eb	0.0013129687
220	0xb8eb4e61	-0.000112202724
221	0x39b057df	0.00033634805
222	0x3b96825e	0.0045931777
223	0xbb2387e8	-0.0024952833
224	0xbb01b0c3	-0.0019789196
225	0x3a973e6e	0.0011538991
226	0x3ba040f3	0.004890555
227	0xbb26652c	-0.0025389893
228	0xba9a50de	-0.0011773368
229	0x3a6f83e2	0.00091367785
230	0x3b7945ab	0.003803591
231	0x3a2fb6ba	0.00067029486
232	0xba9d36fc	-0.0011994536
233	0xba10b617	-0.00055202976
234	0xbb28f3b2	-0.002578002
235	0xbb4ca5eb	-0.0031226825
236	0xbb3d941e	-0.0028927396
237	0xbb064bb7	-0.0020491907
238	0x3a65b076	0.00087619515
239	0x3a783f6f	0.00094699016
240	0x3b739db1	0.0037172849
241	0x3a4f7129	0.00079132855
242	0xbb37659b	-0.0027984146
243	0x3a81ce69	0.0009903434
244	0x3a8fb110	0.0010962803
245	0xbb4d0d07	-0.0031288282
246	0xba15e553	-0.0005718071
247	0xbbbc4233	-0.0057451962
248	0x39af46f8	0.00033431477
249	0xbb695489	-0.0035603365
250	0xbb7412b6	-0.0037242598
251	0xbacb622b	-0.0015516927
252	0x3b179428	0.002312908
253	0xbb0c9346	-0.0021450086
254	0x3ad456da	0.00162002
255	0xbb1a0c0a	-0.002350571
