keras/npy_weights/Block17_3_Conv2d_1x1_kernel.npy (npy, 917632 bytes, 1 tensors)

array f4 [1, 1, 256, 896]
-0.00079236366 -0.00021457732 -0.00028618984 -0.0006035279 0.0003335115 -0.0004911443 0.00081782823 -0.0003520958
0.00034569073 -0.0010555034 -0.003181764 -0.00023988362 -0.000111168025 -0.00067596143 -0.00075981487 0.0009779584
0.0004748107 0.0042351475 -7.144881e-05 -0.0011379183 0.0014420069 -0.00031487865 -0.0013899818 -0.0017400138
0.0003825255 -0.00013791876 -0.00041260823 -0.0027824063 -4.0016556e-07 0.00047973593 -0.00014848824 0.0007649548
0.0011184867 -0.00016666282 -0.0003397413 -0.0010327948 -0.00030566382 -5.3109583e-05 -0.00011549337 -0.0002520761
0.00044804893 0.00056243036 -0.00016861274 0.0013349686 0.001411215 -0.0008173371 -0.00016777829 -0.0002073369
-6.551735e-05 0.002012016 -0.0009878526 0.001072604 5.2517917e-05 -0.00080826215 -0.0004065862 -0.0009261799
-0.00015778879 0.00066971005 0.0013378662 7.351943e-05 -0.00017250126 -0.0003245985 -0.00083430007 0.00036414768
-0.0034225807 2.7600514e-05 -0.00047621335 -0.0018969219 0.0011195686 -0.0009918553 0.0010109631 7.38387e-05
-0.0002116534 0.0010883537 0.0012124358 0.0031182303 0.0005011225 0.0002436162 0.00013145627 0.00022620139
-0.00027146662 -0.00027797627 0.0011104993 -0.0009761583 0.00059437624 -0.0006976944 -0.00014334993 0.0014625833
-0.00029367305 -0.00017547658 -0.00058321067 8.5656735e-05 -0.0009998764 -0.000102713144 0.000583135 0.00057340914
-0.0003278626 -0.0011291096 -0.0015864765 -0.0010526854 3.2113992e-05 -8.337986e-05 -0.003229928 -0.0004999467
-0.0006966823 0.00094824395 -0.0007331101 -0.0018242352 0.0015867206 -0.00073244434 6.906196e-05 -0.00017744662
0.0023542077 -0.00096893456 -0.0007645746 0.00052543124 -0.0016697029 2.0518073e-05 -0.00021633218 0.000720083
0.00013372919 0.0007562981 0.00024819752 -0.0009420032 -0.00027392927 -0.0007151347 -3.080117e-05 -3.7243502e-05
-0.00033689348 0.0013459156 0.00177131 -0.00069308863 -0.0020642793 -0.00058420707 0.0007743069 0.0043032942
-0.0011790771 -0.0012793327 0.0003061839 -0.0055049905 -0.0002759148 0.00033416646 0.00052344793 -0.00078082713
-1.1175703e-05 -0.0008226112 -0.00037947943 0.0003902366 0.0013130252 -0.00045344047 -1.4589713e-05 0.0007123168
-0.00016968546 -0.0002601392 0.00025341017 -0.00020496843 -0.0007395021 -0.0008847247 0.0004604182 -0.0006752867
0.00030009303 -0.00043866306 0.00055502 -0.0010564527 -0.00047569955 0.00072347786 -0.0011070789 -0.00071697094
-0.00018948247 -8.573462e-05 -0.0002334544 -0.00022046402 -0.0006854407 0.0005874779 -7.461642e-05 0.0016188283
0.00083626364 -0.00015884478 -0.00036615055 -0.00029712525 0.0005841965 -0.0016029291 0.00054978975 -0.00038810258
-0.0019139233 -0.00015338838 0.0006423157 -0.0047719697 0.0044448855 -0.00036032035 0.0001159219 -0.00019772453
-0.0018995136 -0.00013322767 3.008652e-05 0.0013032793 1.866306e-05 0.0009604571 -0.00023945972 0.000947705
-0.0006295235 6.1432205e-05 -2.6288291e-05 -0.00088286534 0.00037092736 4.269139e-05 0.0001805023 0.00035547366
0.00023147611 -0.0003281014 -0.0016251444 0.0020847793 0.00051691756 -0.000121015066 0.0006259309 -0.00019435475
-0.0011866889 0.00015856541 -0.00016884576 -0.00032013614 0.00046165026 0.006383048 -0.000102990685 -0.0045184605
0.00041156248 -6.8856396e-05 -0.00063940434 0.00024133432 0.0009262493 4.06389e-05 -0.00048615164 0.003342582
-0.00093761133 -6.009762e-05 0.0028510238 0.0007113965 -0.0020380253 0.0003364039 -1.9025238e-05 0.0017578496
-9.576973e-05 0.0010756569 0.00061629707 0.00045303197 8.9278925e-05 -0.006150098 -0.0007837701 -0.0011777118
-0.0012001963 -0.0020456465 0.00026651096 0.0012699806 3.125016e-05 -0.0013612685 -0.0016473772 -0.0003892973
00000000: a0b6 4fba 2900 61b9 c00b 96b9 1236 1eba
00000010: 28db ae39 23c0 00ba 8663 563a 8099 b8b9
00000020: d33d b539 d158 8aba 2485 50bb 4589 7bb9
00000030: e122 e9b8 0133 31ba 502e 47ba d72e 803a
00000040: 03f0 f839 fec6 8a3b cad6 95b8 3426 95ba
00000050: b901 bd3a 4c16 a5b9 0d30 b6ba 2d11 e4ba
00000060: b48d c839 499e 10b9 5753 d8b9 0859 36bb
00000070: 56d6 d6b4 1185 fb39 82b3 1bb9 3f87 483a
00000080: 309a 923a 36c2 2eb9 4e1f b2b9 d85e 87ba
00000090: 8141 a0b9 fbc1 5eb8 0835 f2b8 1529 84b9
000000a0: 1ce8 ea39 1070 133a a3cd 30b9 1dfa ae3a
000000b0: 85f8 b83a 9042 56ba a4ed 2fb9 9368 59b9
000000c0: 5c66 89b8 07dc 033b d57a 81ba 9e96 8c3a
000000d0: af46 5c38 8ee1 53ba 132b d5b9 e2ca 72ba
000000e0: 1b74 25b9 7b8f 2f3a 575b af3a 722e 9a38
000000f0: 74e1 34b9 e02e aab9 eeb4 5aba 13eb be39
00000100: 604d 60bb a787 e737 46ac f9b9 23a2 f8ba
00000110: 7dbe 923a 2401 82ba 4b82 843a dad9 9a38
00000120: 47ef 5db9 17a7 8e3a 98ea 9e3a 395b 4c3b
00000130: c35d 033a 3a73 7f39 86d7 0939 7930 6d39
00000140: a253 8eb9 58bd 91b9 2c8e 913a e0e4 7fba
00000150: eacf 1b3a 7be5 36ba 3450 16b9 27b4 bf3a
00000160: 21f8 99b9 2300 38b9 9be2 18ba 9ca2 b338
00000170: 490e 83ba b367 d7b8 87dd 183a d650 163a
00000180: f9e4 abb9 a2fe 93ba 51f1 cfba 43fa 89ba
00000190: 23b2 0638 39dc aeb8 33ad 53bb db0e 03ba
000001a0: 8fa1 36ba 9393 783a 302e 40ba 2d1b efba
000001b0: 82f9 cf3a 8201 40ba 5cd5 9038 f710 3ab9
000001c0: 0d49 1a3b 1900 7eba bc6d 48ba 18bd 093a
000001d0: efd9 daba 3a1e ac37 3ad7 62b9 f4c3 3c3a
000001e0: a839 0c39 4e42 463a 8220 8239 c4f0 76ba
000001f0: 2a9e 8fb9 e177 3bba 8130 01b8 e835 1cb8
00000200: 14a1 b0b9 6f69 b03a 4d2b e83a 64b0 35ba
00000210: dc48 07bb 7925 19ba dbfa 4a3a a602 8d3b
00000220: 438b 9aba 48af a7ba 4f87 a039 3563 b4bb
00000230: a8a8 90b9 1033 af39 ff37 093a 6cb0 4cba
00000240: 477f 3bb7 81a4 57ba def4 c6b9 ab98 cc39
00000250: d119 ac3a c0bb edb9 57c6 74b7 c5ba 3a3a
00000260: 98ed 31b9 4b63 88b9 23dc 8439 cbec 56b9
00000270: 25db 41ba dfec 67ba 4964 f139 b905 31ba
00000280: ce55 9d39 5cfc e5b9 c37e 113a ac78 8aba
00000290: 5067 f9b9 c7a7 3d3a 671b 91ba 1bf3 3bba
000002a0: d0af 46b9 6ccc b3b8 70cb 74b9 5c2c 67b9
000002b0: 26af 33ba f900 1a3a 637b 9cb8 dd2e d43a
000002c0: b438 5b3a 928f 26b9 e5f7 bfb9 7ac7 9bb9
000002d0: c324 193a 6019 d2ba c41f 103a 3f7a cbb9
000002e0: 9cdc faba e1d6 20b9 1461 283a 2f5e 9cbb
000002f0: 67a6 913b 61e9 bcb9 191b f338 4654 4fb9
00000300: 1af9 f8ba 08b3 0bb9 4f62 fc37 ccd2 aa3a
00000310: 9e8e 9c37 2fc7 7b3a 7b17 7bb9 686f 783a
00000320: 9b06 25ba 2ad5 8038 ad85 dcb7 1770 67ba
00000330: 0779 c239 880f 3338 3845 3d39 de5e ba39
00000340: 65b8 7239 0605 acb9 cc02 d5ba cba0 083b
00000350: c081 073a 78c9 fdb8 8315 243a b5cb 4bb9
00000360: ac8a 9bba 9444 2639 300c 31b9 f2d7 a7b9
00000370: a609 f239 e328 d13b b4fc d7b8 980f 94bb
00000380: fbc6 d739 ff66 90b8 b39d 27ba b00e 7d39
00000390: 8acf 723a b073 2a38 2be2 feb9 380f 5b3b
000003a0: 08ca 75ba 5411 7cb8 3ed8 3a3b 037d 3a3a
000003b0: 6490 05bb 5e5f b039 6398 9fb7 a567 e63a
000003c0: fbd7 c8b8 0efd 8c3a ff8e 213a ec84 ed39
000003d0: 423b bb38 c386 c9bb ec75 4dba 735d 9aba
000003e0: e84f 9dba 4110 06bb 7fba 8b39 7a75 a63a
000003f0: 9b12 0338 976c b2ba ceec d7ba 991a ccb9
