keras/npy_weights/Block17_9_Branch_0_Conv2d_1x1_kernel.npy (npy, 458880 bytes, 1 tensors)

array f4 [1, 1, 896, 128]
00000000: 84f4 643a e03e beba 32af 7e3a ff22 aaba
00000010: a606 f337 3aa8 82ba 91fb ee38 d97a e2b8
00000020: 4a3c 91ba 3859 22ba 7174 d339 8af3 653a
00000030: 196a 24ba 5f32 1b3b 8dda fd3a ee5b 49b9
00000040: 8c5a 01ba f775 94ba 69e0 cb3a 5580 d839
00000050: 28fc abb8 0547 7eba 4dd3 c6b9 c279 5e38
00000060: 9e22 8e3a 03bd c638 8fc4 8cb9 d573 8c39
00000070: a27b acb9 9526 3f3a c21c 1bbb 4002 0eb9
00000080: 244a 8639 03cb 7b3a 6e6b ab3a c42e 023a
00000090: 5eba 57ba 02be 25b9 a0d0 fab9 037a e9b8
000000a0: f24d 033a 1616 de39 71f9 07b9 8784 e5b9
000000b0: acc1 4e38 e019 c5b8 086d 0ab6 c890 42ba
000000c0: c55b 38ba adfa 1fb9 4c27 b3b8 8e29 003a
000000d0: f5f4 01ba bccc f8b8 3155 6d3a ae0d 8d3a
000000e0: f81e f5b9 3974 303a 9611 46ba c3be cdb8
000000f0: fac8 063b 3af7 723a 61e7 edb9 f512 5eb9
00000100: f870 a53a 39b0 013b 0f84 e03a 5905 5c3a
00000110: ef4a b03a 9876 d3b9 ab88 ce39 267b 493a
00000120: 3863 23ba 3504 9f39 4d79 783a 3864 d5ba
00000130: 08cb a339 b8c2 aa39 3ce7 5bba 311b e1b8
00000140: 4969 a5b9 87ef 9eba 2701 0e3a c8cc 73b9
00000150: 46bf cb39 bfa1 1e3a c2e3 36b9 1313 feb9
00000160: 0594 e4ba 0f73 353a d8f5 683a 5772 333a
00000170: 5328 abba a407 67ba 5237 0db9 7b4d cdba
00000180: 8177 ca39 dc7c e5ba 3d94 64b8 84ef bdba
00000190: a458 e3b9 81c5 1b3a a0f3 0b3a 3ea9 90ba
000001a0: c199 05ba 6898 993a 6a7b 533a 8e40 3938
000001b0: b241 9c39 8184 663a 5b30 65b9 d742 783a
000001c0: 4d28 643a df74 90ba 222a 843a 9354 723a
000001d0: 82a0 91ba 537a 72ba e5f1 ca3a d62c 313a
000001e0: c805 a13a c959 8dba 3bf6 d03a a890 11bb
000001f0: 1bb7 d737 5ab4 e839 a5bc 9b3a d8ff 3639
00000200: 9f5e f739 fa95 4f38 bef3 11bb cb41 9139
00000210: 62bd fe39 9866 b23a 9fde 33ba 1c24 b03a
00000220: 1a20 c3b9 9793 4f3a 9da4 aeb9 4b26 e438
00000230: 1a2c aa3a 2c22 09ba 81f6 2eba ad8a 01bb
00000240: 5b90 4eb9 5176 0b3a 6aa1 2cba 1c3f c83a
00000250: 390e 6aba 5789 e93a 6f3a b53a 5bc3 1e3a
00000260: 9e03 b838 a0e9 d9b7 3534 273a 63c2 083a
00000270: 7763 93ba 1714 c63a 1692 3c3a 7f9f a73a
00000280: 9f6c b0b8 50b7 7fb9 ebac 98ba 5432 763a
00000290: cbdc 0eb9 7ee2 6039 7fe9 7b38 2466 fe37
000002a0: 637f e939 45a7 0abb 3c28 16ba a76e 23ba
000002b0: d82f 85ba 2eaf 1db9 6ea7 0a38 03b2 8139
000002c0: 4ab5 be3a d602 f5b7 e961 013a 920e 75ba
000002d0: 79b4 1a3b c34a 5cba 057a aa3a 0f8b 073a
000002e0: 3fd2 913a 2e0f 693a b646 7cba e3dc a2ba
000002f0: dc19 4936 feb0 853a 21e4 7e3a a295 523a
00000300: 74b2 cb3a 8048 203a e44b 0eb9 f848 c1b8
00000310: a579 8f39 03d5 8cb9 8143 c5b9 89d5 ffb7
00000320: bf61 41ba 3db1 24ba ebfa 4c38 6f2f dbba
00000330: 9568 f839 6a79 0739 1990 62ba 085b 76ba
00000340: 971a 0dba 3527 8fba 01af 313a 29eb 343a
00000350: d7b2 b8ba fc6f 9639 aad2 063a bba0 8539
00000360: 6ca6 353a cf6b a33a 1852 5539 8882 153b
00000370: e892 ce39 75c5 a1ba dc5f be39 4bab f9ba
00000380: cc43 a237 d0a9 163a ca66 223a 7bcb cd39
00000390: 7994 f1b9 0c52 ffb9 aa0c 7b38 3b6d 31ba
000003a0: 7e61 6d39 914e 03ba 82d9 3a3a 3f8b 1b3a
000003b0: 60fc 323a 4e69 a83a dbc2 e6b8 b8a6 10ba
000003c0: 46bc 9a3a 304c 51ba 6cb0 e03a 9813 823a
000003d0: e05c 9139 c149 af3a ca0d 07ba 58d2 fe39
000003e0: 7bb7 f3b6 0c93 3d3b a47e 3aba 96ef 1e3b
000003f0: b1af 383a 5d2c 0838 5cbd 90ba fe19 17b9
0.00087339454 -0.0014514588 0.0009715437 -0.00129804 2.8970953e-05 -0.0009968348 0.00011395582 -0.00010799402
-0.001108059 -0.0006193104 0.00040331812 0.0008771947 -0.00062719133 0.0023681147 0.0019367501 -0.000192031
-0.0004934452 -0.001132666 0.001555455 0.00041294345 -8.200883e-05 -0.0009699914 -0.00037922934 5.304232e-05
0.0010844057 9.476582e-05 -0.00026849328 0.00026789182 -0.0003289851 0.0007291821 -0.0023668264 -0.00013543013
0.0002561371 0.0009605141 0.0013078281 0.0004966075 -0.000822937 -0.0001580641 -0.00047839154 -0.00011133032
0.0005008868 0.00042359595 -0.00012967527 -0.00043777024 4.92946e-05 -9.3985116e-05 -2.0627067e-06 -0.0007422087
-0.00070327177 -0.00015256806 -8.542705e-05 0.00048890046 -0.0004957461 -0.00011863696 0.0009053527 0.0010761523
-0.00046753115 0.0006731186 -0.0007555721 -9.810694e-05 0.0020566569 0.0009268407 -0.00045376553 -0.00021178632
0.0012622168 0.0019788875 0.00171292 0.0008393131 0.0013450066 -0.00040333415 0.00039393207 0.0007685892
-0.0006232741 0.00030329978 0.00094785244 -0.0016280478 0.00031241053 0.00032570004 -0.00083886436 -0.00010733901
-0.00031549696 -0.0012125828 0.0005417042 -0.00023250573 0.00038861687 0.0006051324 -0.00017441719 -0.00048460867
-0.0017439133 0.0006921747 0.0008886731 0.0006845346 -0.0013058282 -0.0008813089 -0.00013467416 -0.001566335
0.0003861748 -0.0017508524 -5.4497494e-05 -0.0014490937 -0.00043362856 0.0005942211 0.0005338732 -0.0011036766
-0.00050964585 0.0011718394 0.00080674014 4.416756e-05 0.00029803585 0.00087935483 -0.00021857156 0.0009470409
0.0008703515 -0.0011021158 0.0010083357 0.000924417 -0.0011110457 -0.0009249795 0.0015483467 0.0006758695
0.0012285048 -0.0010784204 0.0015942523 -0.0022211466 2.5715262e-05 0.0004438486 0.0011881782 0.00017452182
0.0004718201 4.9492322e-05 -0.0022270526 0.00027705575 0.00048587756 0.0013610898 -0.0006861481 0.0013438496
-0.00037217216 0.0007918416 -0.00033310513 0.0001087902 0.0012983114 -0.0005231227 -0.0006674305 -0.0019766495
-0.00019699468 0.000532006 -0.0006585332 0.0015277597 -0.0008928511 0.001781742 0.0013826619 0.0006056332
8.7744775e-05 -2.5977206e-05 0.0006378324 0.0005216954 -0.0011244853 0.0015112188 0.00071933994 0.0012788622
-8.412566e-05 -0.00024386984 -0.0011648213 0.0009391655 -0.00013624427 0.0002144668 6.0060524e-05 3.0326722e-05
0.00044536134 -0.002115683 -0.0005728041 -0.0006234445 -0.0010161353 -0.00015037946 3.3057695e-05 0.00024737426
0.0014549878 -2.9207597e-05 0.0004935549 -0.00093481794 0.0023606105 -0.00084034743 0.0013006335 0.00051705627
0.001112528 0.00088905066 -0.0009623574 -0.0012425449 2.9966386e-06 0.0010199843 0.0009723325 0.0008033161
0.0015540854 0.0006114319 -0.00013570447 -9.216549e-05 0.00027365718 -0.00026861587 -0.00037625062 -3.0497804e-05
-0.0007376931 -0.0006282514 4.8871076e-05 -0.001672251 0.00047380166 0.00012919834 -0.0008642688 -0.000939772
-0.00053826853 -0.0010921719 0.0006778092 0.00069014967 -0.0014091384 0.00028693664 0.0005143086 0.0002548749
0.0006929401 0.0012468043 0.00020343845 0.0022813398 0.00039400836 -0.0012342172 0.00036311045 -0.0019048242
1.9343475e-05 0.000574735 0.00061951263 0.00039252252 -0.00046077723 -0.0004869852 5.9854858e-05 -0.0006768291
0.000226384 -0.0005008961 0.0007127748 0.000593353 0.0006827768 0.0012848766 -0.00011003549 -0.0005518007
0.0011805377 -0.000798407 0.0017142422 0.0009924052 0.00027725752 0.0013373421 -0.0005151896 0.00048603374
-7.2633243e-06 0.0028926758 -0.0007114208 0.002425169 0.0007045223 3.2466243e-05 -0.0011042762 -0.00014410165
