keras/npy_weights/Block17_7_Branch_1_Conv2d_0b_1x7_kernel.npy (npy, 458880 bytes, 1 tensors)

array f4 [1, 7, 128, 128]
000000 37 b8 66 3b 81 e0 79 ba 11 69 79 bb 7b 49 17 bc
       0.0035205015 -0.000953205 -0.003805701 -0.009233828
000010 fa 7f 0f 3b 2d 09 0d bb ef b2 0d 3b d0 12 16 bb
       0.0021896348 -0.0021520362 0.0021621545 -0.0022899397
000020 3c f6 4f bb 04 d0 92 3b 8b db 77 3b 2b 4b b6 3a
       -0.003173246 0.004480364 0.0037820067 0.00139079
000030 fe ec fa 3a 21 48 2d ba 20 15 03 bc eb 05 fa 3a
       0.0019144116 -0.00066101743 -0.008000642 0.001907525
000040 03 06 95 3b c5 96 93 bb 36 ad 07 bb cd fd 97 3b
       0.004547836 -0.004504057 -0.0020702607 0.0046384097
000050 76 8b 86 bb 09 07 1e bb 62 0b b8 bb 1c fe 06 3b
       -0.0041059805 -0.002411308 -0.0056165913 0.0020598238
000060 f3 e3 6e 3b 71 1f 8a 3b 7b fa 00 bb 8b 3a 55 bb
       0.0036451786 0.004215174 -0.0019680548 -0.0032536115
000070 8e 98 8a 3b 8f ab fc bb 38 49 2d 3a 6b 11 64 39
       0.0042296117 -0.007710881 0.0006610337 0.00021750263
000080 59 e4 5e 39 20 aa a5 bb 04 66 dc 3a 13 4c c2 bb
       0.00021256636 -0.005055681 0.0016815071 -0.005929479
000090 4e 65 8f bb e7 cd 1a bb 99 ca 65 ba 5f 75 37 3b
       -0.00437609 -0.0023621263 -0.0008765846 0.0027993543
0000a0 dc 9a be 3b 7e e2 46 bc 46 46 a1 3b af 13 70 39
       0.0058168005 -0.012138961 0.0049217073 0.00022895516
0000b0 6c dc a6 3a d1 3e ba 3a 4f 8e 35 3a 5a 8b 8a 39
       0.0012730486 0.0014209395 0.00069258077 0.00026425236
0000c0 50 d2 8f bb 85 46 1b 3b 55 56 95 b8 aa 2d 1c 3b
       -0.004389085 0.0023693156 -7.120954e-05 0.002383093
0000d0 4d 34 ed 3b 49 0b 8b bc 56 1e 55 3b 2f 33 6e bb
       0.0072389008 -0.016973155 0.0032519302 -0.0036346426
0000e0 8a e9 96 bb 72 6f de bb 06 45 67 bb a9 f0 82 bb
       -0.0046054767 -0.0067881877 -0.0035288944 -0.003995974
0000f0 62 d5 43 b9 f0 4f 07 bc ea 94 17 3b dc 3a c7 3a
       -0.0001867614 -0.008258805 0.0023129531 0.0015200037
000100 c9 df 00 3a 59 f3 51 3a 8a 67 31 3b a0 e8 50 bb
       0.0004916159 0.0008008979 0.002706977 -0.0031876937
000110 71 d0 6a ba c9 5a 63 3a ab aa 6a bc 6a 81 f6 ba
       -0.0008957452 0.0008672891 -0.014322917 -0.0018806879
000120 71 65 cb 39 bd 81 32 3b 19 c9 97 bb 3b 82 19 3a
       0.00038794757 0.0027237975 -0.004632127 0.00058558927
000130 6c fc 42 ba 4f 17 8b bb 3d 60 6a 3b 53 28 c1 bb
       -0.00074381265 -0.004244722 0.003576293 -0.0058946996
000140 59 8b ae 3b 8e ca 97 3b 32 c3 68 ba 18 38 47 3a
       0.00532667 0.0046323007 -0.0008879184 0.0007599606
000150 fc 01 25 ba 62 47 46 bb ce 56 62 3b 63 24 8d 39
       -0.0006294546 -0.003025495 0.0034536603 0.00026920726
000160 6a aa 66 3b ef 78 dc bb 3d c6 8d bb a0 e4 f1 3b
       0.003519679 -0.0067282836 -0.0043266104 0.0073819906
000170 70 eb 85 3b 13 ed ca ba 2b 51 2e ba da 91 05 bb
       0.004086904 -0.001548203 -0.0006649668 -0.0020381124
000180 fb 71 e7 3b e7 5c 6e bb f5 cb b9 3a 22 18 2c bb
       0.007063148 -0.0036371292 0.0014175164 -0.0026259501
000190 08 68 ea bb 25 98 3a 3a 03 d6 f1 bb 9e 71 26 3b
       -0.007153515 0.0007118008 -0.0073802485 0.002539731
0001a0 3d 4d 81 bb f9 bb b5 bb f6 2c b0 3a 18 2c fd bb
       -0.003945975 -0.0055460897 0.0013441134 -0.0077262037
0001b0 f6 49 e9 ba 5c cc 00 bb 4d d2 00 bc 55 f4 4d ba
       -0.0017798531 -0.0019653058 -0.00786264 -0.00078565377
0001c0 45 8e 11 3a 59 f9 6c 39 94 37 f4 b8 30 a3 45 b9
       0.0005552511 0.00022599603 -0.00011645179 -0.00018848176
0001d0 5e c3 19 3b d3 79 0b bb a8 6a 84 3b 42 62 78 b9
       0.0023462395 -0.002128233 0.0040410347 -0.00023687727
0001e0 73 a4 cf 3a ae a6 55 bb e7 28 86 bb 71 e7 88 3b
       0.0015841856 -0.003260057 -0.0040942314 0.0041779806
0001f0 c5 a7 b4 ba 67 ca 57 3b 50 06 4b b9 d2 eb 12 3b
       -0.0013782909 0.0032927038 -0.0001936194 0.0022418392
000200 dd ed 7d bb 5c 66 e7 3b aa c8 ac bb b5 1d aa b9
       -0.0038746514 0.0070617627 -0.0052729445 -0.0003244706
000210 10 a3 ec 3a 21 16 0a bb d4 a4 18 bb 4b a5 ef bb
       0.0018053968 -0.0021070319 -0.0023291605 -0.0073134056
000220 f6 b0 e9 bb 02 d4 91 bb a5 e2 74 ba 29 30 82 bb
       -0.007131691 -0.004450322 -0.0009341634 -0.0039730263
000230 99 26 90 b9 8a 3f 2a 3b 32 e6 bc bb 42 64 66 39
       -0.00027494578 0.0025977814 -0.005764746 0.00021971858
000240 24 03 0a 3c a8 1c 19 bc e4 b7 c8 3b 4f 92 f9 3a
       0.0084236 -0.009345211 0.006125437 0.0019040796
000250 44 01 9b ba ac b1 4b ba ab eb 24 bb 5b 04 6d 3b
       -0.0011825939 -0.00077703106 -0.0025164883 0.0036165926
000260 5c cf 5c 3b 99 98 56 3b 3d de 86 37 f4 16 4f 3b
       0.0033692932 0.0032744764 1.6077533e-05 0.0031599374
000270 3a 34 28 bb 95 7e e0 bb e2 87 bf bb 17 db 16 3b
       -0.0025665895 -0.0068510273 -0.005845056 0.0023018771
000280 bc 9e 36 bc f4 b4 bb 3b b3 ac 72 b8 8c d3 d8 3b
       -0.011146244 0.0057283584 -5.7858135e-05 0.006617015
000290 1e a8 5c bc a7 f9 2d 3b 50 62 e6 3a 0e fb 08 3c
       -0.013467817 0.002654651 0.0017576907 0.008360637
0002a0 4f ec 6b ba 71 1c c7 3a 58 c5 51 3b 3f 80 89 bb
       -0.00089997513 0.0015190971 0.0032008495 -0.0041961963
0002b0 8d f0 b1 bb 45 38 1d 3b 3b a8 0d 3b e6 a2 94 3a
       -0.005430287 0.0023989838 0.0021615166 0.0011340051
0002c0 7e 79 a2 bb af 4e b1 bb fd ff 98 ba 9e f4 be 3b
       -0.0049583307 -0.005410991 -0.001167297 0.0058275005
0002d0 71 f1 39 bb 95 e6 bb b8 43 cb 90 bb 82 55 b6 3b
       -0.002837267 -8.959804e-05 -0.004418762 0.0055643925
0002e0 29 86 f8 3a 5e 0e 51 ba 3a 1a 7d 3b a0 a5 b8 3a
       0.0018960881 -0.0007974858 0.0038620369 0.0014087446
0002f0 4f 0e c3 bb 5f 2d aa 3b b9 c8 c6 3b 22 6e 02 3a
       -0.0059526335 0.005193397 0.0060664085 0.00049755175
000300 c9 cf 9f 3a b4 f3 ae 39 91 f0 e0 bb ee dc d7 bb
       0.0012192662 0.0003336944 -0.0068646153 -0.006587616
000310 e8 3b 01 3c e1 1a a0 bb e8 80 14 bb 3d 11 a8 3b
       0.007887818 -0.0048860167 -0.0022659842 0.005129008
000320 cd 01 56 bb 86 93 a5 ba b6 6e e9 3b 50 b2 05 bc
       -0.0032654882 -0.0012632466 0.0071237935 -0.008160189
000330 54 1b 90 b9 46 0b 43 3c 68 c5 b6 bb c8 1a eb 3b
       -0.0002748618 0.011904543 -0.005577732 0.0071748234
000340 07 32 a1 ba 28 ac 5d bb fd a9 8b bb 68 38 58 3a
       -0.0012298235 -0.0033824537 -0.0042622075 0.0008248151
000350 d2 e4 e7 ba 41 6f c0 bb 91 68 b8 bb 48 02 f4 3b
       -0.0017692095 -0.0058726375 -0.0056276997 0.007446561
000360 e0 6c ad ba 0b 35 ef 3a 99 a5 82 3b 08 3e 73 bb
       -0.00132313 0.0018250061 0.003987026 -0.003711583
000370 99 26 71 bb 1d 1a 61 3a 08 41 93 b9 b6 be 9c 3b
       -0.0036796688 0.000858696 -0.00028086477 0.0047834767
000380 94 b3 13 bb c4 ea 47 ba 65 c9 0e bb 3f c5 a2 bb
       -0.0022537457 -0.00076262304 -0.002178752 -0.004967361
000390 e0 9e 29 bb c4 04 38 3a 26 e3 27 b9 6a ef f0 ba
       -0.002588205 0.0007019753 -0.0001601098 -0.0018381898
0003a0 13 f7 8a 3b 95 4c 12 ba f2 f1 25 3b cf 56 81 3b
       0.0042408793 -0.00055808696 0.0025321213 0.003947116
0003b0 f7 ee 2d ba b1 e1 40 bc 69 15 18 3b 00 d4 95 bb
       -0.0006635035 -0.011772559 0.002320612 -0.0045723915
0003c0 f8 6e 34 bb 47 15 9d ba 82 b0 14 ba 2c 74 d7 3a
       -0.0027531963 -0.001198449 -0.00056720537 0.001643782
0003d0 f9 fc 0b bb 05 c4 ba 3b 01 17 5c ba 97 27 23 3c
       -0.00213605 0.005699637 -0.0008395762 0.009958169
0003e0 13 6e 69 bb ba 0b f4 bb bf c4 07 3c 53 90 6b ba
       -0.0035618588 -0.007447687 0.008286654 -0.00089860446
0003f0 42 2e 0c bb 77 0c 0a bb 09 20 31 bb 7d 93 d2 3b
       -0.0021389876 -0.0021064559 -0.002702715 0.0064262734
