keras/npy_weights/Block35_2_Conv2d_1x1_bias.npy (npy, 1152 bytes, 1 tensors)

array f4 [256]
000000 5f aa cf bd 48 9f 8c 3e 3c 87 82 3c a7 aa 1c be
       -0.101399176 0.27465272 0.015933625 -0.15299474
000010 7e 76 f3 bd 11 bc d3 bd 5e 7c 21 be 41 fc a2 bd
       -0.11887835 -0.10338605 -0.15770099 -0.0795827
000020 17 2e 87 be e5 8c ff 3d cc 10 92 be dd 4c b2 3c
       -0.2640235 0.124780454 -0.2852844 0.021765167
000030 1d 3b ac 3e 2f 6b 28 3e 44 a0 a7 be 17 58 74 be
       0.3363885 0.16447137 -0.3273946 -0.23861729
000040 76 bd ad be fa 5c c7 bd 25 01 9f be 8a bd 27 be
       -0.3393361 -0.09734531 -0.3105556 -0.16380897
000050 8c 7c 0f 3f 74 85 72 bd 59 4d fa bd 8a b5 99 be
       0.5604942 -0.059209302 -0.12221784 -0.30021316
000060 2f 83 ce 3d 65 09 dc 3e a5 fb eb 3c 77 96 23 3e
       0.10083615 0.42975917 0.028806517 0.15975367
000070 e3 93 2b be ee a9 f4 bd ac ba 68 3e be b9 e3 be
       -0.16755633 -0.11946474 0.2272746 -0.44477648
000080 79 d1 71 3d 2a fe 8d bd 7b c4 14 be 15 d2 e3 3e
       0.05903766 -0.069332436 -0.14528076 0.44496217
000090 b7 23 85 be 09 e7 9e bd 43 4f 50 be 98 7a ef 3d
       -0.2600381 -0.0775891 -0.20342736 0.11693305
0000a0 37 f6 6d be 15 11 03 3e bc 81 67 be ba 27 4f 3e
       -0.23238455 0.12799485 -0.22608083 0.20229998
0000b0 df c9 63 be fc 9a b6 3d 55 7c 1b bd ad df bc 3e
       -0.22244976 0.0891628 -0.03796037 0.368894
0000c0 cb a0 6c 3d b6 48 40 3e b7 47 7a 3e 10 17 e0 3d
       0.05777053 0.18777737 0.2444142 0.10941899
0000d0 b1 f6 24 be 28 9a 00 be 6c f6 93 be f4 b4 d4 3c
       -0.1610973 -0.12558806 -0.28898942 0.025965191
0000e0 b3 3d 03 3e 90 f4 89 3e db 8f 9e 3e 69 e1 d9 3e
       0.12816505 0.269444 0.30969128 0.42554787
0000f0 4f 73 cc 3e c6 c6 45 3e 1a 7a 50 3e c0 5c 25 be
       0.39931723 0.19314107 0.20359078 -0.16148663
000100 71 99 8f bc cb 84 c0 3e 87 e6 40 be 08 3f 24 bd
       -0.017529221 0.37601313 -0.18837939 -0.040099174
000110 c8 64 31 bc c4 96 ee 3d 1b 52 55 bd b6 b8 ba bd
       -0.010827251 0.1164985 -0.052080255 -0.09117262
000120 15 6b 65 be a4 40 b1 3c 58 31 17 be a9 01 2c be
       -0.2240413 0.021637268 -0.14764917 -0.16797508
000130 be d7 48 be 92 65 aa bd 01 11 bc 3d e1 69 c7 bd
       -0.19613549 -0.08320154 0.09182931 -0.09736992
000140 ca 9d 5d 3e 1d fc d1 3e cd 84 87 3d 38 91 d5 3d
       0.21642223 0.4101266 0.066171266 0.10428089
000150 f3 bc fc bb bd 3c bb 3c 79 fa 2b bc e5 5d d2 be
       -0.007712954 0.02285611 -0.010496729 -0.4108726
000160 a5 00 b5 be 99 b6 ed bd d3 89 74 3e 87 8f d9 3e
       -0.35352054 -0.11607093 0.23880701 0.42492315
000170 1e 92 b7 bd c5 8a 6f bd 0d 4a 27 be 02 8c a1 be
       -0.089634165 -0.05848195 -0.16336842 -0.3155213
000180 17 9c 54 3d bf 87 0e be 60 e3 74 be 3e ce bc bd
       0.05190667 -0.1391897 -0.23914862 -0.09219025
000190 09 8c dc be 77 de 9c bd f1 a4 97 be 86 39 3e 3e
       -0.43075588 -0.07659619 -0.29618028 0.18576631
0001a0 dc 8e d0 3c 30 cd 03 be b2 76 9d bd d8 07 11 3e
       0.025458746 -0.12871242 -0.07688655 0.14163148
0001b0 ac 2d aa be 80 c3 6a 3f 62 5f d9 3d f6 c5 aa bd
       -0.3323797 0.9170456 0.10613896 -0.08338539
0001c0 b5 71 ba be b6 a4 0e 3e 67 88 97 3e 86 f7 45 be
       -0.36414877 0.1393002 0.29596254 -0.19332704
0001d0 39 1b 8b 3c 8c da 80 bd 04 a8 0e 3d 53 df 00 3f
       0.016980754 -0.062916845 0.0348282 0.50340766
0001e0 f7 31 61 be b3 f2 b7 bd 3a 44 7a be 8d 14 7c be
       -0.21991716 -0.08981838 -0.24440089 -0.24617215
0001f0 8b ff 26 3e 11 bd f7 bd dc 81 be 3e 74 14 2c be
       0.1630842 -0.120966084 0.3720845 -0.16804677
000200 ea f9 9a be 67 93 88 be d3 d7 d2 3e 4c c0 69 be
       -0.30268794 -0.2667496 0.41180286 -0.22827262
000210 98 36 cc 3d c2 01 2f 3e 27 54 51 3e 6f 1c ad bd
       0.099713504 0.17090514 0.20442258 -0.08452689
000220 9d f0 6e be dc 97 35 be a8 ac 2a be 1d bf 79 be
       -0.23333974 -0.17733711 -0.16667426 -0.2438931
000230 82 85 99 be 83 f6 b7 be 9b 3d 32 3d bd 7f 45 3e
       -0.2998467 -0.3593026 0.043515783 0.1928701
000240 58 91 d8 bd 86 5e b7 3e e0 41 a7 3e 39 4c 99 be
       -0.10574597 0.35814303 0.32667446 -0.29940966
000250 e0 84 0b 3c c2 2e 46 bd 48 ab 36 be 0f 9d 29 3d
       0.008515567 -0.048384435 -0.17838776 0.04140955
000260 de f9 e8 bd f5 7e 94 be df 96 ba 3e d2 48 12 3e
       -0.113757834 -0.2900311 0.3644323 0.14285591
000270 38 ea a9 3e d5 80 42 3c cd c0 c1 bd d0 21 5c be
       0.33186507 0.011871536 -0.09460602 -0.21497273
000280 4b ac 51 bd d1 4f 99 3c 0b 6e 01 be 32 1e 02 be
       -0.051189702 0.018714817 -0.12639634 -0.12706831
000290 f8 dd 22 be 86 e7 d5 3d 5f 85 90 be 15 0d d7 bb
       -0.15904987 0.1044455 -0.28226754 -0.006562839
0002a0 8b 0a 2e bb e9 59 e1 bd bd 2a 9c bd 6a 71 10 be
       -0.0026556577 -0.11003477 -0.07625339 -0.14105764
0002b0 e0 6d 0a be 2b ff 8a be f1 2e 2a be d2 2f 71 bd
       -0.13518476 -0.27147803 -0.16619469 -0.058883496
0002c0 36 53 60 be 3e 91 de bd c5 05 d7 bd fc 08 9b be
       -0.21906742 -0.108675465 -0.10499147 -0.30280292
0002d0 54 58 39 be 6d 18 a9 3e f4 d6 98 bd dd 9b b2 bc
       -0.18100101 0.33026448 -0.07462874 -0.021802837
0002e0 09 56 c0 be c7 08 ea 3c 4c 46 11 bd 99 15 f6 3d
       -0.3756564 0.028568638 -0.03546743 0.12015838
0002f0 9b ff a6 3e 05 68 25 be d7 04 99 bd dc ed 8e be
       0.32616886 -0.16152962 -0.07471626 -0.27915847
000300 a0 de 96 3d 60 54 6e 3d 43 ff f5 bc dc 09 f1 bd
       0.07366681 0.058185935 -0.030028945 -0.11769459
000310 37 d0 5b bd b4 6e d3 bd 62 90 37 bd c6 a2 b0 3e
       -0.053665366 -0.10323849 -0.04481543 0.34499186
000320 d5 62 83 be 97 9a c6 3c 4b 46 09 3d a0 1a 3d 3d
       -0.2566134 0.024243636 0.033514302 0.04616797
000330 7c 66 ce bd 40 3c 9c be 27 e4 b1 bc af 2f 41 bd
       -0.10078141 -0.30514717 -0.021715237 -0.047164615
000340 b3 cc 93 3d 46 dd 8d be f4 5d 30 3e b8 cd 2b bb
       0.07216778 -0.2770788 0.1722334 -0.0026215147
000350 c1 15 46 be 85 b8 c6 bd 92 59 3e bd e5 2f c1 3d
       -0.19344236 -0.09703163 -0.04647214 0.09432963
000360 2c b4 b9 3e 11 e7 6a bd 65 fc c4 bc 00 e8 4f be
       0.36270273 -0.05734927 -0.024046132 -0.20303345
000370 42 41 01 be d7 05 eb bd 0d 5b e3 3e 7d 71 83 3e
       -0.1262255 -0.11475723 0.44405404 0.25672522
000380 fe e4 16 be 3c 40 92 bd 1c dc 66 be 1e ee 17 3d
       -0.14735791 -0.07141158 -0.22544903 0.03709232
000390 97 f9 0f 3e a0 fa 49 be e4 c9 5f 3c 47 58 63 be
       0.14060055 -0.19724512 0.013658974 -0.22201644
0003a0 37 da 3d 3e ea 91 16 be d8 3a 16 3e 2a ce 0c be
       0.18540274 -0.147041 0.14670885 -0.1375052
0003b0 50 9e 80 be 22 7e 82 be 8e 89 aa 3d 5a 20 c5 be
       -0.25120783 -0.25486857 0.08327018 -0.38501245
0003c0 4f 35 3b bd 66 5a 9a 3e 23 e4 38 be 10 81 4e be
       -0.045705136 0.30147094 -0.18055777 -0.20166421
0003d0 fa 83 9c bd dc 32 cb bd 2e 4e bb bc 77 3a 14 3e
       -0.0764236 -0.0992181 -0.022864427 0.14475428
0003e0 a0 cd 89 bd 7f f0 95 3e 2b e1 a5 be 33 91 4a be
       -0.06728673 0.29285046 -0.32398352 -0.19781952
0003f0 db 4c 2c be a4 21 46 be 27 25 08 3f f0 78 5a bd
       -0.16826193 -0.1934877 0.5318169 -0.05333799
