keras/npy_weights/Block35_2_Branch_2_Conv2d_0b_3x3_kernel.npy (npy, 36992 bytes, 1 tensors)

array f4 [3, 3, 32, 32]
00000000: 054e d13b 81f7 5f3d d1da 1bbc 068a 3fbc
00000010: eac9 3bbc ea53 04bc 3413 63ba c4f9 8abc
00000020: bacd 23bd 2ae8 cd3c b31f 2e3c 99fc 6ebc
00000030: 5f5b 8cbc cce6 09bb 6453 0bbd 3372 933c
00000040: 227d 113d 9cfb a1bc 5f07 6dbc 878f c6b9
00000050: c344 dcbb c47b 423c a5d1 7ebc 1841 623c
00000060: e572 893b fb51 03bc 4e54 ca3c a44b b53b
00000070: 2970 8f3c 1fa1 e2bc 5861 b0bb 1e19 a13c
00000080: 0b47 e03c 2c7b 433c 5be5 363c 52e3 f73b
00000090: a3d6 b83b 8b03 cabc 41d5 4fbb 4400 aa3c
000000a0: 190e 1f3a b590 8abc 0705 ebbb a78b eb3c
000000b0: 4aa7 c93c bc68 dc3c 5284 11bd 1a5f 07bc
000000c0: 984c 0b3d c84c a03c 4c45 06b8 f66a 10bb
000000d0: 68e1 c33b 662b 74bb 3669 19bc 9bad 49bc
000000e0: 2502 973b 3a60 99bc aea4 bebc 3be0 c9bb
000000f0: 6793 903c 1bb4 df3b 5f57 d43c 2866 79bc
00000100: b82e 9abc f2a1 0cbc 5b53 fbbc 8f8f a5bb
00000110: d53a 76bc 2bce ccbc 2544 80bc ab42 be3b
00000120: d23f cbbc 48da 20bd e2fa 903c 8a20 f33c
00000130: d9ab 43bc fb42 33bc 7bab 3cbc 5f47 dd3c
00000140: 8315 163b 87df a3bc 9239 cf3c 808d 43bb
00000150: ba92 8b3b af21 5a3c 7304 07bb 0c5c 9b3c
00000160: 5b49 8f3c 0172 ae39 37eb dc3c 87a1 0fbd
00000170: 6185 4fbb c672 dabc e507 063d 995b 77bc
00000180: 8c03 ee3a 0ce4 473c cdb2 37bc c5c0 533c
00000190: e5e3 1e3c 5ac1 e73b 7278 e7bb 6c62 613d
000001a0: 6602 e3bc a0b8 9bbc 45c9 95bb d3b7 023d
000001b0: 089b a63b 5ac9 0dbc cba8 2dbd 6ef1 053d
000001c0: b0af c63b f331 cabc 1602 18bd 4e9e c2bc
000001d0: eb79 483b ceb5 5f3b 555f 9dbc 963a 2c3a
000001e0: 26ef 243d ce0b 213c 9036 8ab8 1163 e6bc
000001f0: b700 01bd f5cb 8bbc 417b 12bd bed8 2b3a
00000200: f9a3 4f3c 7823 cebc f3cb c9bb 7fc5 e5bc
00000210: 958d fd3a d771 cc3c 1576 303d 7103 c6bc
00000220: cae0 a93c 6c00 9c3a e7ad 64bc 3f03 03bc
00000230: d13f c2bc 5e86 04bd 4c27 693d 1a0c 3ebc
00000240: 815c 073b c22e bdba 2d71 b938 62bf 5cbc
00000250: 9974 7f3b 486a b5bb 61c0 5b3c 3787 fa3c
00000260: f17d 60bc 1efb 57bc 7217 26bc f2a8 49bc
00000270: 312a 46bb ae4b 2abd 0e60 6e3c 59d0 413c
00000280: 833d a8bb f458 87bc d677 2f3b 2651 08bc
00000290: c188 a5bc 8532 80bc ca31 94bc 28a3 24bc
000002a0: 4b6a debc a441 9e3b a082 173d 8b48 13bb
000002b0: 20dd 733b 75bd 723b 4403 0cbc 5de8 b5bb
000002c0: 7660 1c3d c8af a1bb 3492 f33b b3cb dbbb
000002d0: 58d4 35bd e255 6e3b b9bd 0e3c 5a6c 88bb
000002e0: a41e 45bc e0c4 093c 59ad 3dbc 6baa 433c
000002f0: b849 42bc 1d3a 64bb fafc 56bc 9b31 f93c
00000300: 45c5 d93b 8201 02bd 8699 f13b d289 30bc
00000310: 88d8 c1bb 5c4f 213c 4164 153d 3524 ccbb
00000320: 00ac 1634 61e5 09bc 2710 a2bc bfb5 88bc
00000330: b91c 153c 7204 91bc 5399 1c3c d01e 75bc
00000340: 00ea 293c dc14 003a 0ab8 e4bc 9565 babc
00000350: 4d8e 3cbc c73f a83b 89b0 103c 9fc3 40bb
00000360: 4d6f 833c 231a 5cbc 3f39 e6bc 67f7 eebb
00000370: 632d 233d 7613 bbbc 1b6f 04bc 7a4b 223d
00000380: 8354 1b3c c9ba 91bc 048e 893b 6a0f f53c
00000390: e599 5f3c ef44 e83b e3a4 c43c d9fa 3b3d
000003a0: edb6 3a3c 7b0e 0c3c 12c4 1cbc 3cd8 fa3b
000003b0: 0bf8 c73c 4bba 553d 77f8 8cbb d8ca 2b3c
000003c0: c55a 46bc 9140 88bc 5bf5 dcbc 4ba2 a8bc
000003d0: 3375 8bbc 9507 a43b 25ef 7b3c 4aa5 60bc
000003e0: ad9e dabc 85a5 c1bc 1e60 a6bc e7f2 fdbc
000003f0: ac60 423c f064 dbb8 f7a0 96bb 6df1 f8bb
0.0063874745 0.054679397 -0.009512619 -0.011690622 -0.011461714 -0.008076647 -0.0008662224 -0.0169648
-0.039991118 0.025135119 0.010627675 -0.014586591 -0.017133413 -0.0021042107 -0.034015074 0.01799879
0.035519727 -0.019773297 -0.014467089 -0.0003787244 -0.006722064 0.011870328 -0.015552913 0.013809465
0.0041946047 -0.008015151 0.024698403 0.0055326987 0.017509537 -0.02766472 -0.005382698 0.019665297
0.027377626 0.011931222 0.011163081 0.0075649405 0.005640821 -0.024659893 -0.0031712803 0.02075208
0.00060674694 -0.016914705 -0.00717223 0.028753115 0.024615902 0.02690541 -0.03552658 -0.00826242
0.034008592 0.019567862 -3.2012627e-05 -0.002203641 0.0059777983 -0.0037257313 -0.009363463 -0.012309457
0.00460841 -0.018722642 -0.023271885 -0.0061607636 0.017648412 0.00682689 0.025920568 -0.01522211
-0.018821105 -0.008583533 -0.030679395 -0.005052514 -0.015028675 -0.025000652 -0.015657494 0.0058062873
-0.024810705 -0.03927067 0.017697755 0.029678602 -0.011942827 -0.010941262 -0.0115154935 0.027011571
0.0022901006 -0.020004047 0.025296006 -0.002983898 0.0042594345 0.013313695 -0.0020602017 0.01896479
0.017491033 0.00033272806 0.026967628 -0.035066154 -0.0031665193 -0.026666056 0.032722373 -0.015097522
0.0018159016 0.012200367 -0.011212063 0.012924378 0.009697889 0.00707261 -0.0070639187 0.055025503
-0.027711105 -0.019008934 -0.0045711123 0.03191359 0.005084399 -0.008653963 -0.0423973 0.03270095
0.006063424 -0.02468202 -0.037111364 -0.023757126 0.0030590247 0.0034135464 -0.019210497 0.0006570009
0.040267132 0.009829475 -6.590516e-05 -0.02812341 -0.031494822 -0.017065028 -0.035762075 0.00065554294
0.0126733715 -0.025163397 -0.006158346 -0.028048275 0.0019344563 0.024956627 0.04308136 -0.024171563
0.02073707 0.0011901981 -0.013957477 -0.007996379 -0.02371207 -0.032354705 0.056922242 -0.011599565
0.0020654502 -0.001443349 8.842568e-05 -0.013473364 0.003897941 -0.0055363514 0.013412566 0.030582054
-0.013701902 -0.01318243 -0.010137426 -0.012308346 -0.003023755 -0.04157608 0.014549268 0.011829459
-0.005134286 -0.016521908 0.0026774309 -0.008320129 -0.02020681 -0.01564909 -0.018090148 -0.010048665
-0.027150294 0.0048296023 0.036989808 -0.002247366 0.0037210658 0.0037039195 -0.0085457 -0.0055513815
0.03817793 -0.004934285 0.0074332003 -0.0067076324 -0.04439196 0.0036367108 0.008712226 -0.004163307
-0.012031231 0.008408755 -0.011576974 0.011942486 -0.011858396 -0.0034824677 -0.013121838 0.030419162
0.006645831 -0.03173972 0.0073730377 -0.010775046 -0.005915705 0.009845581 0.036472563 -0.006229902
1.4032412e-07 -0.008416505 -0.019783093 -0.016688226 0.009101086 -0.017702315 0.00955804 -0.01496096
0.010370731 0.0004885921 -0.027919788 -0.022753516 -0.0115085365 0.005134556 0.008831152 -0.0029413474
0.016044283 -0.013433966 -0.028103469 -0.0072926763 0.039838206 -0.022836428 -0.00808313 0.03962276
0.009480598 -0.017789261 0.004197838 0.029914577 0.013647531 0.0070882956 0.024004405 0.045893524
0.011396152 0.008548374 -0.009568231 0.0076551717 0.024410268 0.052179616 -0.0043020803 0.010485373
-0.012106602 -0.01663235 -0.026972463 -0.0205852 -0.017023658 0.0050057867 0.015376841 -0.013711283
-0.02668699 -0.023638496 -0.020309504 -0.030999614 0.011863869 -0.00010461535 -0.004596825 -0.0075971396
