keras/npy_weights/Block35_1_Branch_1_Conv2d_0b_3x3_kernel.npy (npy, 36992 bytes, 1 tensors)

array f4 [3, 3, 32, 32]
0.012826165 -0.007591631 0.002688532 0.0029730864 -0.01324204 0.022688093 0.0018871058 0.009852517
-0.00012769445 0.002378685 0.021448486 -0.004320818 -0.005254974 -0.0132942265 0.0061235977 -0.015028665
0.016065639 -0.017945787 0.015763912 0.0031332064 -0.0077338205 -0.0013762565 -0.0064903134 0.009871824
0.0033511748 -0.024390832 0.008937935 -0.0170415 0.023782996 0.0044975975 -0.017555583 0.01496264
-0.004682166 -0.016871206 -0.014988454 -0.011362051 -0.009093714 0.0004397997 -0.046184774 -0.01963282
-0.004003922 0.010376626 0.003066412 0.009869137 -0.0099586975 0.008363544 -0.0011913974 0.0071296096
-0.023501912 -0.008706936 0.0017599933 0.003870521 0.017708326 -0.028480716 -0.011576326 -0.033975646
-0.02693993 0.013259589 -0.012813828 0.023468722 -0.013409857 -0.0012297515 -0.002250939 0.0017032943
-0.0019593888 -0.014427528 0.016540343 0.009306758 0.021192709 -0.018367728 -0.003158214 -0.00600062
0.013463591 0.019773025 -0.029561218 0.00018630474 6.826033e-05 0.0028968805 -0.009239638 0.0020229942
0.005868913 -0.0025748946 -0.017434916 0.013421972 -0.0062948093 0.012676707 -0.01325085 0.0052205017
-0.00070660864 0.0084894 -0.0016943112 -0.009153076 0.006455531 -0.017619262 0.019490091 -0.02745765
0.0045441943 -0.01196992 0.015880784 -0.022802083 -0.0016936908 -0.023779985 -0.0059679165 -0.016736317
0.0030430204 -0.0026920703 -0.01574095 -0.0019824808 -0.02665803 0.0036587517 -0.003427111 -0.0023344597
-0.010461475 -0.00873989 0.00027340208 -0.012103253 -0.009749615 -0.009237868 -0.0024922008 -0.012151029
0.0017193811 0.028043814 0.017355775 0.0069912174 -0.0102770245 -0.0066537857 -0.012256174 -0.005904464
-0.01309106 -0.00067240815 -0.02252833 -0.0035143115 -0.008056667 -0.01407701 0.0024556501 -0.02211729
0.0061732233 0.003490299 0.00015589873 -0.0035657373 0.0054703783 0.019574925 0.004167825 -0.0071748677
-0.023938324 -0.015587288 0.007449019 -0.0010623165 -0.0229949 0.0036296488 0.0038237008 0.005691482
-0.00345545 0.00071217935 -0.0022797321 -0.0104938075 0.010596583 0.0026294226 -0.006720626 0.023572266
0.0031660828 -0.0071099172 0.0059299716 0.019339334 -0.0028896388 -0.0080629205 -0.01261578 0.015912874
-0.0060537755 -0.0102576995 -0.0010730819 0.0012475264 -0.010535861 -0.013997116 -0.02088166 0.016465385
0.016902462 -0.0045230277 0.02335764 0.018441249 -0.02084192 -0.016892888 0.002554547 -0.012611272
-0.007842079 -0.01153755 0.010635143 -0.015730018 0.0004696132 -0.011570452 0.005680403 -0.014151979
-0.01642178 0.003550585 -0.019974446 -0.013226024 -0.0072333813 0.01806061 0.010103792 -0.007910513
0.0051503787 0.003339909 -0.0010220245 -0.01631118 -0.014227901 -0.008769347 -0.0018141754 -0.017406467
0.018739436 0.0020921172 0.0012448719 -0.01718899 -0.019538907 -0.017140456 -0.017228812 -0.0052688774
-0.007825171 -0.013136792 -0.0050363443 -0.014243795 0.0053948862 -0.01267809 -0.010369488 -0.005743774
0.013473366 -0.011811177 -0.0005067439 -0.007947191 0.010060022 -0.0067466707 -0.012708436 0.007988995
-0.012763481 -0.0131442845 0.0012537093 -0.0065070065 0.005141013 -0.012493804 -0.010854176 0.0014138209
0.008769463 -0.0032657273 0.011056187 0.014714871 0.020442853 0.012350036 -0.010992476 0.0014574117
0.002508198 0.008548749 0.012480865 -0.00956184 0.0015482672 -0.0049847215 -0.01568344 -0.015686201
00000000: d624 523c 37c3 f8bb 1532 303b 1dd8 423b
00000010: 24f5 58bc 61dc b93c c358 f73a 746c 213c
00000020: b8e5 05b9 b6e3 1b3b bcb4 af3c a695 8dbb
00000030: eb31 acbb 07d0 59bc 76a8 c83b ca3a 76bc
00000040: 169c 833c 0b03 93bc 5223 813c 7b56 4d3b
00000050: fd6b fdbb 8163 b4ba b2ac d4bb 6ebd 213c
00000060: 629f 5b3b 48cf c7bc 6b70 123c 9e9a 8bbc
00000070: 8fd4 c23c 9560 933b bad0 8fbc dc25 753c
00000080: db6c 99bb 7c35 8abc 2292 75bc e527 3abc
00000090: cdfd 14bc eb94 e639 3f2c 3dbd 02d5 a0bc
000000a0: 5533 83bb b902 2a3c dbf5 483b 29b2 213c
000000b0: ce29 23bc 3f07 093c aa28 9cba 809f e93b
000000c0: 1587 c0bc 89a7 0ebc 93af e63a 91a8 7d3b
000000d0: 0d11 913c 6450 e9bc a1aa 3dbc 0c2a 0bbd
000000e0: 21b1 dcbc bf3e 593c 17f1 51bc 7a41 c03c
000000f0: 04b5 5bbc 9d2f a1ba 7d84 13bb 1341 df3a
00000100: 1769 00bb 7061 6cbc 9d7f 873c 5f7b 183c
00000110: 559c ad3c eb77 96bc 0afa 4ebb d9a0 c4bb
00000120: 6596 5c3c 0afb a13c 5e2a f2bc cc5a 4339
00000130: fc26 8f38 97d9 3d3b da61 17bc 3694 043b
00000140: 0350 c03b 90bf 28bb abd3 8ebc d5e7 5b3c
00000150: b044 cebb f6b1 4f3c 181a 59bc be10 ab3b
00000160: b43b 39ba 2017 0b3c a613 deba c9f6 15bc
00000170: eb88 d33b 4556 90bc afa9 9f3c deee e0bc
00000180: 77e7 943b 7c1d 44bc 6b18 823c 6fcb babc
00000190: d5fe ddba 3ece c2bc 838e c3bb 9a1a 89bc
000001a0: 696d 473b 726d 30bb 2af3 80bc 82ec 01bb
000001b0: f161 dabc abc7 6f3b 6299 60bb bcfd 18bb
000001c0: 9b66 2bbc c131 0fbc 6857 8f39 b94c 46bc
000001d0: d9bc 1fbc 6d5a 17bc 3154 23bb 1c15 47bc
000001e0: db5c e13a 24bc e53c b32d 8e3c 9516 e53b
000001f0: f760 28bc 0008 dabb 1fce 48bc 3c7a c1bb
00000200: e37b 56bc 8c44 30ba 558d b8bc 5d50 66bb
00000210: 1c00 04bc 42a3 66bc f9ee 203b 522f b5bc
00000220: c048 ca3b 80bd 643b bf78 2339 25af 69bb
00000230: dc40 b33b 985b a03c 4092 883b 271b ebbb
00000240: 4e1a c4bc d361 7fbc e616 f43b 6d3d 8bba
00000250: cd5f bcbc 67df 6d3b 0e97 7a3b 9d7f ba3b
00000260: d574 62bb 8cb1 3a3a 8f67 15bb 38ee 2bbc
00000270: 4a9d 2d3c 6452 2c3b b238 dcbb a01a c13c
00000280: 0e7e 4f3b 4ffa e8bb 3550 c23b 866d 9e3c
00000290: 1860 3dbb 571a 04bc 6bb2 4ebc b75b 823c
000002a0: c05e c6bb e90f 28bc a7a6 8cba 0a84 a33a
000002b0: 9b9e 2cbc 2954 65bc 0410 abbc 6ae2 863c
000002c0: 0877 8a3c e835 94bb 8558 bf3c 1a12 973c
000002d0: adbc aabc f462 8abc 306a 273b 829f 4ebc
000002e0: 107c 00bc fe07 3dbc 063f 2e3c 3ddc 80bc
000002f0: 6b36 f639 fe91 3dbc ad22 ba3b b4dd 67bc
00000300: f886 86bc eeb0 683b 73a1 a3bc f7b1 58bc
00000310: 0006 edbb d8f3 933c 608a 253c 199b 01bc
00000320: 82c4 a83b 60e2 5a3b 74f5 85ba 069f 85bc
00000330: 241c 69bc 4fad 0fbc a0c9 edba 0298 8ebc
00000340: 7283 993c e71b 093b f82a a33a edcf 8cbc
00000350: 0f10 a0bc 246a 8cbc 7023 8dbc 8ca6 acbb
00000360: 2535 00bc b33b 57bc eb07 a5bb ce5e 69bc
00000370: 96c7 b03b c3b7 4fbc c9e4 29bc 4536 bcbb
00000380: 65bf 5c3c ab83 41bc 02d7 04ba ef34 02bc
00000390: cad2 243c 2d13 ddbb 0b37 50bc 46e4 023c
000003a0: eb1d 51bc 205b 57bc 8153 a43a ba38 d5bb
000003b0: f175 a83b d0b2 4cbc b7d5 31bc f54f b93a
000003c0: cbad 0f3c d005 56bb 0225 353c a416 713c
000003d0: c577 a73c ce57 4a3c c919 34bc 9f06 bf3a
000003e0: 9460 243b 0d10 0c3c 8b7c 4c3c 44a9 1cbc
000003f0: 3aef ca3a e056 a3bb 8f7a 80bc 5980 80bc
