keras/npy_weights/Block17_7_Branch_0_Conv2d_1x1_kernel.npy (npy, 458880 bytes, 1 tensors)

array f4 [1, 1, 896, 128]
0	0x3b3ca0ab	0.002878229
1	0xba1dc0d7	-0.000601781
2	0x3a464f79	0.0007564943
3	0xba480af4	-0.00076310267
4	0x3a3fc861	0.00073159306
5	0x3a33d7be	0.0006860456
6	0xba21c06e	-0.0006170337
7	0x3ac8cc43	0.0015319664
8	0x3a46464d	0.0007563576
9	0xbb28ab9a	-0.0025737048
10	0xbb675feb	-0.0035304974
11	0x39408c8a	0.00018362902
12	0x3aab00ea	0.0013046537
13	0x38323dcc	4.249606e-05
14	0x3907f0f9	0.00012964373
15	0xb9b24c42	-0.00034007622
16	0x3a154124	0.00056936056
17	0x3aceaad3	0.0015767462
18	0x3af6aa79	0.0018819115
19	0xb964e3c5	-0.00021828625
20	0x3a477b4c	0.000760962
21	0x39904eda	0.0002752457
22	0x39060108	0.0001277962
23	0x3855e350	5.099486e-05
24	0x3a9499cd	0.001133734
25	0x3a90b0d4	0.0011039027
26	0xb96129af	-0.000214732
27	0xba689887	-0.0008872826
28	0x39b5dc75	0.00034687264
29	0x3aa193ae	0.0012327337
30	0x3b0d2e3a	0.0021542446
31	0x391054d8	0.00013764517
32	0x3a0877dd	0.00052058493
33	0x3ac4d3bb	0.0015016714
34	0x3a6adf7a	0.0008959692
35	0xb88ba4d7	-6.65874e-05
36	0x39c6237c	0.0003779194
37	0x3a9bd2b9	0.0011888362
38	0x3abc7bc5	0.0014380148
39	0x3a755cf1	0.00093598576
40	0x3aea39cb	0.0017870007
41	0x3a70f23d	0.000919137
42	0xb9f23a79	-0.00046201402
43	0x3ac49ef9	0.0015000991
44	0xbaa81c1e	-0.0012825762
45	0xba92d70f	-0.0011203008
46	0x3ae8de7a	0.0017766498
47	0x3a24c7c9	0.0006285874
48	0x3ac6f519	0.0015179246
49	0x3a69546f	0.0008900826
50	0x3a13dde1	0.00056406675
51	0x3a1ab091	0.0005900944
52	0x3a8c256c	0.0010692305
53	0x3a3a5507	0.0007108007
54	0x3aad03ef	0.0013200025
55	0x3963b859	0.00021717082
56	0x3ab24599	0.0013601064
57	0xb9925fb8	-0.00027918606
58	0xb996532d	-0.000286722
59	0x3a6f252d	0.0009122666
60	0x3ad65559	0.001635234
61	0x3af59e34	0.0018739165
62	0x39278cf0	0.00015978864
63	0x397d39c7	0.00024149484
64	0x3a58e4ea	0.0008273857
65	0x3a2f4f87	0.0006687571
66	0x3a040a6e	0.00050369545
67	0x3abf5190	0.0014596451
68	0xb951322b	-0.00019950482
69	0x3b21b0af	0.0024671962
70	0x3b1adc99	0.0023630022
71	0xbaa2a3ba	-0.0012408413
72	0x3ac869c6	0.0015290312
73	0x3ae97b8d	0.001781331
74	0xbb8c2856	-0.0042772694
75	0xb99f08dd	-0.00030333447
76	0xba29b7a0	-0.00064742006
77	0x3b148f05	0.0022668254
78	0xb92f7f61	-0.00016736753
79	0x3a439f95	0.0007462439
80	0x3a27f304	0.00064067566
81	0xbabcc48d	-0.0014401838
82	0x3a6c25df	0.0009008329
83	0xba46c256	-0.0007582059
84	0x3a25b1c7	0.00063207414
85	0x38acf349	8.2469145e-05
86	0xb935af04	-0.00017326704
87	0x3a8c3103	0.0010695759
88	0x3aee6d0a	0.0018190455
89	0x3a5583cb	0.0008144944
90	0x3b266ad5	0.0025393267
91	0x398a632f	0.0002639531
92	0xba1282b7	-0.0005588936
93	0x3a8ae34f	0.0010596308
94	0x3b0a1d1b	0.0021074477
95	0xbab739a1	-0.0013978967
96	0x3afb489c	0.001917142
97	0x3aa6e23c	0.0012732218
98	0xb9235fb7	-0.00015580548
99	0xb839a011	-4.425651e-05
100	0x3a63a876	0.00086844654
101	0xbaa71612	-0.0012747666
102	0x3ade3815	0.001695397
103	0x3a159838	0.0005706581
104	0x3a9661e4	0.0011473265
105	0xbb8679b3	-0.004103863
106	0x3aa63ad1	0.0012682324
107	0xbaa21aef	-0.0012367646
108	0x3adb9f8b	0.0016755922
109	0x3a563e92	0.0008172776
110	0x3aaf92c3	0.0013395179
111	0x3a2fa947	0.00067009445
112	0x3abf6b04	0.0014604037
113	0x3a8e7fe6	0.0010871857
114	0xba28a872	-0.0006433792
115	0xb7ea9f6f	-2.7969216e-05
116	0x3ae18939	0.0017207033
117	0xb977c7e1	-0.00023630216
118	0x3aa885c1	0.0012857245
119	0x3a1b89d2	0.00059333176
120	0x3a9a3aa2	0.0011766742
121	0x3a56dd90	0.00081964675
122	0x3aada2c5	0.0013247362
123	0x3b48a9cb	0.0030618783
124	0xbac0afbc	-0.001470081
125	0x39283740	0.00016042311
126	0x3ac330df	0.0014891884
127	0x3a8099cc	0.000981146
128	0x3a17d332	0.00057916634
129	0xbac78eff	-0.0015225111
130	0x3a811513	0.00098482
131	0xba530e72	-0.0008051164
132	0x3a54e70f	0.00081215886
133	0x3a49ac90	0.00076932553
134	0x3ae26926	0.0017273768
135	0x3ab48702	0.0013773146
136	0x3835b703	4.3324206e-05
137	0x3ad022fd	0.0015879568
138	0xb9203033	-0.00015276745
139	0x3ac518ca	0.0015037295
140	0x398bd132	0.0002666801
141	0xb9abbf2e	-0.00032758102
142	0x3a614a26	0.0008594118
143	0x396f7424	0.00022836082
144	0x3ad56399	0.0016280293
145	0xb9b25fc1	-0.00034022148
146	0x3a3e4018	0.00072574755
147	0x3a9332b0	0.0011230316
148	0x3a8f42e1	0.0010929966
149	0xba220485	-0.0006180483
150	0xbaa4f5c9	-0.0012585457
151	0x3ab40ba7	0.0013736383
152	0x39c5d145	0.00037730686
153	0x38d21b35	0.00010018648
154	0xb9d9867f	-0.00041489673
155	0xb991c29e	-0.00027801556
156	0x3a9030cd	0.0011000872
157	0x39e398f5	0.00043410776
158	0x3986daa0	0.0002572136
159	0x3af13a19	0.0018404155
160	0xb996d257	-0.00028766945
161	0x3ac745d4	0.0015203306
162	0x3ab4b125	0.0013785703
163	0xba43c66e	-0.0007468228
164	0xbb126f90	-0.0022344328
165	0x397d2c8d	0.00024144557
166	0x3a56dfcc	0.00081968005
167	0x3ae45e56	0.0017423134
168	0x3a9889e0	0.001163777
169	0xb83546c5	-4.3219672e-05
170	0x3b44386c	0.0029940857
171	0x3a2b9a9b	0.00065461703
172	0xb97dab6e	-0.00024191823
173	0xba4e9b1a	-0.00078813883
174	0x3a47ebc2	0.0007626378
175	0x39e0671c	0.00042801432
176	0x3a20f01a	0.00061392935
177	0x3abda20c	0.0014467849
178	0x3a86ecab	0.0010293921
179	0xb9b81070	-0.00035107462
180	0x3b0a258b	0.0021079506
181	0xba10508e	-0.00055051676
182	0x3a4311f9	0.0007441338
183	0x3aba8fd2	0.0014233536
184	0x3ab79a24	0.001400773
185	0xb8954323	-7.117379e-05
186	0xb9ef6efd	-0.00045668325
187	0x38ac9222	8.2288185e-05
188	0x39f47daf	0.00046632948
189	0x3b55cfa3	0.0032624982
190	0x3a63bd7c	0.0008687598
191	0x38bc60a8	8.982542e-05
192	0x3a54080c	0.0008088357
193	0x39ad02c1	0.00032999183
194	0x3a2f7b17	0.0006694062
195	0xb89e176d	-7.5383905e-05
196	0x39a63e74	0.00031708519
197	0x3907bd62	0.00012945154
198	0xb974bf34	-0.00023340882
199	0x3a025441	0.0004971661
200	0x38aca8cd	8.233041e-05
201	0x398554ff	0.00025431064
202	0x3b8cbf5b	0.0042952723
203	0x3a8c0fd8	0.0010685874
204	0x3a69e462	0.00089222763
205	0x3b14ea1e	0.0022722553
206	0x3a8eb965	0.0010888992
207	0x3a2917fd	0.0006450413
208	0x399b9598	0.0002967536
209	0xb9eaa807	-0.00044757148
210	0x3a4024e7	0.00073297176
211	0xba2038bc	-0.00061119697
212	0xba1fd16c	-0.0006096575
213	0xb9c97fda	-0.00038432964
214	0x39f7f967	0.0004729733
215	0x3a9e8df1	0.0012096745
216	0x38ad9560	8.277106e-05
217	0x3a01838d	0.0004940562
218	0x398abde8	0.00026462902
219	0x3a2b9845	0.0006545822
220	0xba76488b	-0.0009394965
221	0x3b0526d2	0.0020317328
222	0x3a2da6fd	0.00066243095
223	0xbaf68e42	-0.0018810707
224	0x395c1170	0.00020987331
225	0x39ad37a3	0.00033038584
226	0xb8c88371	-9.561226e-05
227	0x3a50dd0a	0.00079675077
228	0x3a56afc6	0.00081896444
229	0x3a269268	0.00063542137
230	0x39c600f3	0.0003776621
231	0xb9ff1df4	-0.00048659707
232	0x39cb3950	0.00038761878
233	0x39f8cb17	0.0004745356
234	0x3ae52ac9	0.0017484064
235	0x3a8f3c74	0.0010928051
236	0x3a6e3eab	0.0009088318
237	0x389de4ae	7.528938e-05
238	0x39905c56	0.00027534616
239	0x3b3077a9	0.0026926792
240	0x3a8af61a	0.0010601908
241	0x3a954fc5	0.0011391571
242	0xb9fad078	-0.00047839037
243	0x39304257	0.00016809381
244	0x39ba36db	0.00035517555
245	0x38e23c88	0.000107877946
246	0x3b1e21e2	0.0024129082
247	0x3a48d61e	0.00076613005
248	0x3a3d257d	0.0007215364
249	0x3a1c98e5	0.0005973711
250	0x37daf87e	2.6103338e-05
251	0x360052fb	1.9121787e-06
252	0xb8080ef6	-3.243886e-05
253	0xb8db5c7f	-0.000104599625
254	0x39dad830	0.00041741272
255	0x387d6ab5	6.041928e-05
