keras/npy_weights/Block35_5_Branch_1_Conv2d_0b_3x3_kernel.npy (npy, 36992 bytes, 1 tensors)

array f4 [3, 3, 32, 32]
0	0xbae60807	-0.001755
1	0x3b642eca	0.0034817928
2	0x3aa7dcc5	0.0012806883
3	0x3c4e9195	0.012607952
4	0xbbd687a3	-0.006546931
5	0xbb21f480	-0.0024712384
6	0x3cb310d5	0.021858612
7	0xbc058b06	-0.008150822
8	0xbaa77d75	-0.0012778478
9	0xbc0176a0	-0.007901818
10	0xbc4033ee	-0.011731131
11	0xbc4b254b	-0.012399028
12	0xbcc5460a	-0.024081249
13	0xbc93ac64	-0.018026538
14	0x3b998a0c	0.004685646
15	0xbbde49b1	-0.006783687
16	0x3ccc580c	0.024944328
17	0x3a8f0f21	0.0010914543
18	0x3bdc5770	0.0067242905
19	0xbc8ff100	-0.017570972
20	0xbbdb7fd4	-0.006698588
21	0x3d4ce390	0.050021708
22	0x3b6945e5	0.003559464
23	0x3cdfc325	0.027314732
24	0xbb6291ab	-0.0034571688
25	0xbb7161be	-0.003683194
26	0x3bf3c6c7	0.0074394676
27	0xbc66686e	-0.014062984
28	0xbaf22963	-0.0018475469
29	0xbc886f59	-0.016654657
30	0xbc0326ca	-0.0080048535
31	0xbb6d4e55	-0.003621002
32	0x3bf9ad00	0.0076195
33	0xbb85bd23	-0.0040813847
34	0x3ba2879f	0.004960015
35	0xbbeb2542	-0.0071760723
36	0x3c7a664a	0.015283177
37	0xbc7cdeeb	-0.015434007
38	0xbbcfa7ea	-0.0063371556
39	0x3c558312	0.013031738
40	0x3c9fe7ca	0.019519705
41	0x3cd57705	0.02605773
42	0x3ca385c3	0.019961243
43	0xbba99680	-0.0051754117
44	0x3ba00da5	0.004884439
45	0x3c849902	0.016186241
46	0xbc7ded55	-0.015498479
47	0xbbb43f05	-0.0055006766
48	0x3c8fdb7e	0.017560717
49	0x3ac061aa	0.0014677544
50	0x3d095320	0.03352654
51	0xbc5ff0fb	-0.013668294
52	0x3c941ca3	0.018080061
53	0xbc80c503	-0.015718943
54	0x3b71457b	0.0036815095
55	0x3c7ebcb7	0.015547923
56	0xbc08b919	-0.008344912
57	0xbaead148	-0.0017915154
58	0xbcbf355e	-0.023340877
59	0xb9133901	-0.00014040248
60	0xba9ea3b3	-0.001210323
61	0xbb9597db	-0.0045652217
62	0xbc8849c9	-0.016636746
63	0x3c22c78d	0.009935272
64	0xbbd7a500	-0.006580949
65	0xbc7f3538	-0.015576653
66	0xbb7fad54	-0.0039013224
67	0xba5d2a39	-0.00084367726
68	0xba1f8516	-0.00060852
69	0xbad9ff19	-0.0016631811
70	0x3bb10271	0.0054019024
71	0x3b695f80	0.00356099
72	0xbaba99b5	-0.0014236482
73	0x3a894df8	0.0010475507
74	0x3bb4cbaf	0.005517445
75	0x3b5fa578	0.0034125727
76	0xbc7d9a7f	-0.015478729
77	0xb863893c	-5.4248827e-05
78	0xbc492107	-0.012275941
79	0xbba1d773	-0.0049390136
80	0x3a67da50	0.0008844482
81	0x3bbe00c2	0.00579843
82	0xbc667492	-0.0140658785
83	0xbb9e4315	-0.004829774
84	0xbc1ba80f	-0.0095005175
85	0x3c88af02	0.016685013
86	0xba001778	-0.00048863096
87	0xbc592093	-0.013252395
88	0x3c6bac9c	0.014384415
89	0x36a39a02	4.8757074e-06
90	0xbc2787b5	-0.010225226
91	0xbc80f0fc	-0.01573991
92	0xbcb4522a	-0.022011835
93	0xbc4f20c4	-0.012642089
94	0xbc261649	-0.010137149
95	0xbb36c16b	-0.0027886282
96	0xbcbddd5f	-0.023176847
97	0x3c4158aa	0.011800924
98	0xbc8374ff	-0.016046999
99	0xbc4770ec	-0.012172919
100	0x3c4f9a09	0.012671002
101	0x3ca4949b	0.020090392
102	0x3b8297a1	0.0039853607
103	0xbbaab473	-0.0052094995
104	0xbbaf46c9	-0.0053490144
105	0x3803fdf8	3.146936e-05
106	0x3ad09e50	0.0015916321
107	0xbc05cea5	-0.008166944
108	0xbbd136f6	-0.0063847257
109	0x3c27da4b	0.010244916
110	0x3ad79480	0.0016447455
111	0x3c95a638	0.018267736
112	0xbc8e6fb4	-0.017387249
113	0x3c51a86f	0.012796505
114	0x3c4cb807	0.012495047
115	0x3bbd006f	0.005767874
116	0xbccfc6fe	-0.025363442
117	0xbb2b9447	-0.002618091
118	0x3b635ffd	0.0034694665
119	0x3c055f09	0.008140334
120	0xbba561e6	-0.005047071
121	0xbbd78edb	-0.006578309
122	0x3c931540	0.017954469
123	0x3b9d23d8	0.0047955327
124	0x3bdced80	0.0067421794
125	0xbc6e5b35	-0.014548113
126	0xbaf938dc	-0.0019014138
127	0xbc23352b	-0.009961407
128	0xbbf14295	-0.0073626735
129	0xbc37d808	-0.011220939
130	0xbcab91bd	-0.020943517
131	0x3bc016d8	0.005862098
132	0x3bc6ccf1	0.0060669114
133	0x3b6dd972	0.0036292938
134	0xbb883a95	-0.004157374
135	0x3c75fa9f	0.015013366
136	0xbbcc6f29	-0.0062388373
137	0xbc7067b6	-0.014673164
138	0xbc9377f5	-0.018001536
139	0x3cfeee35	0.031119445
140	0xbbdf0c83	-0.0068069114
141	0x3b85501a	0.0040683867
142	0x3b0de06f	0.0021648665
143	0xbc4ffa40	-0.012693942
144	0xbc034db8	-0.008014135
145	0xbbe1b39b	-0.0068878657
146	0xb9fbb079	-0.00048005933
147	0xbc8dff8c	-0.017333768
148	0xbc6e3269	-0.014538386
149	0xbc15d64e	-0.0091453325
150	0x3b043d32	0.0020178077
151	0xbb3bc5f9	-0.0028651936
152	0x3c99df16	0.018783133
153	0x3b591414	0.003312354
154	0x3b8b6364	0.0042537916
155	0xbce7d188	-0.028298154
156	0x3c0e303c	0.008678492
157	0x3c23e28b	0.0100027425
158	0x3c3707fb	0.011171336
159	0xbbca2bc3	-0.0061697676
160	0x3bccbada	0.0062478604
161	0xbc23d475	-0.009999384
162	0x3cb3c58b	0.021944782
163	0xbbe438a6	-0.006964761
164	0x3c1cfa86	0.009581214
165	0x3b364e17	0.0027817541
166	0xbbc16cb0	-0.005902849
167	0x38c9cbaa	9.622362e-05
168	0xbc765565	-0.015035008
169	0xbbb6703b	-0.005567578
170	0x3ba9eeaa	0.0051859217
171	0xbbdac2cb	-0.006676053
172	0x3b8de6f8	0.004330512
173	0xbc6df8bb	-0.014524634
174	0xbd05c365	-0.032657046
175	0x3c0e8393	0.008698362
176	0xba0e8870	-0.0005437201
177	0xbb16f677	-0.0023035088
178	0xbcc544d7	-0.024080677
179	0x3ae2cf95	0.0017304296
180	0xbc70d5a2	-0.0146993715
181	0x3a6429fd	0.00087037665
182	0x3cb0b0b7	0.02156864
183	0x3cd677f2	0.026180241
184	0xbc9d939a	-0.019235421
185	0x3b8c30c1	0.004278273
186	0xbc2ee9fc	-0.010675903
187	0x3ba62bf3	0.005071157
188	0x3b997f89	0.004684393
189	0xbbef967e	-0.0073116412
190	0xbbc52fa0	-0.0060176402
191	0x3c655717	0.013997815
192	0x3c47c204	0.012192253
193	0x3c212cfb	0.009837384
194	0x3c8225ff	0.015887259
195	0x3c92d9eb	0.017926177
196	0xbd126706	-0.035742782
197	0xbb61fe69	-0.0034483916
198	0xbb81f50e	-0.0039659804
199	0xbc9c3de7	-0.019072486
200	0x3bf5f0d0	0.0075055137
201	0xbc04a13d	-0.008095083
202	0xbc4f8a4c	-0.01266725
203	0x3bf4483d	0.0074549005
204	0xbbcf4959	-0.0063258824
205	0x3c2d963a	0.010594899
206	0xbc0bba5f	-0.008528321
207	0xbcaba192	-0.020951066
208	0x3cc391a8	0.023873165
209	0x3c724862	0.014787765
210	0xbcba6f60	-0.022758186
211	0xbc5b6082	-0.0133897085
212	0xbc0153f0	-0.007893547
213	0xba4dd869	-0.0007852377
214	0xbbd7a2a2	-0.0065806666
215	0xbab89eb6	-0.0014085385
216	0xbbc02153	-0.0058633476
217	0xbce0f954	-0.027462639
218	0x3c48d8ea	0.012258748
219	0xbc428537	-0.011872581
220	0xbccde1e7	-0.025132133
221	0x3be81f7c	0.0070838314
222	0x3c88e709	0.016711729
223	0xbb980bf9	-0.004640099
224	0xbaef372c	-0.0018250695
225	0x3c3eebf3	0.011652934
226	0xbbd63e13	-0.0065381615
227	0xbb548d6b	-0.0032432924
228	0xbbd3abe6	-0.006459701
229	0x3c3177a4	0.010831747
230	0xbc51db13	-0.012808579
231	0x3b7cc9b0	0.0038572364
232	0x3c54c987	0.012987501
233	0xbc59593e	-0.013265906
234	0xbc5cccc8	-0.013476558
235	0xbb0943b1	-0.0020944888
236	0xbac8cd1b	-0.0015319915
237	0xbc93c30c	-0.018037342
238	0xbc8e1b8b	-0.017347118
239	0xbb669ed5	-0.0035189886
240	0xbc5ec0b5	-0.01359575
241	0x3bf48e0c	0.0074632224
242	0x3b6d262c	0.0036186082
243	0xbc0c8bb6	-0.008578232
244	0xbc262651	-0.010140971
245	0x3c4926f6	0.012277355
246	0xbcac623f	-0.021042941
247	0xbc3187cd	-0.0108356
248	0x3c23bb20	0.009993345
249	0x3c4ad214	0.012379188
250	0x3b2ffd1d	0.0026853748
251	0xbc1bb7ef	-0.009504302
252	0x3c44f153	0.012020427
253	0x3b82e5d4	0.003994683
254	0x3b93e1df	0.00451301
255	0xba89dd63	-0.0010518249
