keras/npy_weights/Block17_9_Branch_1_Conv2d_0c_7x1_kernel.npy (npy, 458880 bytes, 1 tensors)

array f4 [7, 1, 128, 128]
00000000: 8125 403b 68a9 79bb 1df9 e9bb fa4a e1bb
00000010: bff5 693b b0b9 b3ba e712 87b9 dbb3 d739
00000020: a663 9a3b 4524 7abb c605 563b 9a83 9b3a
00000030: 9c2c a1bb d8ce b13b 895d dbba 5d3f 2cbb
00000040: fc69 03bb 02be 57bb 2ece 993a c192 3cba
00000050: dde5 03bc c060 feba 62ac 7539 3323 6dbb
00000060: 45d1 5dbb 5431 14bc 1187 923a f38c 43bc
00000070: 3e7e 9cbb ec8e b93a 09e7 0b3c 007a b9bb
00000080: 9ecc 09bc 1a00 b8bb 7aeb f939 6314 ee3a
00000090: 2827 65bb 6f2d ecbb cd2a 08ba ba28 9d3b
000000a0: 003d 3e3b c93a e5bb bb70 0dbc 2d67 2bbb
000000b0: 720e 1dbb 817c 483c 37be 17bc 30b1 bebb
000000c0: 76d4 85bc 21a4 2bba f595 7abb 250d babb
000000d0: a6ee 6a39 3c74 45ba 386d 18bc 8212 033c
000000e0: 1b5b 8b3b 68b0 be3b fa12 dfba f238 27bb
000000f0: 2425 7d3b c28d f5bb 6867 bdba 88a4 f238
00000100: fb98 58bb ccf4 ae3a 5583 163b 8121 30bb
00000110: ba05 e939 b94a 07ba d9d9 1c3c fae9 5fbb
00000120: 90f4 f4bb 6bac ab3a 50d0 f639 d0ae 81bb
00000130: b091 3cbc 5051 8b39 601d cdbb d9ef 03bc
00000140: e0ad 9337 50d1 12bb 4c34 d2bb 3612 d53a
00000150: 0a82 2cbc 303f 12ba 7324 b8bb 816f 133a
00000160: b8b4 de3a 7c87 783b 37d5 3b3a c3ea fe3a
00000170: afd3 6f39 36f2 95bb 9bb9 28bb 281c 1fbb
00000180: f111 a93a d70d 933b c511 c9b6 de0b 23ba
00000190: eb45 69bb 13a0 01bc bbdf 84bb e782 273b
000001a0: 0512 013c 8f89 1f3c 94e5 de3a f1b3 693b
000001b0: e915 61bc 94db 82bb 7cda 9b3a 0d60 7c3c
000001c0: be7d 0fb9 736f cfbb 18cf 17bb b968 1cbc
000001d0: febf 8bbb c9ca dfba fa1f 9ebb 8350 bebb
000001e0: 6539 34bc 99d7 91ba 7266 33bb 3c1d 693b
000001f0: bdf3 c5bb 6840 3c3b 46a4 b9ba 4c7e 853a
00000200: 9638 f9ba 0bf0 9bbb ab9e 05bc 6d7b cc3b
00000210: c717 a7ba fd6d 2cbc 2a25 3fbc 864d aa3b
00000220: fad5 d83a dadf 833b f225 f4ba 5e3f 9cbc
00000230: 783e 353b 6b6e 1fbb 2230 6dbc 219a aaba
00000240: d58c 0fbc 5cdd e4ba 9bcf 9d3b e91c cebb
00000250: ce98 b63b ab81 f2ba a385 22bc 0514 3d3a
00000260: c038 0abc 5950 8dbc 2a5e 553b 3232 953b
00000270: f60d f03b 883e d1bb 05cb 2e3b 4db5 063b
00000280: 0b27 023c 7cb9 d23a 4566 3dbc 8256 e9bb
00000290: c449 ab3b 1983 1c3c 8c6b 06bb 7519 01bc
000002a0: 2984 9d3b f1cb 053a 7bdc 2e3b 629e b9bb
000002b0: 7a73 c7ba 7291 8bba 0f95 ca3b a5a2 87bb
000002c0: abf7 b4bb 4481 8e3c 2f9f 21bb 91bf 11bc
000002d0: 8090 60bb d8fc ed3b 2a89 d23b a048 3f3b
000002e0: 0600 c03a ada3 12bc 660d 32bb c18d 6bbb
000002f0: f357 e5bb 396b 93bb 2b2f 24ba 4963 4a3b
00000300: 34c6 15bb ed11 9ebb 5b5a 843a b7bd 0fbc
00000310: 6074 9cbb 2324 363a 8770 f2bb bbf1 59bb
00000320: 3c95 18b9 0591 9aba afa1 2ebc e032 04bb
00000330: d3b3 28bb c96f 963a 0744 913b b66e f63a
00000340: 858d 2d3a c34a c93b af5a 82bb e640 5abc
00000350: 4dd0 d7bb 3fbb 7dba bd8e 4e3c 1c19 fbbb
00000360: ece0 bebb c1e9 17bc 4552 15ba 3c9c 9bb8
00000370: d447 3b3a 155d b1bb 8b71 27bc 1b1f 9238
00000380: c736 68ba 64ac 49bb dd6c 09bc d915 12bc
00000390: bcc3 d23b 4344 473c 4d04 803c ffb3 51bb
000003a0: 2af0 79bb 7964 b43b 5f3b df3a b1a3 94bc
000003b0: 789d 4b3b 0a6c 60bb 1288 a13a 9c08 1239
000003c0: 7abf 123c 6a4a 1f3c bd0c 47bb 9c58 1e3b
000003d0: 0c28 b9bb c4e0 ac3a 765a 0c3c af7e e0bb
000003e0: ba49 a339 54e1 873a 1509 493b 8206 c83b
000003f0: 2cea 9abb 8596 fdba 3efc a4bb 3ebb acba
0.002931923 -0.0038095359 -0.0071402923 -0.006875393 0.0035699455 -0.0013711955 -0.0002576329 0.00041141998
0.004711586 -0.003816859 0.003265725 0.0011864782 -0.004918648 0.005426269 -0.001673625 -0.0026282885
-0.0020052185 -0.003291965 0.001173442 -0.0007193499 -0.008050409 -0.0019407496 0.00023429238 -0.003618431
-0.0033846658 -0.009044964 0.0011179169 -0.01193546 -0.0047757914 0.0014156974 0.00853897 -0.0056602955
-0.008410601 -0.0056152465 0.00047668425 0.0018164035 -0.0034965966 -0.0072075645 -0.0005194366 0.0047961148
0.0029028058 -0.006995533 -0.008632834 -0.0026154027 -0.002396491 0.012236715 -0.009261659 -0.0058194622
-0.01633666 -0.00065475894 -0.0038236354 -0.0056778365 0.00022404882 -0.0007532274 -0.0093033835 0.008000018
0.004252804 0.005819369 -0.0017019205 -0.002551612 0.0038626874 -0.0074937055 -0.0014450373 0.000115701056
-0.0033050168 0.0013348102 0.0022966464 -0.0026875439 0.0004444549 -0.0005160976 0.009573423 -0.003416656
-0.007475443 0.0013097649 0.0004707598 -0.003957607 -0.011509344 0.00026572729 -0.0062596053 -0.00805279
1.7604732e-05 -0.0022402592 -0.0064149257 0.0016256038 -0.010529051 -0.00055788737 -0.0056195795 0.00056242204
0.0016991114 0.0037922552 0.00071652554 0.0019448627 0.00022871674 -0.004575993 -0.0025745395 -0.0024278257
0.0012899024 0.004487734 -5.9923354e-06 -0.0006219725 -0.0035594653 -0.0079117 -0.004054991 0.0025560202
0.007877831 0.009737386 0.0017005675 0.0035660232 -0.013738134 -0.003993461 0.0011890675 0.01540376
-0.00013684385 -0.0063304245 -0.002316421 -0.009546452 -0.0042648306 -0.0017073984 -0.0048255892 -0.0058079376
-0.011000012 -0.0011126875 -0.0027374295 0.0035570404 -0.0060410188 0.0028724913 -0.0014163337 0.0010184734
-0.0019014056 -0.00475884 -0.008155505 0.0062402994 -0.0012748175 -0.01052427 -0.011666575 0.00519723
0.0016543262 0.004024488 -0.0018627031 -0.019073185 0.0027655642 -0.002432729 -0.014476808 -0.0013015905
-0.008761604 -0.001746099 0.0048160083 -0.0062900675 0.005572415 -0.0018501779 -0.009919557 0.0007212761
-0.008436382 -0.017250227 0.0032557347 0.004553103 0.007325883 -0.006385628 0.0026671302 0.002055484
0.007943879 0.0016077007 -0.0115600275 -0.0071209082 0.0052272994 0.0095527405 -0.002051088 -0.007879605
0.0048070145 0.0005103937 0.002668171 -0.0056646327 -0.001521691 -0.0010648204 0.00618232 -0.004139262
-0.0055226884 0.017395623 -0.0024661531 -0.008895771 -0.0034265816 0.0072628073 0.0064250426 0.0029187575
0.0014648444 -0.008950156 -0.002716863 -0.0035942646 -0.0069990098 -0.004498866 -0.0006263132 0.0030881932
-0.0022853734 -0.0048239143 0.0010097729 -0.008773259 -0.004774615 0.0006948134 -0.007398668 -0.0033255655
-0.00014551444 -0.0011792487 -0.010658666 -0.0020171925 -0.002574195 0.0011477406 0.0044331583 0.0018801305
0.00066205143 0.0061429455 -0.0039780955 -0.013321137 -0.0065861107 -0.0009679086 0.012607274 -0.0076629054
-0.0058251526 -0.00927204 -0.0005696158 -7.420077e-05 0.0007144187 -0.0054127076 -0.010219942 6.967616e-05
-0.000885826 -0.0030772919 -0.008387771 -0.008916342 0.0064320248 0.012162271 0.01562705 -0.0031998155
-0.0038137534 0.0055051413 0.0017031244 -0.01814446 0.00310692 -0.0034244084 0.0012323877 0.00013926852
0.008956784 0.009722332 -0.0030372583 0.0024161702 -0.005650526 0.0013189544 0.008566489 -0.0068510394
0.00031144713 0.0010366836 0.003067558 0.0061042914 -0.0047276225 -0.0019347226 -0.0050349524 -0.0013178361
