keras/npy_weights/Block8_1_Branch_1_Conv2d_0b_1x3_kernel.npy (npy, 442496 bytes, 1 tensors)

array f4 [1, 3, 192, 192]
-0.0012218184 -0.0032613496 -0.0015366819 -0.003432879 0.0054518897 -0.0005761964 0.00077376596 -0.000741665
-0.0008338113 -0.00030421352 0.00087944634 -0.0010502374 -0.0052556857 0.0015271936 0.0050520357 0.0059192316
-0.0009569965 -0.00066285924 0.0036128769 -0.0006961705 -0.0007023043 0.0028227188 0.009888117 -0.0023320627
0.0020436533 0.0035070952 -0.0038342325 0.0027025386 -0.0019066018 -0.00014205324 -0.0047957753 -0.0011706934
-0.002090587 0.0113022905 0.005386075 0.0033287762 0.0018530616 -0.0021285312 0.012506395 -0.0025025934
0.007782744 0.0018035102 0.0071481066 0.0065606777 -0.00024785768 0.0021029478 -2.8914834e-05 -0.001582582
0.003017436 -0.0072866427 0.0047622477 0.00030474426 -0.0015515509 0.003934354 0.00069295237 8.845854e-05
-0.0023958927 -0.0019618277 -0.0004518674 0.0028371157 0.008686207 -0.0004494299 0.0029371679 -0.00045858274
-0.0027311295 2.2674258e-06 -0.0033527513 -0.0006270036 0.0063134925 -0.0002403023 0.0035352304 -0.0030530908
0.005415725 0.0056710946 0.0024780747 0.0018151792 -0.0006164371 0.0022329998 -0.0026313157 -0.0030332098
-6.186454e-05 0.0069858646 0.004978231 -0.0015011448 0.003873568 0.0002156684 0.005633896 0.0017593346
0.006546414 -0.0020723038 0.0010214658 0.0028294148 -0.0016136218 6.585388e-05 -0.0026061046 0.00018684761
0.0044665877 -8.1812505e-05 0.00022642435 -0.0032665941 0.0011091551 0.0025672829 0.0046108323 -0.0023423801
0.0012340373 -0.0024104693 -0.0017915787 -0.0059688445 3.3485747e-05 0.0040227207 0.0004949401 -0.0055708434
0.010905456 0.009961252 -0.00090586924 -0.00080429984 -0.0021566555 -0.0017588008 0.00045344562 0.0090782195
-0.0020293563 0.0016991491 0.004387812 0.0063697696 0.0016852218 0.006942703 0.0028109504 -0.00017919068
0.004971925 -0.0028850643 0.013806042 -0.0052480907 -0.00041818796 -0.0022893613 0.008924959 0.00062078016
-0.0056872903 0.00020728093 0.00041771765 0.0056863017 0.004227014 0.0016700092 -0.00057648035 -0.00047389924
-0.0050249114 -0.0029131754 0.008962552 0.001302296 0.006090672 0.0031581789 0.0003694257 -0.000104886356
0.0052258866 0.0013965173 -0.0047553456 0.009023213 -0.0013070066 0.00047398478 0.0006675764 0.000945533
0.0021388105 -0.0031522913 -0.00020082481 0.002414124 0.005324377 0.0024914923 0.0031872226 0.0020841898
-0.0033136802 0.0070501002 0.0041848724 0.0028885235 0.0008638924 -0.0033553978 -0.0057985117 -0.001549833
-0.00053152244 0.007392927 7.032027e-06 0.009319992 0.002447788 0.0024112447 0.0020991685 0.0024087047
-1.9047837e-05 -0.0011975751 0.009009054 0.0011851595 0.004570735 0.0038898971 0.005364445 0.0099732885
0.005698299 -0.003130333 0.008022841 0.00709327 -0.0052965125 0.0040817424 0.004146299 -0.0008353448
0.0036232946 0.0026895674 0.00015896563 0.0013990968 -0.004632597 0.006884752 0.0015517214 -0.0026813827
-0.00060909585 -0.002469991 -0.0047233873 0.007902925 0.004258683 0.0017154374 0.0040785116 -0.0033005357
0.008447031 -0.007434751 -0.0007197551 -0.0005521885 0.0039296914 0.0027340432 0.00040003838 0.0056288647
0.0036746871 0.0046104672 -0.005361149 0.0063087977 0.004192534 0.00061992026 -0.0016957462 0.0005477142
0.004450312 -0.000523572 0.009411214 0.00018890387 -0.0032192555 0.004491764 -0.0052063568 0.002509967
0.0013731667 -0.0018016174 -0.0046366374 0.0046485653 -2.3140537e-05 0.001593491 0.0016545597 0.0021843011
-0.005529018 -0.0018153923 -0.0062224735 0.0031602941 -0.0069250898 -0.0013589205 -0.0025673222 -0.0056846812
00000000: 6c25 a0ba 5ebc 55bb 7d6a c9ba 27fa 60bb
00000010: c4a5 b23b e30b 17ba 8ed6 4a3a 4c6c 42ba
00000020: 2194 5aba d97e 9fb9 a58a 663a 1fa8 89ba
00000030: e337 acbb 1d2c c83a 8c8b a53b 1df6 c13b
00000040: f3de 7aba bbc3 2dba 04c6 6c3b 367f 36ba
00000050: d81a 38ba 5dfd 383b c501 223c 85d5 18bb
00000060: d0ee 053b 4bd7 653b bf47 7bbb 131d 313b
00000070: f1e6 f9ba 20f4 14b9 e125 9dbb f471 99ba
00000080: 3b02 09bb 3e2d 393c ac7d b03b 9927 5a3b
00000090: 6ee2 f23a d47e 0bbb 9fe7 4c3c 8d02 24bb
000000a0: 6306 ff3b c363 ec3a aa3a ea3b f4fa d63b
000000b0: e5f2 81b9 9cd1 093b 228e f2b7 a46e cfba
000000c0: 2dc0 453b cac4 eebb a10c 9c3b 15c6 9f39
000000d0: 695d cbba c1eb 803b 3fa7 353a d182 b938
000000e0: 6904 1dbb 0292 00bb 9ee8 ecb9 e7ee 393b
000000f0: 9850 0e3c 76a1 ebb9 807d 403b ef6d f0b9
00000100: c0fc 32bb 142a 1836 d5b9 5bbb 805d 24ba
00000110: 6ae1 ce3b a8f9 7bb9 53af 673b 5d16 48bb
00000120: 6576 b13b 97d4 b93b 3267 223b 4feb ed3a
00000130: 6598 21ba 8557 123b 2772 2cbb d1c8 46bb
00000140: 46bd 81b8 aee9 e43b 6e20 a33b 10c2 c4ba
00000150: b0db 7d3b 0c25 6239 8c9c b83b 7999 e63a
00000160: 4d83 d63b 7dcf 07bb b4e2 853a b46d 393b
00000170: 2a80 d3ba 081b 8a38 2ecb 2abb 86ec 4339
00000180: 745c 923b c192 abb8 536c 6d39 5b14 56bb
00000190: 1261 913a dc3f 283b 7716 973b 9e82 19bb
000001a0: 6cbf a13a f7f8 1dbb 68d3 eaba 4c96 c3bb
000001b0: 0c73 0c38 07d1 833b debe 013a 9f8b b6bb
000001c0: ccac 323c 8534 233c db77 6dba a6d7 52ba
000001d0: ad56 0dbb 9087 e6ba 71bc ed39 d0bc 143c
000001e0: f3fe 04bb fcb5 de3a a3c7 8f3b 80b9 d03b
000001f0: a9e2 dc3a 9d7f e33b ec37 383b 22e5 3bb9
00000200: 88eb a23b 5913 3dbb bd32 623c 2df8 abbb
00000210: 3d40 dbb9 1c09 16bb fe39 123c dabb 223a
00000220: 735c babb 8d59 5939 1d01 db39 2854 ba3b
00000230: c382 8a3b 36e4 da3a f11e 17ba ae75 f8b9
00000240: 03a8 a4bb f9ea 3ebb abd7 123c cdb1 aa3a
00000250: 4394 c73b 73f9 4e3b 7aaf c139 6ff6 dbb8
00000260: ea3d ab3b 580b b73a bbd2 9bbb 19d6 133c
00000270: dd4f abba 2981 f839 4b00 2f3a a5dd 773a
00000280: 492b 0c3b ac96 4ebb 8094 52b9 4836 1e3b
00000290: 1d78 ae3b 4e48 233b b9e0 503b e796 083b
000002a0: 542a 59bb 8704 e73b 4121 893b 624d 3d3b
000002b0: d676 623a 3ce6 5bbb 7101 bebb c423 cbba
000002c0: de55 0bba 5e40 f23b a7f4 eb36 e1b2 183c
000002d0: 116b 203b f905 1e3b 3492 093b 5cdb 1d3b
000002e0: ebc8 9fb7 f4f7 9cba b69a 133c 5b57 9b3a
000002f0: 1bc6 953b a5ed 7e3b 3ac8 af3b 0167 233c
00000300: ccb8 ba3b 4626 4dbb 3c72 033c a96e e83b
00000310: 5e8e adbb 23c0 853b addd 873b 0afb 5aba
00000320: cc74 6d3b 7443 303b 03b0 2639 e661 b73a
00000330: 0acd 97bb 7c99 e13b 2163 cb3a 23ba 2fbb
00000340: bbab 1fba 93df 21bb a5c6 9abb 457b 013c
00000350: 6c8c 8b3b 87d8 e03a 09a5 853b cd4d 58bb
00000360: 6a65 0a3c 369f f3bb f2ad 3cba bec0 10ba
00000370: a4c4 803b a22d 333b 3ebc d139 5772 b83b
00000380: 05d3 703b 6713 973b 94ac afbb 08ba ce3b
00000390: 8661 893b 2582 223a cd43 deba 7a94 0f3a
000003a0: ecd3 913b 5240 09ba 7e31 1a3c 7f14 4639
000003b0: 25fa 52bb a62f 933b 169a aabb 427e 243b
000003c0: d4fb b33a 4024 ecba efee 97bb fe52 983b
000003d0: ed1d c2b7 afdc d03a d0dd d83a 7e26 0f3b
000003e0: c42c b5bb 75f2 edba e4e5 cbbb f01c 4f3b
000003f0: ddeb e2bb ce1d b2ba 8540 28bb 9046 babb
