keras/npy_weights/Block35_5_Branch_2_Conv2d_0a_1x1_kernel.npy (npy, 32896 bytes, 1 tensors)

array f4 [1, 1, 256, 32]
00000000: 3906 6cbc 3dd8 973b 22c9 dbbb eb26 e63a
00000010: 2b94 0fbd 55ce 73bb 7a6a 65bc 3699 48bc
00000020: 7214 38bc 58a9 28bc 0691 07bc d53a 923b
00000030: f75a b53a 668c 9dbc b297 9a3c 97d5 a93c
00000040: 7bfe 9c3c 8cf2 18bc 5366 ecba 7e02 b9bc
00000050: fd80 0ebc 6b64 e6b7 5133 edb9 617b 143a
00000060: facc 8f3b d29d 3abc 220f 6c3c 8cd6 bbbb
00000070: dfb7 80bc 2053 16bc 16b1 b23b 123e 1d3b
00000080: 07c9 98bb 9c0d 3d3d 9864 bfb9 46e8 473c
00000090: 5da5 563c bba1 de3b 0f5b 34ba a5bb 5fbc
000000a0: d0cc de3c e0bc a8bc fd26 203a ac1b f13c
000000b0: 1ca9 a3bb 6277 dabb 3768 b13a 69cd 313d
000000c0: 1614 d83b 7a83 b9bb 15e7 86b9 6305 083d
000000d0: 50b3 e1bb 0268 693c 7a99 813b 978f 303b
000000e0: 967f 9fbb 08d5 a1bb 71ba 7f3b deb2 8b3b
000000f0: fd44 b93b fb05 3cbb a264 82bb f310 d1bb
00000100: 9cf2 10bc 0a16 ddba 3079 803a 232d b7bb
00000110: f065 b53c ff07 e53c e946 013c 1fe1 f23b
00000120: 57b0 443c 2732 723c a16f 553c 154c df37
00000130: 2120 273c d279 20bb dd8c 773c a642 6e3c
00000140: 438d 173c 3648 4e3b 0fb5 663c b95b 50bb
00000150: 6f29 4f3c 7de0 febb c97b cb3a 7e97 90bc
00000160: 0a5e 5abc 1201 073c c7e0 9c3b 2b8c 7f3c
00000170: 06b9 453a 0bc4 05bc cec7 53bc 627e 723c
00000180: 4884 363c 992e d1b9 7148 3ebc 4f4a 233c
00000190: 66f0 3ebd 1fae 9d3b f167 c6bb 8642 72bc
000001a0: ee23 533c ed50 a6bc bae8 bdba 7865 35bb
000001b0: befb 763d a55e 043d 5716 9c3b fc1f b4bb
000001c0: a52b 26bc 44cc 38bc e6ef 21bc 750a 183c
000001d0: d7cc 873b eda9 d2bc 2195 07bc 6198 bd3c
000001e0: a06c b1bc 9f86 e9bc 2eb2 bf39 3dd2 57bc
000001f0: 5cb3 0d3c 9448 efbc 5e0a d2ba c069 ba39
00000200: 7c0e 133d 0a31 143d fd76 963c 16eb cdbb
00000210: a757 413c afe0 ca3a 3758 df3c cf11 c7ba
00000220: dc34 463c 405c 703c 64da 7b3c 15b4 d2bc
00000230: 6735 c8bb 8b3b 913c e29f d4bc 3ab6 9a3b
00000240: 47ad fabc 0143 b03c 37da 3abc 2715 07bc
00000250: e4e2 243d ffd9 e3bb 98ac ad3c 2212 c53c
00000260: 2b56 7b3b 548a 963c 1f9a dcbc a211 6bbc
00000270: 9f55 0f3c 9694 cebc 8b48 5ebc 7b4e 21ba
00000280: 7118 03bd 6a42 abbc 8bbe 05bc d8ba 2c3c
00000290: 0e07 b53c 3dda 92bc aa4e 81bc 1246 5f3b
000002a0: 5eb1 db3c 8ef6 1dbb cc30 3fbc 49b0 3ebb
000002b0: 7a63 04b9 8fb2 653c f1c0 4abc 06d1 9e3b
000002c0: 9544 79bc 9327 33bc 1651 213c fc92 23bc
000002d0: bc48 2ebc 20ca ca3c 5a73 b73b 7225 f7bc
000002e0: 942c e13c 5df2 833c b32e 0ebd 88df 2fbb
000002f0: 036a 3bbc 66b4 18bd b179 fb3b 3216 ffbc
00000300: 77dc e7bb 6381 af3c 1c79 803c 93f7 473c
00000310: ed64 06bc 3476 273c 541d 5dbb c623 213c
00000320: 928c 583c 6a7b e83b 7cae 5bba 163a 44bc
00000330: d5d2 86bc 9ed0 d5bb 2d03 2db9 1628 a83c
00000340: 2615 5abc 19ba 3ebc 8be8 e43b e346 f1bb
00000350: 7c49 bfbb 6c7a 19bb b0bd 2fbc d29f 193d
00000360: 0a1d 83bc 2e31 b93c 1888 12bd 4867 41bb
00000370: f37a f43b 941c e3bc c5c2 fab9 9d05 67ba
00000380: bc82 a9bc 3dd7 76bc bb00 22bc d7e8 003d
00000390: 4ac7 15bd 713d 933c aed5 0d3c 213d fbbc
000003a0: a795 da3c 3859 073c 5ba3 4e3d b014 c93c
000003b0: b610 cb3c f734 5bbc 1788 b33c e133 bb39
000003c0: 8c58 04bc 4b86 79bc 2552 8c3c d24a b03a
000003d0: 640a 26bb 942a e53b 884a 57bd dc1e 9d3a
000003e0: a550 e43b 2d80 e5bc 5060 7abc f0f8 88bc
000003f0: cbff d13c 2e62 54bc 501f 4fbc 096b 883c
-0.0144057805 0.004633932 -0.0067073265 0.0017559206 -0.035053413 -0.003720184 -0.014002437 -0.01224356
-0.011235343 -0.010294281 -0.008274322 0.0044625797 0.0013836314 -0.019231986 0.018871162 0.02073173
0.019164314 -0.009335171 -0.0018035866 -0.022584196 -0.008697745 -2.7464897e-05 -0.00045242396 0.0005664137
0.004388449 -0.011390166 0.014407905 -0.005732363 -0.015712677 -0.009175092 0.005453239 0.0023993296
-0.004662636 0.046155557 -0.00036505307 0.012201374 0.013100949 0.006794182 -0.0006880024 -0.013655578
0.027197272 -0.020597875 0.00061093253 0.02943214 -0.0049945246 -0.0066670636 0.0013535087 0.043408785
0.0065941913 -0.005661425 -0.0002573064 0.033208262 -0.006887831 0.014245989 0.0039550634 0.0026941055
-0.0048675044 -0.0049387254 0.003902104 0.004263266 0.005653976 -0.0028690088 -0.0039792815 -0.0063801943
-0.008846905 -0.001686753 0.0009801742 -0.0055900975 0.022143334 0.027957914 0.007890441 0.0074120904
0.012004933 0.014782465 0.013027103 2.66191e-05 0.010200531 -0.0024486673 0.015109268 0.014542257
0.009249988 0.0031476147 0.014081254 -0.0031792952 0.012644156 -0.007778226 0.0015524562 -0.017650362
-0.013328085 0.008240001 0.0047875377 0.0155973835 0.0007542524 -0.008164416 -0.012926055 0.01480064
0.011139937 -0.00039898304 -0.011613951 0.009966447 -0.04661598 0.0048120166 -0.0060548712 -0.014786368
0.012886984 -0.02030226 -0.0014488914 -0.0027678888 0.060298674 0.032316823 0.0047634053 -0.005496977
-0.010142242 -0.0112791695 -0.009883856 0.009279837 0.004144292 -0.025715793 -0.008275301 0.023143949
-0.021658242 -0.028506575 0.00036563113 -0.013172683 0.00864872 -0.029209413 -0.0016024818 0.00035555474
0.035902485 0.03617958 0.018367285 -0.006284128 0.011800683 0.0015478338 0.027263744 -0.0015187802
0.012097564 0.014670432 0.015371893 -0.025720635 -0.0061098817 0.017728588 -0.025955144 0.00472143
-0.030600203 0.021516325 -0.011404566 -0.008244789 0.040255442 -0.0069534774 0.021200463 0.024056498
0.003835092 0.018376507 -0.02692896 -0.014347466 0.008748441 -0.025217336 -0.0135671 -0.0006153357
-0.03200573 -0.020905692 -0.008163105 0.010542594 0.02209809 -0.01792633 -0.01578458 0.0034068865
0.026817974 -0.0024103257 -0.011669349 -0.0029096773 -0.00012625559 0.0140196225 -0.012375102 0.004846695
-0.015214105 -0.010934728 0.009845993 -0.009983774 -0.010637458 0.024754584 0.005598468 -0.030169223
0.027487077 0.016106779 -0.034712505 -0.0026836116 -0.011438849 -0.037281416 0.007674419 -0.031138513
-0.007075842 0.021424001 0.01568275 0.012205022 -0.0082027735 0.010221053 -0.0033739405 0.009835189
0.013217108 0.00709479 -0.0008380187 -0.011976739 -0.016457954 -0.0065251132 -0.00016499749 0.020526927
-0.013310706 -0.011641049 0.006985729 -0.0073631867 -0.0058376174 -0.0023418916 -0.010726377 0.037505932
-0.016005058 0.022606459 -0.03577432 -0.0029511023 0.0074609458 -0.027723588 -0.0004782883 -0.0008812787
-0.020692222 -0.015065965 -0.0098878695 0.031472053 -0.03656701 0.017973633 0.008656902 -0.030668797
0.026682688 0.0082610175 0.050448757 0.024545997 0.024788242 -0.013379327 0.021915479 0.00035706072
-0.008077752 -0.015229772 0.017129013 0.0013450033 -0.0025335783 0.006993601 -0.052561313 0.0011987346
0.0069676214 -0.02801522 -0.015281752 -0.016720265 0.025634667 -0.012962861 -0.012641743 0.0166526
