keras/npy_weights/Block35_2_Branch_1_Conv2d_0b_3x3_kernel.npy (npy, 36992 bytes, 1 tensors)

array f4 [3, 3, 32, 32]
-0.024425847 -0.0011758691 0.024235109 -0.021260774 0.020150745 -0.01350072 -0.023933642 0.007377733
0.0027160016 -0.00943228 -0.004644411 0.009337402 -0.015643554 -0.012332819 0.0035956933 0.016536947
-0.02298398 -0.00021329861 -0.011030683 0.011940474 -0.013393236 -0.00483362 -0.0041505676 -0.006631524
-0.008788572 -0.011392293 -0.009288995 -0.016009923 -0.009833131 -0.011780876 0.018738026 -0.0013123918
0.009594995 0.004742684 0.0048119808 -0.009236345 -0.0025575259 0.024019882 -0.009230352 0.0131218545
0.015909566 0.013691408 -0.0032986577 0.012997604 0.0016190546 0.0026761596 -0.00232148 -2.0823327e-05
-0.016498547 0.013947508 -0.006038077 0.00015340558 0.03523477 -0.0035451637 0.00635917 -0.016083093
0.0132748075 -0.005771982 -0.0072849686 0.0036552905 0.012015625 -0.007052123 0.008603222 0.004518865
0.009060126 -0.0049185376 -0.011726461 -0.01453804 0.016313275 0.0072257146 -0.0053643202 0.0040082657
-0.02352402 -0.005337502 -0.009816366 0.024522243 0.008380461 0.008967732 0.009687044 0.020627042
0.0017483182 -0.00021971879 0.005389463 0.0094522415 0.005575268 0.0063721864 0.012297381 0.0053786193
-0.003094296 -0.019138366 -0.017020024 -0.009596955 0.0020445655 0.010115903 0.02156956 -0.0009922814
-0.016123265 0.0089273015 -0.010762124 -0.0041169887 -0.012415724 0.018536655 0.014244602 -0.006070977
0.0050103953 0.0256953 -0.0043211384 0.02485025 -0.0071113887 0.011398157 0.010077105 0.023403239
-0.023655087 0.017191904 -0.021694157 0.0023671873 -0.013581171 -0.0077944845 0.014616154 -0.0028297955
-0.004878509 -0.016504606 0.033234112 -0.022961233 -0.0131947035 0.010631848 -0.009626771 0.014934103
-0.013165266 0.005527648 -0.0054829083 -0.0024071594 -0.015182044 2.4376659e-05 -0.0008857382 -0.011957688
0.012528197 -0.011314487 0.0032421215 -0.02513529 -0.020134132 0.009500035 -0.027228981 0.00063867104
-0.0088467905 -0.01151466 -0.013689857 0.00791171 0.01879574 0.0070067886 0.006412232 -0.0043442645
-0.027042782 -0.013257643 -0.0073078545 0.010895315 0.0016910443 -0.0070988075 0.006212538 -0.008297729
-0.0059163496 0.0033725712 -0.018026825 -0.0047341324 0.028055746 0.0073209447 0.008233461 0.0102133695
-0.0056908233 -0.009795262 -0.016664146 -0.003254721 0.008486722 -0.0073645734 0.0030151848 0.0018579207
0.0006579652 -0.008296236 0.012489317 -0.00012155393 0.009544307 -0.006316436 -0.013259261 -0.019611089
-0.025689682 0.015146822 0.0011767857 -0.012631791 -0.0051778024 0.021010019 0.007390403 0.00969765
0.011043294 0.010497985 0.010359277 0.0019101623 -0.008721356 -0.018643295 -0.0128188785 -0.0116843935
0.015203971 -0.005107873 -0.0011948248 0.007863795 -0.0039842483 0.01485002 0.00058157544 -0.02856063
0.015562912 0.0125332875 -0.01394161 -0.008983272 0.0026378513 0.02181232 0.026532866 0.0073924516
0.022478297 -0.01765199 -0.009826543 0.006152373 -0.020036994 0.0012064992 0.017595168 0.008474235
0.01025734 -0.003124912 0.0008478252 -0.014486019 0.017951483 0.016198695 -0.013708029 -0.014879434
-0.018542767 -0.0039911247 -0.005030351 0.0013646334 0.009998624 -0.024387265 -0.0051320456 0.0087231565
-0.018105125 -0.0012008483 0.01737941 0.022947205 -0.00051796134 -0.0013322328 0.0044837072 -0.008836276
0.019859208 -0.0036303168 0.008677089 -0.009137757 -0.007009505 0.011228303 0.0146275265 -0.01493553
00000000: b718 c8bc 9f1f 9aba b588 c63c 132b aebc
00000010: 2d13 a53c 2032 5dbc 7c10 c4bc e9c0 f13b
00000020: f2fe 313b da89 1abc 2530 98bb e7fb 183c
00000030: e926 80bc 980f 4abc b9a5 6b3b 7e78 873c
00000040: e648 bcbc e9a8 5fb9 0aba 34bc faa1 433c
00000050: 4e6f 5bbc 5863 9ebb 7c01 88bb 414d d9bb
00000060: f1fd 0fbc bda6 3abc de30 18bc 3e27 83bc
00000070: 241b 21bc 9304 41bc 7d80 993c 9004 acba
00000080: 5334 1d3c 8468 9b3b d2ad 9d3b 0a54 17bc
00000090: 2a9c 27bb 58c5 c43c e73a 17bc 0cfd 563c
000000a0: c754 823c ed51 603c 4b2e 58bb e7f3 543c
000000b0: 7536 d43a 8262 2f3b f923 18bb c1ad aeb7
000000c0: f627 87bc 1784 643c 10db c5bb 7fdb 2039
000000d0: 5652 103d fa55 68bb 9660 d03b b1c0 83bc
000000e0: 947e 593c e522 bdbb bfb6 eebb 998d 6f3b
000000f0: 2fdd 443c 7f15 e7bb 87f4 0c3c fd12 943b
00000100: ec70 143c af2b a1bb 5820 40bc f630 6ebc
00000110: 6ba3 853c b0c5 ec3b 2ec7 afbb c557 833b
00000120: 72b5 c0bc 36e6 aebb d3d4 20bc dfe2 c83c
00000130: 334e 093c 65ed 123c 68b6 1e3c 0bfa a83c
00000140: d327 e53a 5064 66b9 189a b03b 93dd 1a3c
00000150: bdb0 b63b c6cd d03b f47a 493c 213f b03b
00000160: acc9 4abb 10c8 9cbc 946d 8bbc 8c3c 1dbc
00000170: 1efe 053b 2cbd 253c a5b2 b03c 700f 82ba
00000180: f014 84bc d143 123c 9f53 30bc cee7 86bb
00000190: 526b 4bbc 2fda 973c 3162 693c 0cef c6bb
000001a0: 3e2e a43b f37e d23c 5698 8dbb c092 cb3c
000001b0: a706 e9bb 56bf 3a3c 711a 253c 26b8 bf3c
000001c0: 50c8 c1bc 09d6 8c3c f2b7 b1bc d022 1b3b
000001d0: 8f83 5ebc e068 ffbb 9878 6f3c 1774 39bb
000001e0: e6db 9fbb ab34 87bc 7e20 083d 3219 bcbc
000001f0: 992e 58bc 3431 2e3c 9bb9 1dbc 2bae 743c
00000200: 21b3 57bc 4621 b53b f8a9 b3bb 6fc1 1dbb
00000210: 1cbe 78bc 7a7c cc37 e230 68ba 2eea 43bc
00000220: 1143 4d3c 6660 39bc c679 543b 86e8 cdbc
00000230: 56f0 a4bc 09a6 1b3c 500f dfbc 7d6c 273a
00000240: 21f2 10bc fca7 3cbc 6c4b 60bc 1ea0 013c
00000250: 86f9 993c 3499 e53b b31d d23b 555a 8ebb
00000260: d388 ddbc 9636 59bc ba76 efbb 4382 323c
00000270: 08a6 dd3a 1d9d e8bb 8c92 cb3b 33f3 07bc
00000280: f0dd c1bb 5b06 5d3b feac 93bc c820 9bbb
00000290: 2ad5 e53c 89e4 ef3b a3e5 063c fa55 273c
000002a0: 167a babb 4e7c 20bc 3f83 88bc 284d 55bb
000002b0: e40b 0b3c 8552 f1bb 689a 453b 7985 f33a
000002c0: 4c7b 2c3a f0ec 07bc fe9f 4c3c c5ea feb8
000002d0: ba5f 1c3c 1bfa cebb 5f3d 59bc 6fa7 a0bc
000002e0: 2b73 d2bc 602a 783c 603e 9a3a 92f5 4ebc
000002f0: 8eaa a9bb 341d ac3c 322b f23b e4e2 1e3c
00000300: efee 343c beff 2b3c f5b9 293c 695e fa3a
00000310: 05e4 0ebc d3b9 98bc 4606 52bc e66f 3fbc
00000320: 141a 793c f25f a7bb ab9b 9cba 26d7 003c
00000330: 4c8e 82bb 804d 733c de74 183a fbf7 e9bc
00000340: 96fb 7e3c 6b58 4d3c 5a6b 64bc 932e 13bc
00000350: cddf 2c3b c0af b23c 745b d93c 613c f23b
00000360: 6824 b83c e89a 90bc 82ff 20bc d899 c93b
00000370: 9f24 a4bc 6523 9e3a be23 903c 85d7 0a3c
00000380: 670e 283c 53cb 4cbb 9640 5e3a c456 6dbc
00000390: fd0e 933c 20b3 843c a497 60bc dfc8 73bc
000003a0: 00e7 97bc fbc7 82bb a5d5 a4bb 80dd b23a
000003b0: 45d1 233c cdc7 c7bc b82a a8bb 92eb 0e3c
000003c0: 3351 94bc c865 9dba 445f 8e3c c7fb bb3c
000003d0: ccc7 07ba 519e aeba 10ec 923b 07c6 10bc
000003e0: c7af a23c 9cea 6dbb 592a 0e3c 88b6 15bc
000003f0: fdaf e5bb ebf6 373c 4ba8 6f3c 27b4 74bc
