keras/npy_weights/Block8_3_Branch_1_Conv2d_0b_1x3_kernel.npy (npy, 442496 bytes, 1 tensors)

array f4 [1, 3, 192, 192]
000000 dd ba 8a bb 21 d8 c1 3b 2c fc 79 b9 45 94 24 3a
       -0.0042337016 0.005915657 -0.00023840432 0.00062781974
000010 b1 76 4c bc 6a 86 01 3c 26 99 04 ba 22 34 29 3b
       -0.01247947 0.007905582 -0.0005058221 0.0025818427
000020 2e 18 59 b9 5d f3 42 3c 48 ab 86 bb 6d b4 86 bb
       -0.0002070374 0.011898843 -0.004109774 -0.004110864
000030 98 d5 8c bc 33 1d 9e 3a c6 37 4d bb 13 c6 bf bb
       -0.017191693 0.0012063145 -0.003131376 -0.0058524697
000040 d1 0f 90 3b d0 56 84 bb bd 5c 0a 3c 67 51 ce bb
       0.0043964167 -0.004038669 0.008444962 -0.006296325
000050 3d 10 09 39 3b ad a3 bb 6b d0 83 ba ca bf 96 bb
       0.00013071387 -0.004995016 -0.001005662 -0.0046004998
000060 36 70 98 3b ce 70 79 3b 7b 22 12 3b 57 85 90 bb
       0.0046520485 0.0038061622 0.0022298384 -0.0044104266
000070 dd 33 1f bb db 5a 41 bb 03 31 2f 3c 8e 05 e0 bb
       -0.0024292388 -0.0029503617 0.010692838 -0.0068365997
000080 7b ce 30 3b 89 fd 95 39 a1 83 8d 3b 6c e1 dc 3a
       0.002697854 0.00028608393 0.00431867 0.0016851849
000090 8f 28 00 3b 90 04 ad 3b 2c 79 01 bb 43 c3 df bb
       0.0019555425 0.005280085 -0.0019756062 -0.006828697
0000a0 5a bc 23 3c 87 06 1b 3c 3e 24 48 bc 16 ab c8 3b
       0.009993637 0.009462005 -0.012215672 0.0061239107
0000b0 ee 09 7e 3b 02 3e ec 39 c9 38 e9 3b b0 67 3f 3c
       0.0038763243 0.00045059627 0.007117365 0.011682436
0000c0 59 5a b9 3b c8 15 ef b9 de 9c 18 3a f9 bd ff 3a
       0.0056565222 -0.0004560186 0.0005821715 0.0019511572
0000d0 2a 79 a5 3b 7a 4a 16 bc ea f3 95 bb 4d de 81 bb
       0.0050498443 -0.00917303 -0.004576196 -0.003963268
0000e0 a5 b7 71 3b c7 e9 91 3b 25 42 8d 3b 4a d0 17 bb
       0.0036883142 0.0044529173 0.0043108636 -0.0023164921
0000f0 54 28 db bb 49 19 9b b9 62 42 03 3c 64 89 90 3b
       -0.006688157 -0.00029582743 0.008011432 0.0044109095
000100 22 34 8f bb 58 8b c0 bb 83 e4 17 bb a1 7f 5e 39
       -0.0043702284 -0.005875986 -0.0023176975 0.00021219115
000110 6c 5d f1 3b dc 01 2d bb f2 cd ec ba f3 54 ca bb
       0.007365873 -0.0026398813 -0.0018066748 -0.0061746775
000120 f1 69 78 3b 49 fd af 3b 05 e5 3c 3b 77 08 4f bb
       0.0037904943 0.00537077 0.002882303 -0.0031590739
000130 50 2f d0 3b b6 34 e2 3b 18 46 9d 3b 0a 82 dc 3a
       0.0063532963 0.0069032563 0.0047996156 0.0016823423
000140 a5 ef 92 bb 23 08 83 ba 22 d3 aa ba 2c 77 b4 3b
       -0.0044841343 -0.0009996932 -0.0013032893 0.0055073705
000150 59 ea 00 3c bd 96 b8 bb eb 19 fe ba 8a a1 c3 bb
       0.007868373 -0.005633204 -0.0019386386 -0.0059701847
000160 23 82 44 3b 16 ec 04 3c d5 43 59 b9 be 3f 0a 3b
       0.0029984794 0.008112928 -0.00020720002 0.0021095122
000170 c3 c2 e0 bb 3d 13 25 3b e5 28 e7 bb cf 6e d8 bb
       -0.006859155 0.002518847 -0.0070544356 -0.0066050063
000180 3e 7e 10 3b 54 1f 36 ba 29 2d d6 bb 96 fb 87 bb
       0.0022047902 -0.0006947417 -0.006536145 -0.0041498644
000190 0c e2 06 3a 92 aa 3f 3a 1f 7e a7 3b ae a5 3f 38
       0.0005145378 0.0007311489 0.0051114704 4.569225e-05
0001a0 f7 4d 56 3b dc 57 7b 3b 56 5c c8 b9 10 3d 85 3b
       0.003270028 0.0038351929 -0.00038215768 0.004066117
0001b0 eb 73 da 3b 4d 8d 37 bc 22 1a ab 3a f9 6c aa ba
       0.0066666505 -0.011203122 0.0013054053 -0.0013002447
0001c0 ad 59 34 bc ab bb 93 ba 3f c7 92 ba 6b 5c a4 3b
       -0.0110077085 -0.0011271139 -0.0011198296 0.0050159
0001d0 c4 a8 7a bb 6d fc 11 3b 99 11 b1 bb 81 9d 5c 3b
       -0.0038247565 0.0022275702 -0.005403709 0.0033663216
0001e0 07 60 f2 bb f6 a7 c0 3b b9 36 4a ba 1e ee 40 bb
       -0.0073967013 0.0058793975 -0.0007713843 -0.0029438804
0001f0 0f 76 26 3b a5 a9 0d bb c8 9d 2f bc a3 61 3e 3b
       0.0025399958 -0.0021616009 -0.01071877 0.0029049895
000200 a2 ba 64 b8 57 85 19 bc 54 f4 96 3b 9e 77 1b ba
       -5.453325e-05 -0.00937017 0.004606763 -0.0005930605
000210 d2 6d 69 3a d0 1e 34 3b 75 82 a1 3a 53 d5 44 ba
       0.0008904609 0.0027484186 0.0012322204 -0.00075085944
000220 d4 62 e0 3a df 0b 03 bc d1 d5 d4 3a 5f 96 f2 37
       0.0017119297 -0.007998436 0.0016238039 2.891867e-05
000230 7a 2f a6 bb 99 b2 3a 3b bf ba e4 bb 46 ff c4 bb
       -0.0050715776 0.00284878 -0.0069802697 -0.0060118763
000240 54 b5 b5 3b c1 50 af bb da f5 6b 3b 7f 85 6b 3a
       0.0055452976 -0.005350203 0.0036004693 0.0008984431
000250 cb 85 97 3a 6d d9 ab 3b ed 8e 0f 3b 74 3c bc bb
       0.0011560259 0.005244425 0.0021905259 -0.0057445113
000260 b1 ce 3f 3c 3f 7b 06 3a e2 67 07 3c 6e a7 97 3a
       0.011706994 0.00051300594 0.008264514 0.0011570284
000270 e2 b0 c1 ba 27 65 81 3b b7 25 f7 ba 4a 2b 83 bb
       -0.0014777447 0.003948826 -0.0018855844 -0.004002963
000280 22 a1 18 3b c9 4d df 3b 0b 72 67 bb 33 f3 28 3c
       0.0023289402 0.0068146926 -0.0035315778 0.010311889
000290 a3 b0 80 bb 56 ed 57 b9 82 a4 72 39 a8 ca c0 3b
       -0.0039273067 -0.00020592412 0.00023140202 0.0058835335
0002a0 39 08 ec 3b af e3 20 3c cf 22 aa bb c8 da 92 3a
       0.0072031287 0.009819909 -0.005192138 0.0011204118
0002b0 09 3b 42 3b 97 82 13 bb 90 ff b2 ba 68 f9 87 3b
       0.0029637238 -0.0022508258 -0.0013656486 0.0041496046
0002c0 a9 b8 ae 3a d2 d0 01 bc 62 18 6c 3b c1 69 0b 3b
       0.001333018 -0.007923322 0.0036025275 0.002127275
0002d0 75 57 d1 3a 0d a9 65 bb 08 72 8f bb 5a 00 a1 3a
       0.0015971499 -0.003504339 -0.0043776073 0.001228343
0002e0 5f 26 a3 bb a7 46 39 bb cb 69 25 ba 50 66 c0 3a
       -0.0049789394 -0.0028270872 -0.0006310015 0.0014678929
0002f0 50 50 88 bb ab ce fd 3a b0 c5 02 3c 14 c5 e7 bb
       -0.0041599646 0.001936396 0.007981703 -0.007073054
000300 90 a0 1f ba a5 b1 98 bb 72 d8 fa 3a 67 43 9a ba
       -0.00060892943 -0.0046598488 0.0019137992 -0.0011769355
000310 a9 83 ba 3b fe 40 8e 3b 80 3d 8a bb 1a f2 19 bb
       0.0056919646 0.0043412438 -0.004218757 -0.002349025
000320 cc 29 9f 3b 68 6a 3d 3c e3 cd b9 ba 34 26 db bb
       0.0048572775 0.011561014 -0.0014175739 -0.006687904
000330 f5 92 bb bb 0f 96 9d 3b e9 22 62 ba a8 1d 88 bc
       -0.0057243058 0.004809148 -0.0008626418 -0.016615704
000340 35 66 8a 3b cf 6e d7 bb 78 f9 6d b9 eb 28 d5 3b
       0.00422361 -0.0065744887 -0.00022695016 0.006505122
000350 de a0 d6 bb a1 b1 b3 bb 5a 4a 38 3a 1a 66 32 bb
       -0.0065499386 -0.0054838215 0.0007030122 -0.0027221502
000360 9a 92 a3 3b 1e 00 d2 3b 93 72 d9 bb e7 1a 44 bb
       0.0049918415 0.0064087054 -0.0066359728 -0.0029923262
000370 1a 98 15 bb 18 64 63 ba 9e 11 e4 bb c4 28 2d ba
       -0.0022826255 -0.0008674278 -0.006960108 -0.0006605501
000380 2a ee dc 3b 9b ae ce b9 bc 30 f4 bb 1d 96 21 bb
       0.0067422586 -0.00039421473 -0.0074520987 -0.0024656125
000390 2a df 7f bb 08 97 7e ba 30 1d b4 ba 28 15 a8 bb
       -0.0039042928 -0.00097118365 -0.0013741609 -0.005129475
0003a0 69 6a 95 ba 92 30 a6 bb 64 df b8 ba 3b df 11 3c
       -0.001139951 -0.005071708 -0.0014104662 0.00890332
0003b0 5e 34 71 3a 3a a9 df 3b 06 46 3c bb 1c 99 eb 3a
       0.0009201224 0.0068255933 -0.002872826 0.0017974707
0003c0 9e e1 9d 3b ec 5f 75 ba ae 7f 94 b9 2b 7a 17 bb
       0.0048181554 -0.0009360302 -0.0002832389 -0.002311359
0003d0 f7 65 1e bb 07 b1 cf b9 4b b7 ac 3b f8 f3 8d 3a
       -0.0024169663 -0.00039614012 0.0052708737 0.0010830155
0003e0 7e 00 5f 3c ee d5 e3 ba 41 60 0b 3b 6d fe db bb
       0.013610957 -0.0017382482 0.0021267089 -0.0067136795
0003f0 09 4e 4c 3b 11 6d b4 ba cc f0 bb 38 2f 41 12 bb
       0.0031174442 -0.0013765414 8.961707e-05 -0.0022316684
