keras/npy_weights/Block35_3_Branch_2_Conv2d_0a_1x1_kernel.npy (npy, 32896 bytes, 1 tensors)

array f4 [1, 1, 256, 32]
0.0037137046 0.0073783784 -0.020476533 0.029313708 0.029057927 -0.010943273 -0.013980041 -0.0033902675
-0.017185478 0.047374345 0.0019399431 0.012703631 0.024972858 0.00055904995 -0.04048653 -0.016109722
-0.02654546 -0.011706455 -0.018768735 -0.007107513 -0.0055893115 -0.0041250046 -0.0072837044 0.004597522
-0.007039698 -0.0041990723 0.0073027974 0.0047623753 -0.017548986 0.0047718943 -0.012989278 -0.0047952156
0.0072393976 0.0074524577 -0.0011395967 0.06037046 0.028277686 0.002397552 -0.013031937 0.006286937
0.016165452 0.017458279 -0.022260973 0.01926026 -0.040260185 -0.015211618 -0.02913379 -0.007374286
-0.02297384 0.0035793365 -0.0052317404 0.010691968 0.013322512 -0.028491069 0.017296406 -0.00017729016
0.010301399 -0.007823799 0.008139381 0.007932919 0.01563858 -0.010549382 0.0033026729 -0.014344676
-0.019851077 -0.013872388 -0.0267394 -0.023867695 -0.014399106 -0.005287859 -0.026805656 0.021934375
0.03467316 0.03073185 -0.019575084 0.028345745 0.017349195 -0.0042860154 -0.03128565 0.01756475
0.01602361 0.021343425 -0.018158939 -0.013516183 0.0009160953 -0.0027859095 -0.0013588484 -0.019554041
-0.0028385636 -0.016770495 0.056161627 0.01219043 0.038167782 -0.020426346 0.012889006 0.015864544
-0.004857311 0.0010737099 -0.017845033 0.0008674836 0.025240105 0.0032910486 0.0019870875 0.04099822
-0.029040925 0.02033714 0.015423749 0.013515474 -0.008895268 -0.017766856 -0.031177007 0.0062794024
0.01128238 0.05468249 0.0061369496 -0.00794282 -0.014568813 0.005346092 0.017618613 0.020781036
-0.014267201 0.024181422 -0.0025724047 -0.012543478 -0.036914878 0.036897045 0.003922076 0.003944872
0.048722193 0.023797076 0.021066524 0.020317763 -0.021211417 0.033084974 0.005634712 0.07437869
-0.007897487 -0.008001051 0.0072157 0.019536197 -0.016177349 -0.02327483 0.032422755 0.03157151
-0.027869683 -0.015966402 -0.056240052 -0.012189682 -0.009245792 -0.018845722 0.022929285 -0.039684433
-0.0026239138 0.032865115 0.0092594735 -0.053670444 -0.021449098 -0.0056944187 0.006957711 -0.002997835
-0.021864418 0.048839103 0.01557873 -0.0035832801 0.022451054 -0.010840922 -0.03130554 -0.007347384
-0.013336046 0.03980115 -0.000530064 0.055061895 0.009436576 -0.009768008 -0.02034475 -0.031317364
-0.0054563275 -0.023518017 -0.009792316 -0.001376083 0.0054103 0.015224108 0.031685315 -0.015868502
0.03382498 -0.046535958 0.0056007686 -0.021028517 -0.0031221511 -0.048528302 -0.027113566 0.07376275
0.027410207 0.035810318 -0.024822734 0.01722812 0.0062531573 -0.036918044 0.0001499391 -0.02208935
0.0021433402 -0.03551229 -0.011923922 0.01832355 -0.04953422 -0.009383973 0.00062600616 0.0011983394
0.014610614 0.014716262 0.004248789 -0.018828651 0.011581552 -0.008841602 -0.017412396 -0.0118607385
-0.024428979 -0.032242816 -0.0005767852 0.05554395 0.02420432 0.015596753 -0.00770589 -0.009825672
0.010036907 -0.0051903813 0.0030513792 -0.0029447435 0.004884628 0.008950743 0.015826246 -0.0009852529
-0.01559493 -0.0098283235 -0.016782353 -0.0031950863 -0.0018703104 -0.054374818 0.013165108 0.010975663
0.0050761364 0.0054125753 -0.021317916 0.031444672 -0.005407717 0.0015257639 0.00887212 -0.014179409
-0.016265076 -0.0053063505 -0.020945346 -0.022595495 -0.026051529 0.01801024 0.028197246 0.012707451
00000000: a061 733b 53c6 f13b 67be a7bc 4d23 f03c
00000010: e40a ee3c 6a4b 33bc 8b0c 65bc 402f 5ebb
00000020: 8fc8 8cbc 9a0b 423d b045 fe3a e422 503c
00000030: e193 cc3c 358d 123a 34d5 25bd 89f8 83bc
00000040: dd75 d9bc 6ecc 3fbc e4c0 99bc 24e6 e8bb
00000050: 8b26 b7bb 0c2b 87bb 24ac eebb cfa6 963b
00000060: 44ad e6bb 5f98 89bb 4e4c ef3b b30d 9c3b
00000070: e4c2 8fbc 8d5d 9c3b fbd0 54bc 2f21 9dbb
00000080: 7838 ed3b bf33 f43b 855e 95ba 0447 773d
00000090: 9ba6 e73c 3f20 1d3b e883 55bc a602 ce3b
000000a0: 696d 843c aa04 8f3c a55c b6bc b1c7 9d3c
000000b0: dde7 24bd 263a 79bc fca9 eebc ffa3 f1bb
000000c0: a233 bcbc 4d93 6a3b 056f abbb 5d2d 2f3c
000000d0: aa46 5a3c 1a66 e9bc 31b1 8d3c f7e6 39b9
000000e0: 33c7 283c 642f 00bc 0a5b 053c 13f9 013c
000000f0: 7b1c 803c 51d7 2cbc a871 583b ef05 6bbc
00000100: ba9e a2bc 0349 63bc 960c dbbc 2f86 c3bc
00000110: 3aea 6bbc c745 adbb 8997 dbbc b8af b33c
00000120: 7205 0e3d 5cc1 fb3c ed5b a0bc 5635 e83c
00000130: e61f 8e3c b471 8cbb 6225 00bd f3e3 8f3c
00000140: f243 833c 68d8 ae3c 0ec2 94bc fb72 5dbc
00000150: 1d26 703a ce93 36bb 631b b2ba cc2f a0bc
00000160: 3207 3abb 4762 89bc bc09 663d 5fba 473c
00000170: d255 1c3d 2755 a7bc 692c 533c 5cf6 813c
00000180: 142a 9fbb babb 8c3a bf2f 92bc d767 633a
00000190: 56c4 ce3c a2ae 573b cc39 023b c0ed 273d
000001a0: 3ce7 edbc 139a a63c e4b3 7c3c 0270 5d3c
000001b0: 75bd 11bc cc8b 91bc ec66 ffbc 72c3 cd3b
000001c0: bbd9 383c bffa 5f3d 7718 c93b 9a22 02bc
000001d0: 08b2 6ebc 452e af3b e954 903c fe3c aa3c
000001e0: fac0 69bc 1e18 c63c ca95 28bb 2983 4dbc
000001f0: 0e34 17bd 5b21 173d c284 803b fc43 813b
00000200: ec90 473d 16f2 c23c b493 ac3c 7071 a63c
00000210: 91c3 adbc 1c84 073d 64a3 b83b db53 983d
00000220: 7664 01bc d716 03bc ae71 ec3b 600a a03c
00000230: 5c86 84bc dbaa bebc b9cd 043d 2151 013d
00000240: f64e e4bc f9cb 82bc f85b 66bd 3bb7 47bc
00000250: aa7b 17bc 5862 9abc 32d6 bb3c 258c 22bd
00000260: f8f5 2bbb 929d 063d 0cb5 173c 8ad5 5bbd
00000270: 05b6 afbc 3f98 babb 83fd e33b 5377 44bb
00000280: 021d b3bc 830b 483d ee3d 7f3c 77d5 6abb
00000290: 46eb b73c 1f9e 31bc 3d3a 00bd 53c2 f0bb
000002a0: 6e7f 5abc 8806 233d fef3 0aba 9588 613d
000002b0: de9b 1a3c ff09 20bc 08aa a6bc a346 00bd
000002c0: feca b2bb dba8 c0bc f36f 20bc af5d b4ba
000002d0: e348 b13b 896e 793c 76c8 013d a9fe 81bc
000002e0: 108c 0a3d 7d9c 3ebd a786 b73b ff43 acbc
000002f0: 019d 4cbb 9dc5 46bd 451d debc ed10 973d
00000300: 5f8b e03c d7ad 123d 0c59 cbbc fc21 8d3c
00000310: 49e7 cc3b 6037 17bd f838 1d39 b9f4 b4bc
00000320: 4877 0c3b 5675 11bd 8e5c 43bc 451b 963c
00000330: 65e4 4abd 3cbf 19bc 901a 243a 9911 9d3a
00000340: 5b61 6f3c 7a1c 713c 6d39 8b3b 8b3e 9abc
00000350: 8dc0 3d3c 5edc 10bc 71a4 8ebc 8b53 42bc
00000360: 481f c8bc 0b11 04bd 6633 17ba 0e82 633d
00000370: 2348 c63c 8689 7f3c b181 fcbb dbfb 20bc
00000380: d771 243c 1314 aabb a6f9 473b 99fc 40bb
00000390: 3b0f a03b 23a6 123c 0ba6 813c 9a23 81ba
000003a0: e181 7fbc fa06 21bc 257b 89bc a764 51bb
000003b0: 3425 f5ba 21b8 5ebd 77b2 573c 44d3 333c
000003c0: b855 a63b f95b b13b e9a2 aebc 21cc 003d
000003d0: 3833 b1bb 24fc c73a 5e5c 113c c050 68bc
000003e0: 563e 85bc e5e0 adbb 9395 abbc 301a b9bc
000003f0: 046a d5bc 368a 933c e9fd e63c ea32 503c
