keras/npy_weights/Block17_7_Branch_1_Conv2d_0c_7x1_kernel.npy (npy, 458880 bytes, 1 tensors)

array f4 [7, 1, 128, 128]
-0.0013986222 0.00069706247 -0.00047732308 -0.0033858262 0.0020400018 0.0015500758 -0.00047185007 -0.0015567105
-0.0011162276 -0.002058135 0.0036130946 0.00032905067 0.0021625266 0.0011805977 -0.00449975 -0.00097536325
-0.00086267525 0.008343715 0.005515825 -0.0023576422 -0.0014567684 0.0007027526 0.004877443 0.0012721177
-0.001406814 0.0012830546 -0.0019627532 -0.00029710613 0.0007121196 -0.001183176 -0.0014064508 -0.004245221
0.0005369469 -0.003550776 0.00071674504 -0.0004966083 -0.0005057196 0.0020677566 -7.325749e-06 0.0007915045
0.0016944776 0.006357254 0.0013869585 -4.286901e-05 -0.0026290868 0.0007503402 0.002946976 -0.0015383635
-0.0007867463 0.0039333072 -0.0039849407 -0.0016703353 0.0027532494 -0.0016497844 0.0034656078 -0.001091975
0.0015542946 0.0011816652 0.0014114222 -0.0020764638 -0.00049596274 -0.00296561 -0.004321633 -0.0026780667
0.003709799 -0.0005930181 -0.0011873669 -0.001483845 -0.00027899514 -0.0040312014 0.0052896547 -0.0010571764
-0.003464804 -0.0013162649 -0.00060032436 -0.0056193992 -0.0010900744 0.00054533273 -0.0013748439 0.0004809634
0.0068531265 0.0025913385 0.0019304078 -0.00092781696 0.008844972 0.0012984363 0.0103461025 0.00020941481
0.0061323377 -0.0015908873 0.00070400455 0.0013032459 0.0045967903 0.0026543972 0.004652104 0.0009231038
-0.0016193213 0.0019065462 -0.0017483855 0.0021677506 -0.00037698957 0.0012618359 -0.009680762 -0.0014836679
-0.007216741 -0.0004960297 0.0009510821 -0.0013979133 0.0034276196 -0.0028914374 0.006626821 -0.0058041387
0.00021108749 0.005187138 -0.0031139746 0.003756003 0.00383771 -0.0021255666 -0.0024417946 -0.00015388809
-0.00079164776 0.00078923814 -0.0010780664 -0.00088980206 -0.0057570515 0.003558771 0.005162101 -0.0016774804
-0.0006892227 -0.0072213355 0.008347208 0.010273955 0.0040822597 0.003731486 0.002681697 0.0005283956
-0.00040032805 0.0048734127 -0.0039371583 -0.0013726586 -0.0031638122 -0.0020628485 -0.00095083675 -0.0030769387
0.00023777237 -0.0057016993 -0.012720105 0.0020451704 -0.0007685951 0.0015805891 -0.0025584728 -0.0018492964
-0.00037011463 0.0019084199 -0.0014430389 0.003539319 -0.0022537792 0.0009333179 -0.0028010593 -0.0013542654
0.005950829 0.006501361 0.00090883067 -0.00590862 -0.0012822251 -0.0059018624 0.002724349 0.0024781097
0.0028392123 0.00076128374 -0.00714065 0.0072908183 0.0071372124 -0.0032934442 -0.0017270359 -0.010729505
0.0034697067 0.0050674803 -0.0011959083 0.0036488324 0.00259914 -0.011041618 -0.002918198 -0.0017275815
-0.0064612203 0.0021732082 -0.0014012513 -0.003721013 -0.00036901576 -6.815388e-05 -0.0017485064 0.0015314035
0.0006459146 0.0033275655 0.0058612386 0.0024839665 0.0012997693 -0.0018571527 -0.010658846 0.0020420023
-0.0029124836 -0.0042371782 -0.0020377948 0.0020324911 -0.000377065 -0.005467854 0.002110565 -0.0026563606
-0.0071793613 0.0033954042 0.010636936 -0.0022182688 -0.013059737 -0.00214245 0.005825223 0.008230026
-0.00075794524 -0.0036436329 -0.0069140135 -0.0075262096 0.002357762 0.008794817 -0.0036566136 0.0014324427
0.0033589848 0.00088679756 -0.0029808949 -0.004568231 0.010036023 0.00075133686 -0.004114817 0.0013403248
-0.005538693 0.0052894433 0.00355337 8.570956e-05 0.00053119694 0.002068458 0.0009621407 -0.0009381474
-0.0020569244 -0.004782867 0.0015751817 0.007763546 -0.0054235607 -0.004164153 0.004155889 0.00051690196
0.0018652666 -0.0006312934 -0.0056546703 -0.0031940239 -0.003722739 8.5199266e-05 -0.0014160039 0.00058990385
00000000: f951 b7ba 12bb 363a 3841 fab9 bde4 5dbb
00000010: 8db1 053b ea2b cb3a a562 f7b9 890a ccba
00000020: 624e 92ba c7e1 06bb abc9 6c3b 6f84 ac39
00000030: 2db9 0d3b 49be 9a3a a472 93bb 85af 7fba
00000040: 2825 62ba 14b4 083c 18be b43b ac82 1abb
00000050: 09f1 beba ee38 383a f5d2 9f3b 30bd a63a
00000060: d864 b8ba 2b2c a83a 89a1 00bb e9c4 9bb9
00000070: 8aad 3a3a cc14 9bba a858 b8ba 7f1b 8bbb
00000080: e6c1 0c3a 23b4 68bb f2e3 3b3a d22e 02ba
00000090: 4592 04ba 3383 073b b4cf f5b6 f87c 4f3a
000000a0: 3c19 de3a 8350 d03b 9bca b53a 40ce 33b8
000000b0: c24c 2cbb 7ab2 443a 0e22 413b eaa2 c9ba
000000c0: a73d 4eba f9e2 803b 1b94 82bb 27ef daba
000000d0: dc6f 343b 943d d8ba 401f 633b 9a20 8fba
000000e0: 79b9 cb3a 1be2 9a3a 78ff b83a 4815 08bb
000000f0: 7f03 02ba ae5a 42bb 7c9c 8dbb 8182 2fbb
00000100: 1920 733b c574 1bba 6ca1 9bba 937d c2ba
00000110: 1846 92b9 2b18 84bb d754 ad3b f490 8aba
00000120: c411 63bb 8586 acba 165f 1dba f022 b8bb
00000130: d4e0 8eba a9f4 0e3a 1b34 b4ba d129 fc39
00000140: 3190 e03b 72d3 293b bd05 fd3a be38 73ba
00000150: 80ea 103c 4b30 aa3a b382 293c 5c96 5b39
00000160: c7f1 c83b 5285 d0ba f28c 383a add1 aa3a
00000170: aca0 963b 65f5 2d3b ad70 983b 73fc 713a
00000180: 683f d4ba 13e5 f93a 152a e5ba d210 0e3b
00000190: afa6 c5b9 3064 a53a 0f9c 1ebc a277 c2ba
000001a0: 697a ecbb fd07 02ba 0a52 793a 303a b7ba
000001b0: eaa1 603b 457e 3dbb ce25 d93b a530 bebb
000001c0: 5e57 5d39 def8 a93b d313 4cbb 4627 763b
000001d0: 1782 7b3b 174d 0bbb 8406 20bb 055d 21b9
000001e0: 9586 4fba e0e4 4e3a e84d 8dba 9b41 69ba
000001f0: a6a5 bcbb 453a 693b d726 a93b e7de dbba
00000200: f4ac 34ba f4a0 ecbb bac2 083c 1754 283c
00000210: 7ac4 853b f28b 743b 69bf 2f3b 0784 0a3a
00000220: 1fe3 d1b9 26b1 9f3b 4703 81bb c8ea b3ba
00000230: f657 4fbb db30 07bb 9341 79ba 77a6 49bb
00000240: 8952 7939 52d5 babb fd67 50bc 4408 063b
00000250: 8b7b 49ba c52b cf3a 0dac 27bb 1764 f2ba
00000260: f20b c2b9 f223 fa3a 5a24 bdba ebf3 673b
00000270: 24b4 13bb e7a9 743a fa91 37bb 9b81 b1ba
00000280: 2cff c23b 5e09 d53b 983e 6e3a 199d c1bb
00000290: 5610 a8ba 6964 c1bb fe8a 323b c867 223b
000002a0: 1412 3a3b e390 473a 1dfc e9bb d1e7 ee3b
000002b0: 47df e93b d3d6 57bb b55d e2ba ceca 2fbc
000002c0: 0564 633b 1b0d a63b 06c0 9cba 4021 6f3b
000002d0: 5556 2a3b e7e7 34bc 3d3f 3fbb 0470 e2ba
000002e0: a5b8 d3bb 626c 0e3b 31aa b7ba 3ddc 73bb
000002f0: 7578 c1b9 d6ed 8eb8 242e e5ba 60b9 c83a
00000300: 9852 293a 4913 5a3b a20f c03b 0bca 223b
00000310: 055d aa3a b46b f3ba 71a2 2ebc 1dd3 053b
00000320: 5edf 3ebb 07d8 8abb 868c 05bb 8b33 053b
00000330: cfb0 c5b9 af2b b3bb 6851 0a3b 5616 2ebb
00000340: d940 ebbb 6e85 5e3b 8b46 2e3c 6060 11bb
00000350: 82f8 55bc 5968 0cbb 83e1 be3b 3bd7 063c
00000360: d8b0 46ba 04ca 6ebb f38e e2bb 6c9e f6bb
00000370: af84 1a3b 2318 103c cca3 6fbb cdc0 bb3a
00000380: 6a22 5c3b fa77 683a 1e5b 43bb 19b1 95bb
00000390: 226e 243c 5df5 443a 96d5 86bb d6ad af3a
000003a0: ed7d b5bb 1153 ad3b a8df 683b f8be b338
000003b0: 0640 0b3a f78e 073b 2b38 7c3a 02ee 75ba
000003c0: 77cd 06bb 99b9 9cbb 5476 ce3a 5865 fe3b
000003d0: 20b8 b1bb 7273 88bb 202e 883b b480 073a
000003e0: f67b f43a 627d 25ba d04a b9bb d452 51bb
000003f0: 32f9 73bb 02ad b238 3599 b9ba c7a3 1a3a
