keras/npy_weights/Block35_1_Conv2d_1x1_bias.npy (npy, 1152 bytes, 1 tensors)

array f4 [256]
000000 d5 17 83 bc 56 54 3e bd 91 38 e8 bd ff d4 d7 bd
       -0.016002575 -0.046467148 -0.11338914 -0.10538673
000010 71 4c 55 be 1d 97 47 be bc 1d 77 be f0 46 1b be
       -0.20829941 -0.19491239 -0.24132437 -0.1516378
000020 a4 6a 63 3d 90 c1 ab 3d 31 1c 1c be 80 12 28 be
       0.055521622 0.083865285 -0.15245129 -0.16413307
000030 b5 1c 09 be 0e fd 24 be fb 2b 06 be 85 ad 4b be
       -0.13389857 -0.16112158 -0.13102715 -0.19890411
000040 41 a1 f6 bd f7 6f 71 bd 07 58 09 bd d8 42 5e be
       -0.120424755 -0.05894467 -0.033531215 -0.21705186
000050 53 0c 25 be ad a5 31 bd 8d bb 32 be e5 be 42 be
       -0.16117983 -0.04337089 -0.17454357 -0.19018133
000060 ec ad 12 3c 39 ef 14 3f 00 66 cb 3c c9 cb 49 3e
       0.008952599 0.58177525 0.02482891 0.19706644
000070 8d 20 fe 3c 07 6c 7c be 1f ff 9c 3d 37 fe ba be
       0.03102138 -0.24650584 0.07665848 -0.36522076
000080 98 59 85 3e c5 de 65 3d 25 f0 09 be f7 e4 1a 3f
       0.26044917 0.056120653 -0.13470514 0.6050562
000090 a7 3b 9d bd f9 94 8c 3d ef 89 45 be ff 78 41 be
       -0.076773934 0.06864352 -0.19290899 -0.18893813
0000a0 68 ed 2f be c2 85 d7 bc 80 e4 fd bd bc 37 e2 3b
       -0.17180407 -0.026308898 -0.123970985 0.0069036167
0000b0 ad 75 5e bd fd db cf bc a1 6a c2 bd f0 5f 4d 3e
       -0.054311443 -0.025373453 -0.09492994 0.20056129
0000c0 8a cc f9 3b 24 12 01 3f 8c 12 19 be 5d 6d d8 bd
       0.00762326 0.50418305 -0.14948481 -0.105677344
0000d0 43 36 30 be 65 6b 15 be 65 92 55 3e 4b cc 14 be
       -0.17208199 -0.14591749 0.20856626 -0.14531057
0000e0 c1 b4 92 be 96 75 f6 3e 60 a8 e7 3e 23 9f a8 bd
       -0.2865353 0.48136586 0.45245647 -0.08233478
0000f0 a7 1f 8b bd 22 62 2e bd 0b bd d9 bd 32 77 0d be
       -0.067931466 -0.042574055 -0.1063176 -0.13815
000100 3b 4b 34 3c bc fb a4 be 68 66 47 be 18 da 66 bd
       0.0110042645 -0.32223308 -0.19472659 -0.056360334
000110 f4 6e 52 be 44 8b 42 3e 5b d2 62 3d ac 11 29 3e
       -0.20550138 0.18998438 0.05537639 0.16510648
000120 8f 30 8b be d1 90 12 3e 7c ad 05 be 24 db 41 be
       -0.27185485 0.14313056 -0.1305446 -0.18931252
000130 0a ef 89 bd e4 51 19 be e2 c6 e7 3c 49 3f a2 3d
       -0.06735046 -0.14972645 0.028293077 0.07922227
000140 64 56 8c 3e 29 78 6d be 2d 41 c0 3d 90 29 9c bc
       0.2740966 -0.23190369 0.09387431 -0.019062787
000150 0a 26 c2 bd a5 bb 51 be f6 18 e4 3e 60 90 a2 be
       -0.094799116 -0.20481737 0.44550294 -0.31750774
000160 71 d7 26 be 2f 7d 18 bc 6a 8f 7c 3e 91 db f1 3e
       -0.16293122 -0.00930719 0.24664083 0.47237828
000170 b3 08 d8 bd d0 12 80 3d 54 dd 85 bd eb 5a 95 be
       -0.10548534 0.06253588 -0.065363556 -0.29170927
000180 48 3f 13 3e 16 65 a3 bd bd d4 0b bd 1c 96 95 bd
       0.14379609 -0.07978265 -0.03413843 -0.07304022
000190 8a b9 9a be ea f1 dc bc d1 24 a3 3d 21 8b 1a be
       -0.3021968 -0.026970822 0.079660065 -0.15092136
0001a0 6b 94 5e 3d 3a 77 dd bd 93 44 0e 3d 50 49 82 be
       0.05434076 -0.10813756 0.034733366 -0.25446558
0001b0 16 aa 7f be bc f9 8b bd b4 61 18 be 3c fc b9 bd
       -0.24967226 -0.068347424 -0.14881021 -0.09081313
0001c0 69 94 c7 be cb 9c 26 be c8 2d cc be b5 8c 10 be
       -0.38980415 -0.1627075 -0.39878678 -0.14116175
0001d0 26 23 b3 bd ee b5 8b 3d f7 8c 10 be da d1 92 be
       -0.087469384 0.0682181 -0.14116274 -0.2867573
0001e0 fa 94 98 bd b0 40 03 be d8 95 54 3e f0 b4 8d be
       -0.0745029 -0.12817645 0.20760286 -0.27677107
0001f0 ee eb ff bd f2 b3 20 be a7 2a 56 3e 70 ec 5f be
       -0.12496172 -0.15693644 0.20914708 -0.21867537
000200 35 bf be be da dc 55 be 8a 26 2a 3f 1c e0 0e be
       -0.37255254 -0.2088503 0.66465056 -0.13952678
000210 91 d4 74 3c 92 92 41 be 94 ee f6 3e 38 cb d4 bd
       0.014943258 -0.18903568 0.48228896 -0.103903234
000220 75 3b 8a bd c0 c0 29 be ed 47 51 3d 28 92 6b be
       -0.06749622 -0.16577435 0.051093984 -0.23004973
000230 ed af c5 bd 89 53 49 be e3 2e 99 3e a2 09 f4 3d
       -0.09652696 -0.19660772 0.29918584 0.119159
000240 dd 1a a1 bd 06 46 01 be e4 5c 2c 3c a6 5f 70 bd
       -0.07866452 -0.12624368 0.010520194 -0.058684967
000250 17 fe 0f be e3 f4 27 3c fe 86 a6 3d 59 43 04 3e
       -0.14061771 0.010251257 0.081312165 0.12916316
000260 d6 c4 ff bd 7e e0 7e be e6 10 10 be 50 ab 8f 3e
       -0.12488715 -0.24890324 -0.14068946 0.2806039
000270 f6 29 40 bd 12 54 48 3e 5f 84 32 3d 1b ff 8f bd
       -0.046915017 0.1956332 0.04358327 -0.070310794
000280 24 cd a7 3d 06 2c 82 3c 52 1b fc bd 9b 86 10 be
       0.08193424 0.015890133 -0.123098984 -0.14113848
000290 62 45 82 bd 21 c9 34 bb b9 89 8f be c8 4d c1 3e
       -0.0636089 -0.0027585702 -0.28034762 0.37754655
0002a0 83 c5 15 be 13 6e 76 3e c0 9c 51 be 68 68 ab bd
       -0.14626126 0.24065427 -0.20469952 -0.08369523
0002b0 1e 5e 4e bd 5b eb da bd e7 13 08 be 8a 08 46 be
       -0.050382726 -0.10689422 -0.13288842 -0.19339195
0002c0 b2 f1 0d bc 3d 48 d8 bd 9c 38 b7 bd 6d ac 6d be
       -0.008663582 -0.10560653 -0.08946344 -0.23210306
0002d0 38 8b df bd 5c b4 70 3c f7 d2 a3 3c 61 26 e6 bc
       -0.10915226 0.0146914385 0.019998057 -0.028094472
0002e0 da 7a de bd c6 d0 67 be 5e ca de bd a4 86 8b bd
       -0.10863276 -0.22638234 -0.10878442 -0.0681279
0002f0 46 23 eb 3e 6a 74 04 be 5a 5e 89 be be ea 4d be
       0.4592535 -0.12935033 -0.26829797 -0.20109078
000300 36 a4 26 3d b2 7e 1a bd 64 92 d9 bc f9 46 31 be
       0.040683948 -0.037718482 -0.026559062 -0.1731223
000310 75 69 6d bc 83 5b 2e bc 91 ba b0 bd 5d 25 8b bc
       -0.014490475 -0.010641935 -0.08629335 -0.01698559
000320 05 dd 52 be 3c 1e 4a bc 5e 5f 90 3c fb a3 0b be
       -0.20592125 -0.01233631 0.0176236 -0.13636772
000330 b8 b9 01 3c 91 77 28 be a7 09 1c 3e 04 3e 2b bb
       0.007917814 -0.16451861 0.15238057 -0.0026129493
000340 8c d9 3a 3e d7 ef 09 bd 07 d7 46 bd c6 bd 6c 3d
       0.1824705 -0.033675995 -0.04854491 0.05779817
000350 e4 39 2a bd 9f dd 6f bd 0c 4c 03 3e 44 5e 59 be
       -0.041559115 -0.058560964 0.12821978 -0.21227366
000360 58 11 9f 3e f4 5d 34 be b2 52 02 be d5 22 18 be
       0.3106792 -0.17613965 -0.12726858 -0.14857037
000370 1e c2 27 be 38 09 58 bd 78 21 b2 bd 22 cf 04 bd
       -0.16382644 -0.052743167 -0.0869779 -0.0324241
000380 50 f7 8d 3c 53 b6 0f bd 11 78 84 be 11 e7 b1 3d
       0.017329842 -0.035085987 -0.25872853 0.086866505
000390 43 d9 d2 3c 55 6e a5 bc 47 4d b7 bc b4 52 a5 3c
       0.025738364 -0.020194212 -0.022375716 0.020181037
0003a0 32 9c 4b be 5d 39 54 be 43 8a df bc f8 e3 32 bd
       -0.19883803 -0.20725007 -0.027287608 -0.04367444
0003b0 b8 94 b0 be 60 8b b6 3d b4 2f 04 be 83 cb f0 be
       -0.34488463 0.089133024 -0.12908822 -0.47030267
0003c0 25 bc 74 bd a9 ab 1b 3f 8d 47 5d be 0e e9 ac bd
       -0.05974974 0.6080881 -0.21609326 -0.08442889
0003d0 4e a7 4d 3d 96 75 12 bd 33 3f 23 be 26 65 0b 3f
       0.050208382 -0.03575667 -0.15942077 0.54451215
0003e0 44 4b 52 3d 6f fb 48 3f 70 37 d3 bc 76 4f 0d be
       0.05134131 0.7850866 -0.02578327 -0.13799843
0003f0 21 2f 03 3e fe 78 05 be 76 31 80 be 4d 5c 8a 3e
       0.12810947 -0.13034436 -0.25037736 0.27023545
