keras/npy_weights/Block17_3_Branch_0_Conv2d_1x1_kernel.npy (npy, 458880 bytes, 1 tensors)

array f4 [1, 1, 896, 128]
0	0xbb879ca2	-0.004138545
1	0x3a8886be	0.0010416133
2	0xbaa77bfd	-0.001277804
3	0xb9cda150	-0.00039220834
4	0xbb005a99	-0.001958525
5	0xba6bcf95	-0.00089954707
6	0xba829982	-0.0009963962
7	0xba814d26	-0.0009864911
8	0x3a983ca9	0.0011614758
9	0x39eb52be	0.0004488434
10	0x3af7c52e	0.0018903369
11	0xb722b3d8	-9.697826e-06
12	0x3a43cb8b	0.000746899
13	0xbb3bfc37	-0.0028684267
14	0xbb084c59	-0.002079746
15	0xba5f5268	-0.00085190544
16	0xbb038b05	-0.0020071876
17	0x3abbdc2d	0.0014332585
18	0xbb040801	-0.0020146372
19	0xbaffcd62	-0.0019516165
20	0x3b171e9a	0.0023059011
21	0x3ac353c7	0.0014902287
22	0xb9974d48	-0.00028858543
23	0xbadd5336	-0.0016885761
24	0xb8bf2cd3	-9.115939e-05
25	0xba83dad1	-0.0010059719
26	0x389b6a8f	7.410824e-05
27	0x3afa5cdb	0.0019101159
28	0xbb0f975c	-0.0021910286
29	0x3a9edf51	0.0012120997
30	0xba1dc7a6	-0.00060188246
31	0x37db851c	2.6168818e-05
32	0xbab6857c	-0.001392528
33	0x3b3dc4a5	0.002895632
34	0xb9fdc947	-0.00048405884
35	0x3a55d6fd	0.0008157341
36	0xbaac2d6e	-0.0013136098
37	0x3b5b2d2e	0.0033443677
38	0x3b4732d2	0.0030395282
39	0xba136f18	-0.0005624159
40	0xbb0cc7d6	-0.0021481416
41	0xb9dc1cdd	-0.00041983175
42	0xbaed2b9a	-0.0018094659
43	0xba668cfe	-0.0008794813
44	0x3a810e40	0.0009846166
45	0xba8f55aa	-0.0010935564
46	0x3a853457	0.0010162693
47	0xbb552fce	-0.0032529715
48	0x3b764850	0.0037579723
49	0x3b024e6c	0.001988317
50	0xbaa27031	-0.0012393055
51	0xb8ff681e	-0.00012178741
52	0x3b4c3520	0.0031159595
53	0x39f8d777	0.0004746278
54	0xbb29df69	-0.0025920516
55	0xb9048856	-0.0001263929
56	0x3ab92e26	0.0014128133
57	0x39b68371	0.00034811677
58	0x3a39026c	0.0007057551
59	0xba266432	-0.0006347328
60	0xbaad31f1	-0.0013213736
61	0xb9e4a544	-0.0004361068
62	0xbac3967d	-0.0014922168
63	0xba1cf044	-0.000598673
64	0xbb1b1d46	-0.0023668571
65	0xba0b4f25	-0.00053142227
66	0xbaec52ee	-0.0018030086
67	0xba0ba94c	-0.00053276564
68	0x393e1e15	0.00018131018
69	0x3a1d643b	0.000600401
70	0x3a78319b	0.0009467841
71	0xba8a94df	-0.0010572931
72	0xbb62e20b	-0.0034619595
73	0x3af1f284	0.0018459116
74	0xbaf942a1	-0.0019017049
75	0x3b41600d	0.0029506714
76	0xba4eb3f6	-0.00078850926
77	0xb812644e	-3.490253e-05
78	0xba455e73	-0.00075290276
79	0x399c85f2	0.00029854436
80	0xba0608c9	-0.00051130034
81	0xb9f45180	-0.0004660003
82	0xba9be1fb	-0.0011892909
83	0x3b81b5ae	0.0039584255
84	0xbb144267	-0.0022622587
85	0xb98060e2	-0.00024486246
86	0x3a853052	0.0010161495
87	0x39cd65d5	0.00039176518
88	0xba619188	-0.00086047547
89	0x3b44b597	0.0030015463
90	0xbb03c2fe	-0.0020105238
91	0xba555bba	-0.00081389735
92	0xbb1bb5e6	-0.0023759543
93	0xba56b8e8	-0.00081910053
94	0x3af427c4	0.0018627574
95	0x3ad411a9	0.001617958
96	0x3abb087f	0.00142695
97	0x3a152ab5	0.0005690263
98	0x38e6496f	0.00010980933
99	0x384718a0	4.746823e-05
100	0xb9345e7a	-0.00017201333
101	0x3a386239	0.0007033679
102	0xbb6246af	-0.0034526994
103	0xba253e43	-0.0006303528
104	0xbae70ebf	-0.0017628296
105	0xbaaa9cdf	-0.0013016722
106	0x3a90ccdd	0.0011047382
107	0xba9cf42f	-0.0011974628
108	0xb82a6c5d	-4.063208e-05
109	0x3b5fa11f	0.0034123135
110	0x39630552	0.00021650389
111	0xba952c27	-0.0011380956
112	0xba8435fe	-0.0010086892
113	0xbb18bf3e	-0.0023307349
114	0x3a6f9d49	0.0009140564
115	0x3ab817da	0.0014045194
116	0xbaa64a5a	-0.0012686953
117	0x3a08391e	0.00051964994
118	0xbaf475f2	-0.0018650873
119	0xbaad0f5d	-0.0013203431
120	0x3961de44	0.00021540473
121	0xba370bf5	-0.0006982678
122	0xba582616	-0.00082454213
123	0xbb1690d4	-0.0022974508
124	0x3ab5c832	0.0013868867
125	0xb96081a8	-0.00021410605
126	0xbb7fc1d7	-0.003902545
127	0xbafc6e1d	-0.001925889
128	0x3bf6a6e1	0.0075272177
129	0xbb1c5793	-0.002385591
130	0xbb326650	-0.0027221628
131	0x3b56601d	0.0032711097
132	0x3adb23ba	0.0016719021
133	0x3b1c1be0	0.0023820326
134	0x3b0cd982	0.002149195
135	0xba7b2bff	-0.0009581446
136	0x3a1ef9c4	0.00060644397
137	0x39ed8010	0.00045299577
138	0xb909a7ac	-0.00013127801
139	0x3b3616b8	0.0027784538
140	0xba4c6f54	-0.00077985716
141	0x3a20ac17	0.0006129159
142	0xbabe3267	-0.0014510871
143	0xbb0d2c38	-0.002154125
144	0xba75fec1	-0.00093839696
145	0x3aaacb3b	0.0013030538
146	0xba60d54c	-0.00085767056
147	0xbaa1aae4	-0.0012334255
148	0xbb4ceb9d	-0.0031268366
149	0x3abde891	0.0014488866
150	0x3b33bd2f	0.0027425995
151	0xbafcbb46	-0.0019281886
152	0x3b147b80	0.002265662
153	0xb991fd2a	-0.00027845177
154	0x39e24bc0	0.00043162517
155	0x3a0d1ce8	0.00053830305
156	0x3a09d0a7	0.0005257227
157	0x3ad2453d	0.0016042363
158	0xba9a9327	-0.0011793122
159	0x3a8d9c49	0.0010804023
160	0xba9632e1	-0.0011459255
161	0x3ac37962	0.0014913494
162	0x3b52b4ff	0.003215134
163	0xbaa5b00c	-0.0012640967
164	0xba0fdbdd	-0.0005487779
165	0x3aaa2920	0.0012982227
166	0xb8ac6938	-8.221198e-05
167	0xb813b798	-3.5218516e-05
168	0xb9aba462	-0.00032738136
169	0x3b02963e	0.0019925977
170	0xb888d353	-6.5243476e-05
171	0x3aac834e	0.001316169
172	0x3b09feaf	0.0021056344
173	0xba44b6bf	-0.0007504038
174	0xbadbf45c	-0.0016781199
175	0xba71ab22	-0.0009218921
176	0xbaa2367a	-0.0012375854
177	0x3b35e3e8	0.002775425
178	0x3a50c59c	0.00079640164
179	0x3a86c414	0.0010281825
180	0xb9c94507	-0.00038389137
181	0xba917b3c	-0.0011099349
182	0x3ae8c5e9	0.0017759177
183	0xbae678a5	-0.0017583562
184	0x3aed134a	0.0018087414
185	0x3aad9e3c	0.001324601
186	0xba899cb4	-0.0010498972
187	0x39efb45b	0.00045720008
188	0x3a925a69	0.001116586
189	0x3adba40e	0.0016757266
190	0x3ab91bc5	0.0014122656
191	0x3adcb756	0.0016839306
192	0x3a2395d0	0.00062402803
193	0x3a541c4d	0.00080913753
194	0xbb0310ec	-0.00199991
195	0x3a3e5568	0.00072606513
196	0x39e3e177	0.00043464798
197	0xba7d1cfe	-0.0009655504
198	0x3a19f1f0	0.00058725383
199	0x3aac302e	0.0013136917
200	0x3a7158b1	0.00092066365
201	0xba7094b5	-0.00091774325
202	0xbad3bead	-0.0016154848
203	0xbadf6873	-0.0017044678
204	0x3a3feff2	0.00073218264
205	0x3b40b00f	0.0029401814
206	0x3b719142	0.0036860262
207	0xba2b26be	-0.00065289054
208	0x3a0cfa3a	0.0005377863
209	0x3afe7e3e	0.0019416285
210	0xbb087fbf	-0.0020828096
211	0x3afa30a3	0.0019087981
212	0xbaf4698d	-0.0018647179
213	0xba385f8e	-0.0007033282
214	0x375fa6df	1.33306885e-05
215	0xbb16b108	-0.0022993702
216	0xbb51f6d4	-0.003203799
217	0x3a9f89f9	0.0012171856
218	0x3b09a1ea	0.002100105
219	0xba5dd603	-0.0008462371
220	0xb9bc667b	-0.00035934508
221	0x3ac2fe59	0.0014876827
222	0x3b75b5f2	0.003749248
223	0xbb1da82e	-0.0024056542
224	0x3a8becc9	0.0010675426
225	0x3aafc668	0.001341057
226	0xb8b7792f	-8.748692e-05
227	0x3a872259	0.0010309919
228	0x3a8cd2ab	0.0010743936
229	0x3a018d14	0.0004941982
230	0xbac1e90f	-0.0014794188
231	0xba7aeb90	-0.0009571845
232	0x369dfbe2	4.7082876e-06
233	0xbaab227a	-0.001305654
234	0x3a23333f	0.0006225593
235	0x3a5f18a4	0.00085104466
236	0xb988b849	-0.00026077245
237	0x3a3be0ad	0.0007166963
238	0x3ac25605	0.0014826661
239	0x39df7581	0.00042621422
240	0x3b46ff90	0.003036473
241	0x39c57932	0.00037665066
242	0xba082aa6	-0.00051943434
243	0xba849184	-0.0010114168
244	0x39b25425	0.00034013498
245	0xba9a0e43	-0.0011753518
246	0x3a7dd0eb	0.0009682315
247	0x3a2be314	0.00065569696
248	0xba87b6ca	-0.0010354158
249	0xb83c5f20	-4.4911285e-05
250	0x3b1a95fb	0.002358793
251	0x3ab396ec	0.0013701594
252	0xba517b1f	-0.0007991064
253	0x3a10669b	0.00055084535
254	0xbaff24f6	-0.0019465971
255	0xbb0f08ec	-0.0021825386
