keras/npy_weights/Block35_2_Branch_2_Conv2d_0c_3x3_kernel.npy (npy, 36992 bytes, 1 tensors)

array f4 [3, 3, 32, 32]
0	0xbc576690	-0.013147011
1	0x3bd963c0	0.0066342056
2	0xbbf09843	-0.0073423698
3	0xbb4d227a	-0.0031301067
4	0xbc2ef89e	-0.010679392
5	0xbc0036e0	-0.007825583
6	0x3aba47f9	0.0014212123
7	0xbc4bda35	-0.012442161
8	0xbb941fd6	-0.0045203967
9	0xbcb41a28	-0.021985129
10	0x3cd2dcdc	0.02574008
11	0xbc04a2e9	-0.008095481
12	0xbb8973c2	-0.0041947076
13	0xbba61a3e	-0.0050690463
14	0xbc4629f3	-0.012094962
15	0xbb09541c	-0.0020954674
16	0x3c51d411	0.012806908
17	0x3c6e9856	0.014562687
18	0xbbf5d29e	-0.007501914
19	0xbbe35e4e	-0.006938732
20	0x3bac9085	0.0052662515
21	0xbd1fc7b6	-0.03900882
22	0xbbc22fdf	-0.005926117
23	0x3ba70941	0.0050975387
24	0xbbc43d24	-0.005988734
25	0xbac8f25c	-0.0015331018
26	0x3bd40aa6	0.006470996
27	0x3a6ff302	0.00091533375
28	0xbc073605	-0.008252625
29	0x3d492e8e	0.049116664
30	0xbcca11f8	-0.024666771
31	0x3bfe0457	0.007751982
32	0xbc89d5c8	-0.016825572
33	0x3cee8b28	0.02911909
34	0x3c9ec574	0.019381262
35	0xbc8151e6	-0.015786123
36	0xbc8635cc	-0.016383074
37	0x3b72fcf7	0.0037077048
38	0xbaa6cf76	-0.0012726623
39	0xbca54029	-0.020172196
40	0x3c6af4e0	0.014340609
41	0xbbfd9882	-0.0077391276
42	0x3c319586	0.010838872
43	0xba8bb0ca	-0.0010657546
44	0xbcbea418	-0.023271605
45	0x3bc2adf6	0.005941148
46	0xbc57dbbe	-0.013174949
47	0x3d4f607d	0.050629128
48	0xbd3cb66e	-0.046072416
49	0x3c8e4943	0.017368918
50	0xbc8725f5	-0.016497592
51	0x3b999dd5	0.0046880045
52	0x3cf37a21	0.029721322
53	0x3bea7f24	0.0071562696
54	0xbc284e5b	-0.010272588
55	0xbc7c595a	-0.015402162
56	0xbb4a26fa	-0.0030845986
57	0xbc9acbf8	-0.018896088
58	0xbc21ef6a	-0.009883741
59	0x3ca9bd4d	0.020720148
60	0x3c16e33d	0.009209451
61	0xbcd6ef93	-0.026237285
62	0xbccd50ff	-0.025063036
63	0x3d61e4e1	0.055149917
64	0xbc9be735	-0.019031147
65	0x3ca41f18	0.020034358
66	0xbaf89de6	-0.0018967956
67	0x3c316d73	0.010829317
68	0x3c16753a	0.009183222
69	0xbcd974a1	-0.02654487
70	0xbc2850c4	-0.010273162
71	0x3b51daa8	0.0032021198
72	0xbc5bb5ec	-0.013410073
73	0xb884cbd6	-6.332218e-05
74	0x3c22fe3d	0.00994831
75	0x3c9e67f3	0.019336676
76	0xbb62707d	-0.0034551912
77	0x3998c1ce	0.00029136095
78	0xba6d7af1	-0.0009059152
79	0xbc8a786e	-0.016903128
80	0xbc42de3b	-0.011893804
81	0xbcae3f68	-0.021270469
82	0x3b8fda4e	0.0043900376
83	0x3d21b5cf	0.039480027
84	0xbc24a3e4	-0.01004884
85	0xbb75a9b4	-0.0037485184
86	0x3c946650	0.018115193
87	0xbbd5653f	-0.0065123136
88	0x3ce49c18	0.027906463
89	0x3c88f552	0.01671854
90	0xbbd96c91	-0.0066352566
91	0x3c5c1113	0.013431805
92	0x3bdaa11a	0.006672037
93	0xbd012d8c	-0.031537578
94	0x3a8982ac	0.0010491214
95	0x3b888241	0.004165918
96	0x3c3139a7	0.010816968
97	0xbcc1dd09	-0.023664968
98	0xbb1e4bf3	-0.0024154156
99	0x3ba22302	0.004948021
100	0xbad2fff1	-0.0016098005
101	0x3c0b6cbc	0.008509811
102	0x3b801dd1	0.0039098044
103	0x3ce43bb7	0.027860506
104	0xbc24f05a	-0.01006707
105	0xbccbbc68	-0.024870113
106	0xbb910ce7	-0.004426587
107	0xbcb10fe0	-0.021614015
108	0xbc61914f	-0.013767554
109	0xbcb99649	-0.02265467
110	0x3a0f9fbc	0.00054788194
111	0xbc888501	-0.016664984
112	0xbcce5322	-0.025186125
113	0x3c81bf72	0.015838359
114	0x3c92a5ca	0.01790132
115	0xbc8032a6	-0.015649151
116	0x3c766ba1	0.015040309
117	0xbbbf5cc7	-0.0058399173
118	0x3a00b036	0.000490907
119	0xbc8c267d	-0.017108196
120	0xbcb52651	-0.022112997
121	0xbc09d1ee	-0.008411868
122	0x3b6d676b	0.0036224972
123	0x3a087cec	0.0005206603
124	0xbc4f5b00	-0.012655973
125	0x3c96797c	0.018368475
126	0x3c10c8eb	0.008836965
127	0xbc3837ab	-0.011243741
128	0xbbad7c95	-0.0052943924
129	0xb911f8ee	-0.00013921011
130	0xbc98bd2d	-0.018644894
131	0xbb0332dd	-0.002001933
132	0xbbfeac16	-0.007771979
133	0x3abd78ad	0.001445552
134	0xbc1431f2	-0.009045111
135	0x3d29f40d	0.04149251
136	0x3ca1125c	0.019662075
137	0xbcd72475	-0.026262501
138	0xbc790b49	-0.0152004445
139	0x3b00af77	0.0019635835
140	0xbc92d6ed	-0.01792475
141	0xbc9ccde0	-0.019141138
142	0x3b3dab1a	0.0028941096
143	0xbc3a0b23	-0.011355194
144	0x3a54bccf	0.0008115293
145	0x3cb80638	0.022463903
146	0xba86464b	-0.0010244338
147	0xbadcfcbd	-0.001685999
148	0x3ccd20a3	0.025039976
149	0xbc8ae55c	-0.01695507
150	0xbb51bdd5	-0.0032004018
151	0x3c53b044	0.012920443
152	0xbc0fd46e	-0.0087786745
153	0xbc08b2df	-0.008343427
154	0x3b7a69e3	0.0038210086
155	0x3ce2ec21	0.027700486
156	0xbc45c5a7	-0.01207105
157	0xbc21c471	-0.009873495
158	0xbc8c0b06	-0.0170951
159	0xbcb4c4cd	-0.022066498
160	0x3bb8f4b2	0.0056444043
161	0xbc884994	-0.016636647
162	0x3a40d0fc	0.000735536
163	0x3cfff37e	0.031244036
164	0x3bc97373	0.006147796
165	0xbcd3926f	-0.02582666
166	0xbcc90177	-0.024536831
167	0xbbc5bfc9	-0.0060348255
168	0x3b8b6111	0.0042535146
169	0xbc052ccc	-0.008128356
170	0x3d883833	0.06651344
171	0xbc0f24dd	-0.008736816
172	0xbd1474f6	-0.036244355
173	0x3c3df8b5	0.011594941
174	0x3b84ec91	0.004056521
175	0x3b58893b	0.003304078
176	0x3b3bd8eb	0.0028663229
177	0xbbc6c129	-0.006065507
178	0xbd2148e3	-0.03937615
179	0x39b83b35	0.00035139328
180	0x3c9d5139	0.019203769
181	0x3c5742f1	0.013138519
182	0xbd1a194d	-0.037621785
183	0xbbd04898	-0.00635631
184	0x3bccc7a6	0.006249386
185	0x3c018e37	0.007907442
186	0xbcbf9481	-0.023386242
187	0x3c3772ce	0.011196805
188	0xbb803859	-0.003912967
189	0xbcbaace8	-0.022787526
190	0xbcb6758a	-0.022272844
191	0x3bbede2b	0.0058248243
192	0x3bbb2710	0.0057114437
193	0xbd06fa58	-0.03295359
194	0xbcd80243	-0.026368266
195	0xbc2b3466	-0.0104495045
196	0x3cb660d2	0.022262964
197	0x3b587bd1	0.0033032785
198	0xbb39147d	-0.0028240972
199	0x3c865caf	0.016401617
200	0x3c8f6f8f	0.01750925
201	0x3a8c47ec	0.0010702587
202	0xbc137340	-0.008999646
203	0xbc4fd0b0	-0.012684032
204	0x3c563720	0.013074666
205	0xbccc5602	-0.024943355
206	0xbcd0729f	-0.02544528
207	0xbc954bea	-0.018224675
208	0xbb3a96a6	-0.002847114
209	0x3a2a5e08	0.0006498997
210	0x3b8985d1	0.0041968604
211	0xbc75b984	-0.014997844
212	0xbcec806c	-0.02886983
213	0xbcc42f1a	-0.023948241
214	0xbd01ecb9	-0.031719897
215	0xbc2ba1e0	-0.010475606
216	0xbcc46715	-0.023974935
217	0xbc88a58d	-0.016680503
218	0x3d2e78ff	0.04259586
219	0xbca89c49	-0.020582335
220	0xbc6618c8	-0.014043994
221	0x3c9a9186	0.01886822
222	0xbcd19ddd	-0.02558797
223	0xbca46728	-0.02006872
224	0x3d8bfd1f	0.068353884
225	0xbc8c4782	-0.017123941
226	0xbced1300	-0.028939724
227	0x3c953ef3	0.018218493
228	0x3d687eeb	0.056761663
229	0xb9ffc950	-0.0004878738
230	0xbcdfd4e8	-0.027323201
231	0x3d20541c	0.039142713
232	0x3cc55f46	0.024093281
233	0xbd1e1d43	-0.038602125
234	0x3bc26521	0.0059324657
235	0xbcead1e7	-0.028664542
236	0x3c356c25	0.011073147
237	0xbccd13a0	-0.025033772
238	0xbd1a735b	-0.037707668
239	0x3b54203e	0.003236785
240	0xbcb1f41e	-0.02172285
241	0xbc2ff7cc	-0.010740232
242	0x3c62d790	0.013845339
243	0xbd2d7149	-0.042344365
244	0xbd2da056	-0.042389236
245	0xbc2787f7	-0.010225288
246	0xbd0e1c6f	-0.034695085
247	0xbcbe76f9	-0.02325009
248	0xbc4965f7	-0.012292377
249	0x3bd74eaa	0.006570657
250	0x3cbb5280	0.022866488
251	0xbd1e5902	-0.038659103
252	0xbcc84f05	-0.024451742
253	0xbcbb3861	-0.022854032
254	0xbc83dc24	-0.016096182
255	0xbc79ab7b	-0.015238638
