keras/npy_weights/Block17_10_Branch_0_Conv2d_1x1_kernel.npy (npy, 458880 bytes, 1 tensors)

array f4 [1, 1, 896, 128]
000000 30 e5 ad b9 9d 59 0c 39 f1 23 57 3a d3 51 dd ba
       -0.0003316789 0.00013384824 0.0008206955 -0.0016885347
000010 ae 42 85 b9 ca b8 a4 39 7c 61 c7 39 79 d2 14 38
       -0.00025417417 0.00031418196 0.0003802887 3.5481968e-05
000020 4c f7 2e 39 97 02 59 3a 1e dd d2 39 f0 cf 61 39
       0.00016686058 0.0008278279 0.00040219066 0.00021535135
000030 00 4a 0b 3b 82 0e f5 39 3b 55 91 39 6f 38 32 b7
       0.0021253824 0.0004674085 0.00027720057 -1.0622766e-05
000040 3b 71 07 39 c2 26 b2 3a 4e 9f ac 3a 4a e2 cc ba
       0.00012916785 0.0013591873 0.0013170035 -0.0015631404
000050 8e e1 cd b8 0d 3b 86 ba 3d 65 47 ba 69 9a 1d b8
       -9.8171746e-05 -0.0010240987 -0.0007606333 -3.7575523e-05
000060 34 e0 42 3a fa 4b 23 39 ad d5 51 39 78 55 6a 3a
       0.00074339216 0.00015573195 0.00020011394 0.00089391274
000070 c6 d6 88 3a bc 3c 0e 3a 86 2f a2 39 ed 48 0a ba
       0.0010439984 0.000542592 0.00030934456 -0.0005275149
000080 ae 85 9f 3a c1 61 1b ba 61 ad 40 3a 04 5b 38 ba
       0.0012170577 -0.0005927347 0.0007350054 -0.00070326054
000090 10 fe 1f 3a 2c f3 bc 38 18 82 a8 ba 73 93 16 3b
       0.0006103227 9.009833e-05 -0.0012856154 0.002297607
0000a0 f7 2b 61 3a 24 96 11 b9 1a f1 5d 3a 2f d2 ab 3a
       0.000858962 -0.0001388421 0.0008466408 0.0013108904
0000b0 6f b8 20 ba c7 4a dc 39 2f fd 8f 39 b9 72 3b 39
       -0.00061309984 0.00042017383 0.00027463722 0.00017876447
0000c0 3d d2 a1 39 62 2e 23 b9 6c 69 bf 3a bf 4b 33 39
       0.00030864953 -0.0001556217 0.0014603562 0.00017098988
0000d0 da 8b 0c 3b 33 8f 3e 3a e1 f8 75 3a 59 08 98 b8
       0.0021445663 0.0007269263 0.0009383094 -7.24948e-05
0000e0 60 d0 84 3a 2e 40 6f 39 18 d0 f5 3a 25 84 d2 b9
       0.0010132901 0.00022816725 0.0018754033 -0.00040152777
0000f0 c9 38 b9 ba 54 3c 4a 3a 88 b9 60 ba 5d 95 94 ba
       -0.0014131303 0.0007714678 -0.0008572568 -0.0011336018
000100 81 b9 9b 39 65 d6 d2 39 f6 de 69 ba 1b 33 da b8
       0.00029702115 0.00040214058 -0.00089214684 -0.00010404569
000110 04 fc fc b9 f1 47 34 39 36 dc 5e 3a 7b 44 d4 39
       -0.00048252952 0.00017192938 0.0008501442 0.00040486813
000120 91 88 83 ba 72 c2 4a 3a 51 8d e5 3a 27 af b8 39
       -0.0010035207 0.0007734663 0.0017513429 0.00035225714
000130 45 de d7 3a c9 8e 45 b9 e2 a6 97 3a 1e 6b 07 3a
       0.001646944 -0.00018840576 0.0011570121 0.0005165803
000140 39 bc 83 b8 2e bc e4 ba 21 11 d7 39 21 a2 0d 3a
       -6.281626e-05 -0.0017451101 0.00041020758 0.0005402882
000150 b8 34 b3 39 cb 89 5d 3a 50 0d 02 bb 51 84 df 39
       0.0003418082 0.0008451014 -0.001984436 0.00042632458
000160 45 76 37 39 9c 06 68 3a 5e 58 44 3a 7e a6 43 3a
       0.00017496299 0.00088510825 0.00074899744 0.0007463469
000170 25 3b 3b 3a f8 6a a6 ba ea 1b 0e bb 3f b2 a2 38
       0.0007142297 -0.0012696674 -0.0021684119 7.757963e-05
000180 55 73 56 b8 3f d5 3c 39 46 2b fc 39 af e7 8c 39
       -5.1128987e-05 0.00018008518 0.00048097427 0.000268755
000190 d9 09 08 ba 29 92 10 ba 13 43 d5 39 4a 9a 95 3a
       -0.00051894557 -0.00055149436 0.000406765 0.001141378
0001a0 78 ee e3 38 69 d2 09 b8 d0 6d 9b b9 35 7d 9e ba
       0.00010868622 -3.2859305e-05 -0.0002964572 -0.0012091758
0001b0 51 30 c7 b9 fe bf 39 3a 47 c9 dd b8 ae 04 91 39
       -0.00037992236 0.0007085799 -0.00010575592 0.00027660042
0001c0 6e 61 84 ba 22 40 08 3a 69 c7 12 3a 61 b5 18 3b
       -0.0010099837 0.0005197545 0.00055991724 0.002330147
0001d0 cf df 0e 3a f9 13 43 b9 98 3b a2 3a eb 57 f8 3a
       0.000545022 -0.0001860409 0.001237738 0.00189471
0001e0 cd 51 31 3a 28 3d 38 39 0f 10 2a b9 44 c2 bc b9
       0.00067642034 0.0001757039 -0.00016218446 -0.00036002893
0001f0 42 8e c1 b9 28 a9 e7 3a de cc 40 3a 78 96 91 39
       -0.0003691782 0.0017674314 0.00073547463 0.00027768663
000200 d7 ea ee b8 b3 3a 25 ba a3 7c f4 b9 a6 cf 0b b9
       -0.00011392467 -0.00063029974 -0.00046632168 -0.00013333428
000210 00 c2 0b 3a 1e 32 d0 39 dd 50 cb b9 d6 93 db 38
       0.00053313375 0.00039710192 -0.00038779425 0.0001047027
000220 64 16 e1 b9 7d 44 96 39 d9 24 df 39 9b b9 7f 39
       -0.00042932027 0.00028661257 0.00042561328 0.00024387838
000230 64 38 7b 3a c1 f2 a8 ba 35 e2 69 ba 7b d5 12 ba
       0.0009583293 -0.0012889729 -0.0008921952 -0.0005601269
000240 df e9 f1 39 0a 0f 0b 3a 74 7c e4 38 74 18 07 3b
       0.0004614135 0.000530467 0.000108950684 0.002061394
000250 da 84 14 b9 96 17 0e 3b 08 f6 63 3a f5 4a ac 39
       -0.00014163871 0.0021681539 0.00086960243 0.00032862244
000260 12 e1 b5 39 37 f1 59 bb 3f e0 83 ba 0e da e3 38
       0.000346907 -0.0033255348 -0.0010061337 0.00010864819
000270 dd 87 c8 ba 6e 7c 71 b8 1e 53 5b 39 59 8e 88 ba
       -0.001529928 -5.757476e-05 0.00020916431 -0.00104184
000280 21 38 12 bb c4 4a f8 b8 cc 5e b6 b9 de 35 d7 3a
       -0.0022311287 -0.00011839488 -0.00034784374 0.0016419252
000290 d2 9b a8 39 8b 51 0d 3a 6a ea d0 39 ce 5b de 3a
       0.00032159552 0.0005390874 0.00039847504 0.0016964616
0002a0 7a e0 08 ba 03 45 6f 3a dd a8 a2 3a 0c cb a0 3a
       -0.0005221438 0.000912741 0.0012409944 0.0012267544
0002b0 8a 62 20 3a 3f 6f 0b 39 73 d5 9f 37 02 07 5c ba
       0.0006118199 0.00013297515 1.9053672e-05 -0.0008393378
0002c0 42 35 eb 39 51 49 5e 3a 11 38 44 3b 61 98 a5 b8
       0.00044862373 0.0008479553 0.0029940645 -7.896196e-05
0002d0 a3 35 7d 3a 42 f2 4f 39 6b 8f fa b7 02 27 cd b9
       0.00096591766 0.00019831306 -2.9869107e-05 -0.0003912971
0002e0 1f 37 90 ba 93 bf 89 b9 7d d5 cb ba b7 ec cf 38
       -0.0011002755 -0.0002627341 -0.0015551295 9.914621e-05
0002f0 d6 7a 2c 38 4e b0 8b ba d9 bc 28 3a 96 62 ca 3a
       4.1122395e-05 -0.0010657401 0.0006436832 0.0015440758
000300 02 ac 36 ba 78 f9 6f 3a 53 67 cd 38 ee c9 62 ba
       -0.000696838 0.00091543 9.7944074e-05 -0.00086513057
000310 40 59 08 ba 51 66 fd b7 e2 8a 76 ba 20 c9 00 3a
       -0.00052012876 -3.0207595e-05 -0.00094048504 0.00049127825
000320 d9 68 2b 3a e4 1d f5 38 61 68 da 3a 6a 84 10 39
       0.0006538756 0.00011688078 0.0016663187 0.00013782238
000330 7c 6d cd 3a e3 a5 b0 39 06 5c 8a 38 ed 53 00 ba
       0.0015672888 0.0003369293 6.5974935e-05 -0.00048953184
000340 de e1 c1 b8 67 da 51 3a 58 0b bc ba 31 e0 5d ba
       -9.245028e-05 0.0008005262 -0.0014346642 -0.0008463888
000350 f6 2b 51 3a 60 37 16 b9 dc 83 07 3b 70 c3 49 39
       0.0007979268 -0.00014325744 0.002067796 0.0001924166
000360 5c 1b 2a 3a e9 59 7d 38 9a be 38 38 f6 2f 19 ba
       0.0006489062 6.0403636e-05 4.404653e-05 -0.00058436336
000370 aa a7 12 ba 91 f7 31 3b 8a 12 3f 3a f4 3e ae 39
       -0.0005594442 0.0027155618 0.00072888343 0.0003323477
000380 6e 4a 59 3a 17 95 37 ba 56 8e 78 ba 14 b7 87 b9
       0.0008288984 -0.0007003112 -0.0009481659 -0.0002588561
000390 d3 90 08 b8 b5 72 85 3a 67 35 3d b9 b5 30 62 ba
       -3.2559805e-05 0.001018128 -0.00018044339 -0.0008628474
0003a0 cb ca aa b9 2a 86 36 3b 2d 23 9d 38 7e ea fe 3a
       -0.0003257602 0.0027850964 7.4928954e-05 0.0019448546
0003b0 e2 57 2c b9 e7 cf 43 b9 2f 63 91 ba 1f f8 e7 b9
       -0.00016435937 -0.00018674099 -0.0011092181 -0.00044244618
0003c0 5d 0c 4a 3b dd 0e d7 b9 46 3f 5c 38 e3 f4 66 38
       0.0030830123 -0.0004101907 5.2511015e-05 5.506434e-05
0003d0 a6 50 61 ba 4c ea bd 3a a9 c7 26 3b 3a 66 1a 3a
       -0.00085950864 0.0014489382 0.0025448597 0.0005889867
0003e0 fb ac 1d ba 8b 3f 1b ba 58 35 80 39 6e 81 6e b9
       -0.0006014851 -0.00059222494 0.00024453807 -0.00022745665
0003f0 47 84 2c 37 05 5d ba 3a b2 8b 84 ba 63 c6 72 39
       1.0282797e-05 0.0014218396 -0.0010112433 0.00023152823
