keras/npy_weights/Block35_4_Branch_1_Conv2d_0b_3x3_kernel.npy (npy, 36992 bytes, 1 tensors)

array f4 [3, 3, 32, 32]
0.0016724782 0.007067421 0.0014977591 0.0027949575 -0.0007389461 0.017440531 0.0029212749 -0.007301888
0.0019807303 0.015175534 0.0009419556 -0.00034048257 -0.014931842 -0.006567203 0.004898444 0.013411657
0.01171853 -3.567888e-05 0.0069254157 -0.004128993 -0.0028721115 0.011867927 0.0024831374 0.0053902227
-0.007088139 0.0028565582 0.0006445652 0.009089571 0.0071204896 -0.00495106 0.005025231 0.00015006619
0.016631853 -0.0056831795 -0.006664595 0.011408618 0.0092007285 0.009314665 0.010523725 0.016767755
-0.0140621625 0.0007085087 0.0005188017 -0.0013238358 -0.0034117247 -0.01237555 -0.008932683 -0.0036680892
-0.010909879 0.004813091 0.0007299224 0.015988342 0.02374713 -0.0038257297 0.008941767 -0.0021084372
0.002785502 -0.01190202 -0.007686135 0.008421476 0.0064512677 0.010826655 -0.004204724 0.016417408
0.003252217 0.0046809264 -0.0021743337 -0.004221645 0.01426904 -0.0040449146 0.00096810644 -0.013172395
-0.021871824 -0.007882575 -0.012925837 0.00769958 0.005365018 0.0039395904 -0.0023983282 -0.011143087
0.014862845 -0.0016856499 -0.0070250914 0.00029702525 -0.019635903 -0.008981021 0.032375067 -0.022278627
-0.008612281 0.0054897703 -0.015516548 9.114274e-05 0.014732144 0.02763868 0.0034457943 0.0048401165
0.0022945993 -0.0021641525 -0.0006741618 -0.005667731 -0.032840736 -0.013087993 -0.00030231493 -0.006460696
0.008312739 -0.02293314 -0.013924315 0.009125752 0.006187793 0.034755785 0.006266482 0.0008787234
-0.0026354988 0.00075461605 0.0018603569 0.004414054 0.007815592 -0.00602111 -0.043569922 -0.0019469133
-0.002724744 0.003780372 0.0011594453 0.019611524 0.006783958 0.007944073 0.013880683 0.004099619
-0.0027477234 -0.008545607 -0.012570826 0.011610723 -0.004987526 -0.014644055 0.018795889 -0.0035379238
-0.0017377024 -0.01881972 -0.012377473 -0.014415526 0.0023552747 -0.014683169 0.013379313 -0.009255597
-0.011266981 -0.015419738 -0.0052436595 -0.013333713 0.014719427 -0.014458519 -0.0039105373 -0.0059057698
-0.009847882 0.027820876 -0.00044449655 -0.0024231554 -0.0010310682 -0.01962274 0.003182363 -0.0032867857
-0.030158699 -0.028384807 0.006693734 0.012010724 0.028103162 -0.0016098004 -0.010147379 0.0073924293
-0.029407792 -0.008961244 -0.016206069 -0.0022401982 0.010947861 -0.015906515 -0.006043488 0.017742027
0.0098718535 -0.0011242059 0.0139984 -0.028711684 -0.0110734245 -0.0051151724 0.0030796863 0.010454838
-0.01216292 0.0044620065 -0.00053876435 -0.02481808 0.024389973 -0.0057269563 -0.011746904 0.0010308465
0.0026383153 0.00836078 -0.02047818 0.0049128113 0.00522219 -0.0029274605 -0.015728 0.0026656308
-0.025114987 0.015564519 0.0025971509 -0.0066662678 -0.020564128 -0.00065409264 0.0003021782 0.01814471
-0.018535323 0.009731342 -0.015853534 0.0044346587 -0.009885144 0.009801968 0.008143911 0.005372837
-0.0007885421 -0.0036545494 -0.0066706715 0.008583602 -0.0016079611 -0.013067693 0.011274389 -0.0016415797
0.0037063446 0.012631046 0.0040335855 -0.019599857 0.00970571 0.00066131813 0.0090077575 0.007486404
0.007510109 -0.004330801 0.0025365758 -0.0023222347 -0.008586854 0.012777837 -0.024652826 0.0034763748
-0.0019089488 -0.030653395 0.0016103918 0.007236483 0.027145095 0.005734139 0.00014751678 -0.014039038
-0.012781914 -0.004534105 -0.01907342 -0.019061826 -0.0027235213 0.0063371155 0.0069560893 -0.0066612256
00000000: 0e37 db3a d395 e73b 7550 c43a 9b2b 373b
00000010: d5b5 41ba 72df 8e3c dc72 3f3b ad44 efbb
00000020: 24cf 013b cea2 783c 92ed 763a cc82 b2b9
00000030: afa4 74bc b131 d7bb 2083 a03b 91bc 5b3c
00000040: 14ff 3f3c e8a5 15b8 99ee e23b 814c 87bb
00000050: 093a 3cbb b271 423c 22bc 223b 77a0 b03b
00000060: 9f43 e8bb 1835 3b3b 0af8 283a 6dec 143c
00000070: ff52 e93b 803c a2bb b1aa a43b 165b 1d39
00000080: 863f 883c f739 babb ad62 dabb 36eb 3a3c
00000090: a7be 163c 899c 183c b46b 2c3c 885c 893c
000000a0: fc64 66bc 37bb 393a 3100 083a 8f84 adba
000000b0: 3e97 5fbb d2c2 4abc 635a 12bc 5364 70bb
000000c0: 59bf 32bc 22b7 9d3b 4358 3f3a fcf9 823c
000000d0: 5789 c23c 18b9 7abb 7d80 123c b52d 0abb
000000e0: f88c 363b b100 43bc f9db fbbb 3bfa 093c
000000f0: 2865 d33b 4862 313c c8c7 89bb cd7d 863c
00000100: 2623 553b 7562 993b 447f 0ebb ba55 8abb
00000110: b1c8 693c 348b 84bb 86c8 7d3a 07d1 57bc
00000120: 8a2c b3bc ea25 01bc e4c6 53bc c24c fc3b
00000130: 08cd af3b ae17 813b 452d 1dbb 7f91 36bc
00000140: 4a83 733c 06f1 dcba bd32 e6bb 0eba 9b39
00000150: 79db a0bc 2225 13bc b89b 043d ab81 b6bc
00000160: 861a 0dbc 88e3 b33b 1f39 7ebc e323 bf38
00000170: 175f 713c 836a e23c d6d2 613b d799 9e3b
00000180: fd60 163b 74d4 0dbb 3cba 30ba 60b8 b9bb
00000190: 0284 06bd 056f 56bc 0680 9eb9 3fb4 d3bb
000001a0: 2832 083c 48de bbbc cf22 64bc 2e84 153c
000001b0: f8c2 ca3b 155c 0e3d 1057 cd3b 215a 663a
000001c0: 55b8 2cbb 6dd1 453a 38d7 f33a c5a3 903b
000001d0: f80c 003c bb4c c5bb 6076 32bd 922f ffba
000001e0: 9e91 32bb 1ec0 773b 87f8 973a 59a8 a03c
000001f0: f74b de3b db27 023c ce6b 633c 1956 863b
00000200: 2613 34bb e002 0cbc def5 4dbc e73a 3e3c
00000210: 676e a3bb 9eed 6fbc d6f9 993c 83dc 67bb
00000220: 9ec3 e3ba d02b 9abc e2ca 4abc 192f 6cbc
00000230: f45a 1a3b ad91 70bc e834 5b3c caa4 17bc
00000240: 2599 38bc 12a3 7cbc 01d3 abbb a575 5abc
00000250: c029 713c 6de3 6cbc f723 80bb 3085 c1bb
00000260: 0359 21bc 9be8 e33c 510b e9b9 cdcd 1ebb
00000270: e824 87ba debf a0bc 318f 503b 1d67 57bb
00000280: 600f f7bc 4187 e8bc 1c57 db3b a1c8 443c
00000290: 9a38 e63c f0ff d2ba 3141 26bc 313c f23b
000002a0: 9ce8 f0bc 2ed2 12bc 97c2 84bc 4ad0 12bb
000002b0: a85e 333c 614e 82bc 7408 c6bb ba57 913c
000002c0: 8ebd 213c 175a 93ba 8c59 653c c434 ebbc
000002d0: 4f6d 35bc 2d9d a7bb 90d4 493b c54a 2b3c
000002e0: fc46 47bc 0636 923b dd3b 0dba 494f cbbc
000002f0: 7bcd c73c 31a9 bbbb 1676 40bc 781d 873a
00000300: 96e7 2c3b a7fb 083c dbc1 a7bc a6fb a03b
00000310: e81e ab3b a3da 3fbb 02d8 80bc ddb1 2e3b
00000320: f2bd cdbc 5302 7f3c f634 2a3b b570 dabb
00000330: 1a76 a8bc 6a77 2bba ac6d 9e39 37a4 943c
00000340: 64d7 97bc 3570 1f3c 45df 81bc 9d50 913b
00000350: 4df5 21bc 6f98 203c 0a6e 053c a00e b03b
00000360: 2ab6 4eba 2a81 6fbb a695 dabb 3ca2 0c3c
00000370: 39c2 d2ba e119 56bc 37b8 383c 462a d7ba
00000380: 25e6 723b 72f2 4e3c 2b2c 843b e18f a0bc
00000390: b304 1f3c 4f5c 2d3a 4695 133c 8250 f53b
000003a0: 5c17 f63b 64e9 8dbb ae3c 263b a230 18bb
000003b0: e0af 0cbc 225a 513c b9f4 c9bc e4d3 633b
000003c0: b135 faba d41c fbbc c813 d33a 0520 ed3b
000003d0: 645f de3c 72e5 bb3b bcae 1a39 fe03 66bc
000003e0: 3c6b 51bc d492 94bb dc3f 9cbc 8c27 9cbc
000003f0: 1b7d 32bb 94a7 cf3b e8ef e33b 6946 dabb
