keras/npy_weights/Block17_3_Branch_1_Conv2d_0b_1x7_kernel.npy (npy, 458880 bytes, 1 tensors)

array f4 [1, 7, 128, 128]
0	0xbba81add	-0.0051301555
1	0xbc21a416	-0.009865781
2	0x3ba16bbe	0.004926174
3	0x3b267789	0.0025400838
4	0xbc013812	-0.007886903
5	0x3b007ecb	0.0019606824
6	0xbbcec5c2	-0.0063101957
7	0xbab87f15	-0.0014075959
8	0xbad8005a	-0.0016479597
9	0x3ba747a3	0.0051049753
10	0x38849e90	6.323785e-05
11	0x3c37c34c	0.011215996
12	0xbc34ad21	-0.011027605
13	0xbb862ab6	-0.004094447
14	0xbb5e8dc8	-0.003395902
15	0xbb189435	-0.0023281698
16	0x3b82eb4f	0.003995336
17	0x3a0acc7c	0.0005294753
18	0x3b022b78	0.0019862335
19	0x3c21c370	0.009873256
20	0xbbe1ae21	-0.006887213
21	0x3c187728	0.009305753
22	0x3bbd8892	0.0057841027
23	0x3c36eacc	0.011164378
24	0x3c1415f3	0.009038436
25	0xbc03137c	-0.008000251
26	0x3b56eabf	0.0032793728
27	0xbc4e3edb	-0.012588228
28	0x3a2569e6	0.00063100306
29	0xbbc72155	-0.0060769715
30	0xb9b95199	-0.00035346745
31	0x3a5ca083	0.0008416252
32	0xbb212c4e	-0.0024593058
33	0x3b06e0d2	0.002058078
34	0x3c2b2a26	0.010447061
35	0xbad16ddf	-0.0015978179
36	0xbb1f8b90	-0.002434466
37	0xbaf2395a	-0.0018480227
38	0xbbf9c301	-0.007622123
39	0x3bc06fd2	0.005872705
40	0xbc111495	-0.008855005
41	0x3c575dd1	0.013144926
42	0x3ac580bf	0.0015068277
43	0xbbd8917e	-0.006609141
44	0xbc04aaf9	-0.008097404
45	0xbbbba6db	-0.005726678
46	0x3bf768f3	0.0075503527
47	0xbb6f0f98	-0.00364778
48	0x3ba16d09	0.004926328
49	0xbbb8f583	-0.0056445017
50	0xbc307c73	-0.0107718585
51	0xbc2843ae	-0.010270042
52	0x3b0233b2	0.0019867239
53	0x3b674d6d	0.0035293952
54	0xbbc0c01f	-0.0058822776
55	0xba4cc135	-0.00078107725
56	0x3bb065c2	0.005383224
57	0xbc004746	-0.007829493
58	0xba71fc84	-0.0009231048
59	0x3ab755b9	0.0013987339
60	0x3c03d500	0.008046389
61	0x3b9a8f92	0.004716822
62	0x3b33fc16	0.0027463487
63	0x3bbfa315	0.0058482983
64	0x3bc34600	0.0059592724
65	0xbbe0d159	-0.0068608937
66	0xbc0425c4	-0.008065645
67	0xbb4a75e1	-0.0030893015
68	0xbc475afc	-0.012167688
69	0xba2adc6d	-0.00065178314
70	0xbb2c4370	-0.0026285313
71	0xbbdcd620	-0.006739393
72	0x3b47e3fd	0.0030500882
73	0xbb0cc5d2	-0.0021480215
74	0x3b9515c9	0.004549716
75	0xbbee3555	-0.0072695413
76	0x3b8ada69	0.0042374623
77	0xbc137401	-0.008999825
78	0x3beeacc0	0.007283777
79	0x3c433759	0.011915051
80	0xbc3fe6c5	-0.011712735
81	0x3bacb244	0.0052702744
82	0xbb9bc6a0	-0.0047539026
83	0xbb3102d6	-0.0027009747
84	0xbbfcce2c	-0.0077150073
85	0xbbc59538	-0.006029751
86	0x390b016b	0.00013256601
87	0xbaf2fd24	-0.0018538577
88	0x3bf3a2a0	0.007435158
89	0xbacbdbd1	-0.0015553181
90	0x3ab8b2a6	0.0014091327
91	0xba67a557	-0.0008836588
92	0xbbb6d933	-0.0055800914
93	0xbb7f47b3	-0.0038952648
94	0xba419404	-0.0007384422
95	0xbb1b7fbf	-0.0023727266
96	0x3be9f41b	0.0071396953
97	0x3bf35659	0.007426065
98	0xbaadbcef	-0.0013255159
99	0xba6e199e	-0.0009082797
100	0xbb7c73c1	-0.0038521143
101	0x3b7a3de5	0.0038183865
102	0x36c1563e	5.761888e-06
103	0x3c0a4964	0.008440349
104	0xbb0872e5	-0.0020820436
105	0xbbd5842a	-0.0065159993
106	0xba0afeae	-0.00053022325
107	0xbb089ac5	-0.0020844203
108	0xbb62f1e8	-0.003462905
109	0x39c6c666	0.0003791332
110	0xbc47e0a3	-0.012199554
111	0xbc3d35b9	-0.011548453
112	0x3bcba19f	0.006214335
113	0xbb99dddd	-0.0046956376
114	0x3aaec0e5	0.0013332634
115	0xbc26f2da	-0.010189736
116	0xba5a0383	-0.00083165633
117	0x3bb7ae58	0.0056055
118	0x3bfbb944	0.0076819975
119	0x3b833707	0.0040043625
120	0x39c781b9	0.0003805289
121	0xbb675949	-0.003530102
122	0x3b883c5d	0.0041575865
123	0xbbff2133	-0.00778594
124	0x3bd193e6	0.0063958047
125	0xbbe6e29d	-0.0070460574
126	0xbc01ec2e	-0.007929845
127	0xbc058657	-0.008149705
128	0xbb08c7d7	-0.0020871067
129	0x3c0033ad	0.0078248205
130	0x3c11ef1e	0.008907108
131	0x3ab6c40d	0.0013943926
132	0xbc6c4930	-0.014421746
133	0xba955016	-0.0011391665
134	0x3ae5c49a	0.0017529905
135	0x3c42843d	0.011872348
136	0x3b636572	0.0034697917
137	0xbb917b04	-0.0044397134
138	0xbc22bf85	-0.009933357
139	0x3969f421	0.00022311557
140	0x3a7e4b4d	0.0009700552
141	0x3b51987d	0.003198176
142	0xbc844678	-0.016146883
143	0x3b87b596	0.00414152
144	0x3b5c1f19	0.0033587872
145	0xbb34e7ad	-0.002760391
146	0xbbf0000e	-0.0073242253
147	0xba9a3a72	-0.0011766686
148	0xbb4325f8	-0.002977727
149	0xbb2e7b97	-0.0026623958
150	0xbb48b250	-0.003062386
151	0x3aa572d2	0.001262272
152	0x3aeee720	0.001822684
153	0x3bd0244b	0.0063519827
154	0xbcade1d1	-0.021225842
155	0x3a098079	0.0005245279
156	0xbc6c99f9	-0.014441007
157	0x3bd67048	0.0065441467
158	0xb8aca73c	-8.232749e-05
159	0xbb9180bf	-0.0044403966
160	0xbbf17fa8	-0.007369954
161	0x3adfdb31	0.0017078874
162	0x3c279e77	0.010230652
163	0x3bababdb	0.0052389926
164	0x3c442130	0.011970803
165	0xbafd490d	-0.0019324139
166	0x3c157469	0.009121993
167	0xba52ca33	-0.0008040994
168	0xbb6e7452	-0.003638525
169	0xb839ebfa	-4.4327207e-05
170	0x3abbecf7	0.0014337589
171	0x3bb47afb	0.0055078245
172	0x3b1862c5	0.002325223
173	0x3b5d63c1	0.0033781382
174	0x390daac4	0.00013510423
175	0xbbb0bbba	-0.0053934725
176	0xb92f7eaa	-0.00016736487
177	0xbb578d1b	-0.0032890502
178	0xbb82a643	-0.003987105
179	0xbbec6e91	-0.007215329
180	0xbb2a455b	-0.002598128
181	0xbc0cdb62	-0.008597227
182	0xbb91f01b	-0.0044536716
183	0xbab2e338	-0.0013648039
184	0x3b1f21e2	0.002428167
185	0x3c1f1dbc	0.009711679
186	0x3bfe2c10	0.0077567175
187	0xbabd4d52	-0.0014442599
188	0xbafcd821	-0.0019290486
189	0x3afe921a	0.0019422204
190	0x3b05ec0f	0.0020434891
191	0x3b251854	0.0025191503
192	0x3b1182e3	0.0022203259
193	0xbc1e256a	-0.009652475
194	0x3aab1aef	0.0013054291
195	0x3b0e1725	0.0021681276
196	0x3a9e234f	0.0012064966
197	0x3b417293	0.0029517754
198	0xbb1edb77	-0.0024239698
199	0xbb8506cc	-0.004059648
200	0x3b70ad46	0.0036724373
201	0x3b2a0640	0.0025943667
202	0x3b241750	0.002503831
203	0x3acf659b	0.0015823127
204	0xbaefd480	-0.0018297583
205	0x3be8c51b	0.007103575
206	0x3b9f7d28	0.0048672147
207	0xbafae8f7	-0.0019142915
208	0x3a61fe18	0.0008620932
209	0x3bf1f42e	0.007383845
210	0x3a519a76	0.0007995734
211	0xbc223223	-0.009899649
212	0x3b0aa3d0	0.0021154769
213	0xbb560cbd	-0.0032661401
214	0x3c2673de	0.010159461
215	0x3bc16f8f	0.0059031914
216	0x3c166b31	0.00918083
217	0xbbf4412f	-0.0074540596
218	0xbb6b56fa	-0.0035909996
219	0xbc6f908a	-0.014621863
220	0x3ae61733	0.0017554521
221	0xbb9c14ca	-0.0047632204
222	0xbc28b72b	-0.010297577
223	0x3c165020	0.009174377
224	0x3a9e2509	0.0012065481
225	0x3b9e7a2d	0.004836342
226	0x3b651021	0.003495224
227	0x3b037d57	0.0020063722
228	0x3af4aeba	0.0018667795
229	0xba92497a	-0.0011160814
230	0xbabaeff9	-0.0014262191
231	0x3babf74c	0.005247986
232	0x3c08a02a	0.008338967
233	0x3b1bca2d	0.002377163
234	0xbc1d30b1	-0.0095941285
235	0x39fb75fe	0.00047962362
236	0xbc223cda	-0.009902203
237	0x3bd9fd01	0.006652475
238	0x3acae545	0.0015479705
239	0xbc5c6efb	-0.013454194
240	0xbb954d0d	-0.0045563043
241	0x3b00f29b	0.0019675854
242	0x3a84efe5	0.0010142295
243	0xbbd581c7	-0.006515715
244	0x3af29828	0.0018508481
245	0x3c0816c5	0.00830621
246	0xbb2e4b47	-0.0026595162
247	0xbb630a56	-0.0034643612
248	0x3a2f5bb1	0.00066893833
249	0x3bf63bb0	0.0075144395
250	0xbb63df6a	-0.0034770616
251	0xbba352d1	-0.0049842377
252	0xbb7038cb	-0.0036654945
253	0xbc60f4d0	-0.013730243
254	0xbba13f3d	-0.0049208687
255	0xbc7552e7	-0.014973379
