keras/npy_weights/Block8_4_Branch_1_Conv2d_0c_3x1_kernel.npy (npy, 442496 bytes, 1 tensors)

array f4 [3, 1, 192, 192]
-0.0055463947 -0.0006287296 -0.008159119 -0.010771356 -0.004947157 0.002521337 -0.0071249595 0.005877097
0.0023802356 0.0011033601 -0.0069463504 0.0025310763 -0.00967405 -0.007705905 -0.00010100689 -0.00981876
0.002748225 0.001994566 -0.0017233841 -0.0015357261 -0.0010507875 -0.0103670545 -0.0034121724 0.0042989254
-0.004264737 -0.0043625515 -0.006161642 -0.004370495 -0.0047325357 0.0032603734 -0.0019806689 0.0015346743
0.0033980242 -0.007843954 0.0021187686 0.0009993274 -0.0051024696 -0.0033358536 0.0027815297 -0.005731007
0.0027208226 0.0019489267 -0.010002934 -0.009323045 0.010547846 -0.0012497839 -0.00082730164 -0.0033879871
-0.0011673145 -0.0003809422 -0.0034069058 0.0008730022 -0.008106715 -0.002174459 0.0025213312 -0.004653536
0.008600175 0.0053575835 -0.0013490097 -0.0035312262 -0.00870789 -0.00086748914 0.0015929241 -0.0055727353
-0.0034935074 0.0006307185 0.0017915067 -0.0068400768 -0.008328679 -0.00016442791 0.0020412384 -0.0020302401
-0.0049890853 0.0013253365 0.00068725523 -0.008995169 -0.0058468673 -0.007999861 -0.0061502126 0.00018703623
0.00033298467 -0.0043234564 0.00024109085 0.009082212 -0.0016869425 -0.008221071 -0.0026097347 0.0043357424
-0.007142968 0.004193775 -0.0071541513 0.0026713412 0.0004613134 -0.0045740223 0.0049288804 -0.007921228
0.00021668819 -0.00092798827 -0.010220003 -0.0043861317 0.009003536 -0.0034385389 -0.002312316 0.0005900142
-0.002456818 -0.0004702634 -0.006488148 -0.0034583886 0.002792846 -0.0027349235 -0.0039134854 -0.0065994263
-0.007127203 0.0025038552 -0.008421092 -0.0036112028 -0.00034698212 -0.00036373944 -0.0052060382 -0.0036604935
-0.00019173989 -0.003309318 0.0021042598 -0.0014805103 -0.0067322347 -0.0030703899 -0.0002486403 -0.0033466574
-0.0013999265 0.0011579954 0.009187395 0.0013126797 0.0007378765 -0.0010997148 -0.00220612 -0.008566739
-0.0010137676 -0.007178199 0.007343926 0.00026169827 -0.0029920356 -0.009883706 0.008518517 0.0044302708
-0.0067430385 -0.006533098 -0.002838417 -0.0015963312 -0.0036129223 0.0020701212 0.0015221167 -0.0068669626
0.0003729825 5.1793995e-05 0.004408526 -0.0020451637 -0.0042621535 0.0011243368 -0.004513456 -0.00042452605
-0.00062591705 -0.008393381 -0.0039248187 -0.006025545 -0.0016584961 0.0017647562 -0.0016710625 -0.012005821
-0.005053985 0.0019716925 -0.0005808188 -0.0006093901 0.0068946118 0.000192339 -0.0064728237 0.0009105785
-0.0024495532 -0.001029264 -0.0024646404 -0.011976916 -0.007421202 0.008753496 0.00095189706 0.0006160111
0.00266027 -0.0043496597 0.0027561854 -0.0008945173 0.0019135199 0.0012812279 0.0030848852 -0.0044065965
0.002922694 0.0017730724 -0.008028878 0.005594129 0.0037928778 -0.0074693076 -0.00081799144 0.0021513605
0.004849753 -0.009406268 0.0003566011 -0.0034350918 -0.0006493706 0.00035016885 0.0012476044 0.001243515
-0.005849168 -0.003255519 -0.0086318 -0.0030460688 -0.0034433443 0.0008302593 -0.0013023955 -0.0024566704
0.0006960235 0.0059208344 -0.0077987006 -0.0069137854 0.003401535 -0.006776239 0.0038978378 -0.0022820232
-0.003679013 0.0070575234 -0.0010548178 0.00066474866 -0.0013649133 0.002542681 -0.005654716 -0.010515965
-0.007011695 -0.0032123618 -0.00051405677 0.004023495 -0.002248571 0.005141381 0.002698973 0.0015856521
-0.004741848 0.0032150308 -0.0015964202 -0.00043464356 -0.0031227237 0.0025730128 -0.008153448 -0.0010756698
-0.0010668149 0.001407918 0.0007336875 0.0016462896 0.0012200017 0.0014288292 -0.0054826676 0.0013635457
00000000: 88be b5bb 54d1 24ba d3ad 05bc 577a 30bc
00000010: c31b a2bb 043d 253b 7e78 e9bb aa94 c03b
00000020: bafd 1b3b 9f9e 903a 369e e3bb 6ae0 253b
00000030: e87f 1ebc d181 fcbb a9d3 d3b8 ddde 20bc
00000040: 901b 343b 44b7 023b 2de3 e1ba 6b4a c9ba
00000050: 94ba 89ba 94da 29bc c19e 5fbb 00de 8c3b
00000060: 35bf 8bbb bcf3 8ebb 99e7 c9bb 5f36 8fbb
00000070: 6313 9bbb fdab 553b 1cce 01bb 2027 c93a
00000080: 63b1 5e3b ed83 00bc 0adb 0a3b ddfb 823a
00000090: 9e32 a7bb 569e 5abb 534a 363b 2ccb bbbb
000000a0: d44f 323b 2173 ff3a 59e3 23bc afbf 18bc
000000b0: dfd0 2c3c cacf a3ba 46df 58ba fe08 5ebb
000000c0: 9300 99ba 32b9 c7b9 6546 5fbb 30da 643a
000000d0: 07d2 04bc 5e81 0ebb eb3c 253b b07c 98bb
000000e0: c0e7 0c3c ab8e af3b 41d1 b0ba 256c 67bb
000000f0: 8aab 0ebc 3668 63ba aac9 d03a 7e9b b6bb
00000100: 54f3 64bb cd56 253a fdd0 ea3a b922 e0bb
00000110: 0375 08bc 486a 2cb9 4cc6 053b c70d 05bb
00000120: 7b7b a3bb eab6 ad3a eb28 343a 7960 13bc
00000130: 1497 bfbb d911 03bc b987 c9bb 281f 4439
00000140: 7294 ae39 c8ab 8dbb 55cd 7c39 8fcd 143c
00000150: 661c ddba acb1 06bc 1508 2bbb d812 8e3b
00000160: 8f0f eabb ef6b 893b 5f6d eabb ab11 2f3b
00000170: 70dc f139 aee1 95bb 7282 a13b 0ac8 01bc
00000180: cb36 6339 3d44 73ba cd71 27bc 8ab9 8fbb
00000190: 9183 133c 1c59 61bb 3a8a 17bb 2fab 1a3a
000001a0: 9102 21bb af8d f6b9 889a d4bb 22a6 62bb
000001b0: 2e08 373b 673c 33bb b23c 80bb 0040 d8bb
000001c0: 508b e9bb b817 243b 9ff8 09bc eea9 6cbb
000001d0: 27eb b5b9 48b4 beb9 6a97 aabb e4e4 6fbb
000001e0: c90d 49b9 25e1 58bb 9fe7 093b af0d c2ba
000001f0: 149a dcbb 9838 49bb f05b 82b9 9853 5bbb
00000200: bd7d b7ba e1c7 973a ba86 163c 390e ac3a
00000210: 0e6e 413a 4e24 90ba 8d94 10bb 825b 0cbc
00000220: 65e0 84ba 1937 ebbb 51a5 f03b 8c34 8939
00000230: 0716 44bb 45ef 21bc 4091 0b3c ce2b 913b
00000240: b5f4 dcbb 9913 d6bb bc04 3abb fd3b d1ba
00000250: c7c6 6cbb dfaa 073b c381 c73a 4204 e1bb
00000260: dd8c c339 613d 5938 6575 903b 2708 06bb
00000270: 89a9 8bbb 7c5e 933a 9de5 93bb ec92 deb9
00000280: 9514 24ba 6484 09bc c49b 80bb ef71 c5bb
00000290: e561 d9ba 644f e73a 8e07 dbba 10b4 44bc
000002a0: e69b a5bb 8337 013b 1742 18ba 7abf 1fba
000002b0: 32ec e13b 9bae 4939 fb19 d4bb e4b3 6e3a
000002c0: af88 20bb 5ee8 86ba ce85 21bb d43a 44bc
000002d0: 8e2d f3bb d36a 0f3c bb88 793a ce7b 213a
000002e0: ed57 2e3b 9787 8ebb 1ea1 343b 0a7e 6aba
000002f0: 13cf fa3a e0ee a73a c92b 4a3b 3665 90bb
00000300: ab8a 3f3b 7066 e83a 8e8b 03bc f54e b73b
00000310: ee91 783b 18c1 f4bb 7a6e 56ba d7fd 0c3b
00000320: adea 9e3b bf1c 1abc 30f6 ba39 471f 61bb
00000330: 863a 2aba de96 b739 a886 a33a 71fd a23a
00000340: 61aa bfbb 8c5a 55bb 656c 0dbc 8ea0 47bb
00000350: bba9 61bb c2a5 593a 24b5 aaba 1700 21bb
00000360: 5975 363a 8f03 c23b 3e8c ffbb 098d e2bb
00000370: 4aec 5e3b 360b debb de72 7f3b ff8d 15bb
00000380: 991b 71bb cc42 e73b d041 8aba 8742 2e3a
00000390: e4e6 b2ba 1ca3 263b 324b b9bb 274b 2cbc
000003a0: 5cc2 e5bb 7d86 52bb c4c1 06ba 86d7 833b
000003b0: c35c 13bb 0879 a83b 41e1 303b a8d5 cf3a
000003c0: 8161 9bbb 44b3 523b f93e d1ba dfe0 e3b9
000003d0: 9ca6 4cbb fe9f 283b 0a96 05bc 7dfd 8cba
000003e0: 5ed4 8bba e489 b83a ef54 403a 50c8 d73a
000003f0: 77e8 9f3a 8d47 bb3a f3a7 b3bb 00b9 b23a
