keras/npy_weights/Block17_3_Branch_1_Conv2d_0c_7x1_kernel.npy (npy, 458880 bytes, 1 tensors)

array f4 [7, 1, 128, 128]
00000000: 8863 163b e89a a33a 9856 d2bb 5531 03bc
00000010: e12c efbb 0f16 07bb 7be7 08bc 6e49 bebb
00000020: 5371 32bb a349 33bb fd49 e6bb 2925 18ba
00000030: 3314 37bb 3855 77bb bf61 35bc 9620 443b
00000040: f411 b2bb eb92 e83b b557 e0ba 0ff9 c2bb
00000050: fffd 26bc e1c7 403c 2974 84bb 3581 fb38
00000060: 8ed3 94bb 5f5c 0dbc 807c 03bc b27d 40bb
00000070: 689b efbb 4d0f 2a3a 0726 c7bb 79f6 5abb
00000080: 2a30 ecbb 36d9 603a b569 79bb b3a0 02bc
00000090: 4f31 e2ba 446b f9bb f0f5 bbbb 518e 22bb
000000a0: 0e79 06bb 2630 5b3a 9724 0cbb b811 4aba
000000b0: 90d3 e63a c77f 54bb 4579 ddba 5a3f 303b
000000c0: b9ce 4dbc 3890 013b 30a3 04bb 9b15 1bbb
000000d0: d10e cbbb a89a b4bb 9392 4cbb bdb0 963b
000000e0: c152 b4bb 886c c8bb cd68 4ebb 856b f9bb
000000f0: 9681 b1bb 6a77 9439 6aa0 94bb b91b f23a
00000100: 3e31 a5b9 806f 4c3b ae08 e03a 0f04 513a
00000110: 9b6c aebb e20d 07bb 23df a43b 9109 993a
00000120: d137 edbb ea2e 853b 5f46 7a3b 3f9d e4ba
00000130: 7e43 ba38 899b f53b 2218 d4bb 5f4a ca3b
00000140: d827 15bc 8867 02bc 72df 20bb 6f78 8aba
00000150: 0392 14bb bb08 cfba a420 003c 0db6 173a
00000160: a27c f7ba afc7 40bc b0ba 79bb 56b9 76bb
00000170: 4c3f 073c 3375 babb 8238 5e3c 9f09 0fbb
00000180: 383b 9abb 9a64 4f3a b668 18bc 6dca 8839
00000190: f9e9 1abc 2c51 403a a1b5 4aba 15e0 aa3a
000001a0: 6c34 33bc 3af0 aabb 1a87 fbbb 698a af3a
000001b0: 948a e83a f48f dbbb 8407 c7bb 4771 9dbb
000001c0: 4eb7 4a3b b291 d03a 6740 2fbb 2103 3939
000001d0: 9b07 24bc 9dcc 173c b738 91bb 439e e1bb
000001e0: 3f4c dcbb a1de 90bb 6124 fa3a ee41 06bb
000001f0: 7b84 2bbb 88e1 3a3c 48f7 03bb 0b06 de3a
00000200: 8bda 46bb 6fa7 c1b9 723f d139 49af 78bb
00000210: 20dc a0bb 0142 653b 8d5c 2c3b eac5 79bb
00000220: a826 75bb 29cb c23a 59a1 4dbb 7072 3f3b
00000230: f46c 0e3a 00b0 f23a b17e afbb a488 323b
00000240: da9b 53ba 0c16 9d3b 832d 3dba c3b7 713a
00000250: cc3f c2bb 4b25 193c 0d1d a9bb 080d ecba
00000260: 06fe 2d3b f029 94b7 addf 82ba 7323 7cbb
00000270: b742 e9ba 49d4 59bb 3d75 81bb 493e 08ba
00000280: b5a8 efba b513 fb3a 1c4d 3c3b fb86 86bb
00000290: 37c8 33bb 720f f9ba 9c10 d8ba 6d85 17bb
000002a0: 3c9d 87bb ba73 e5bb c8d4 873a ae51 e93a
000002b0: 730b 533b 4ccd 27ba e77a 24bb 9fd9 32bb
000002c0: 21f8 b5bb 5e6a e53a e760 4ebb daf4 c1bb
000002d0: 000e 893b c51a 0839 784e d2ba cdda c3ba
000002e0: 5ff4 84bb 2621 98bb dc06 01b9 3dcc 83bb
000002f0: 96b5 54bb e702 223b b5de b2ba 9c8a c1bb
00000300: 5cb9 e9b8 d528 8c3b ad3e fc38 0795 02bb
00000310: e958 67bb 4980 3eba 1f06 463b 4b34 973b
00000320: bc5f b7bb fd17 853b c43c 973b 4d27 933a
00000330: 55b7 1ebb f5df 0fba 374f 5f3b 0122 84b9
00000340: 0cb3 0eba 3fb1 33bb c7de 23bb 0265 63bb
00000350: b023 77bb 0f98 60bb 2d1d 7bbb 27b3 f33a
00000360: 1fb1 1d3a 7acb d3ba b15d a3ba 9f98 70bb
00000370: 4504 41ba ad54 e23a c2ff 49ba 00b2 f3ba
00000380: 2ac0 41bb ccc7 853b 5930 bebb 2d39 ab3a
00000390: db79 6cbb 166b 1b3b d425 a23a 8163 5e3b
000003a0: e089 da3b 5b78 ebba 5366 4039 9246 c9ba
000003b0: 56a8 d3ba 83c3 07bc 40e2 79bb 6cba 47bb
000003c0: 201b 12b9 2daf f5b9 80c5 8bbb dcab 22bb
000003d0: 781e 43ba df7b b7b9 cb72 8cbb 0930 99bb
000003e0: dee6 bd3a f502 4ebb 39ab 293a e084 c539
000003f0: c0b0 82ba fa11 b93a f60a 8aba c91b 8c3b
0.002294751 0.0012482079 -0.006419014 -0.008007367 -0.007299051 -0.0020612513 -0.0083559705 -0.0058070933
-0.002722819 -0.0027357123 -0.007027863 -0.0005803877 -0.0027935624 -0.0037740003 -0.011070668 0.002992665
-0.005434269 0.007097592 -0.0017115982 -0.0059501003 -0.010192393 0.011766405 -0.0040421677 0.00011992679
-0.004541821 -0.00862798 -0.008025289 -0.0029371795 -0.007312227 0.00064872653 -0.0060775313 -0.003341107
-0.00720789 0.0008577289 -0.003805739 -0.007972884 -0.0017257127 -0.007611664 -0.005736105 -0.0024804065
-0.0020518932 0.00083613617 -0.0021384114 -0.0007708329 0.0017610658 -0.0032424794 -0.0016897103 0.002689323
-0.012561494 0.00197698 -0.002023887 -0.0023664 -0.0061968346 -0.0055116005 -0.0031215295 0.0045987056
-0.005503029 -0.0061164536 -0.0031495572 -0.0076116943 -0.005417059 0.0002831773 -0.0045357244 0.0018471397
-0.0003150794 0.003119439 0.001709243 0.0007973322 -0.0053230054 -0.002060764 0.005031483 0.0011675825
-0.00723932 0.0040644305 0.0038188917 -0.0017441883 8.8817425e-05 0.007495348 -0.0064726034 0.0061734165
-0.009103738 -0.007959254 -0.0024547246 -0.0010564456 -0.0022670038 -0.0015795449 0.007820282 0.00057873206
-0.0018881748 -0.011766358 -0.003810566 -0.003764709 0.008254837 -0.0056902408 0.013563277 -0.0021825803
-0.0047067665 0.0007911414 -0.009302309 0.0002609076 -0.0094551975 0.00073363143 -0.00077327533 0.0013036752
-0.010937791 -0.0052166255 -0.0076760175 0.001339269 0.0017741495 -0.00670051 -0.006073894 -0.0048047635
0.0030932012 0.0015912561 -0.0026741268 0.0001764414 -0.010011579 0.009265092 -0.0044318098 -0.0068853213
-0.0067229564 -0.0044210707 0.0019084328 -0.0020486074 -0.0026171494 0.01140631 -0.0020136405 0.0016939057
-0.0030342664 -0.00036936576 0.00039910857 -0.0037946275 -0.0049090534 0.0034981968 0.0026300282 -0.003811235
-0.0037407074 0.0014861572 -0.0031376688 0.0029212497 0.00054331054 0.0018515587 -0.005355679 0.0027242089
-0.0008072235 0.004793888 -0.00072165596 0.0009220803 -0.0059280153 0.00934727 -0.005160934 -0.0018009255
0.0026549115 -1.7662504e-05 -0.0009984873 -0.0038473278 -0.0017796372 -0.0033238104 -0.0039507435 -0.00051972695
-0.0018284532 0.0019155653 0.0028732484 -0.0041054464 -0.002743257 -0.0019001795 -0.0016484442 -0.00231203
-0.004138617 -0.007002321 0.0010363096 0.0017800832 0.003220287 -0.0006401136 -0.002509767 -0.0027290357
-0.005553261 0.0017503013 -0.0031490864 -0.005919081 0.004182577 0.00012979943 -0.0016045114 -0.0014942527
-0.0040574516 -0.0046426235 -0.00012304954 -0.00402215 -0.0032456866 0.0024720968 -0.0013646694 -0.005906416
-0.00011144832 0.0042773285 0.00012027971 -0.0019925253 -0.0035300797 -0.0007267041 0.003021605 0.004614388
-0.005596129 0.0040616975 0.004615398 0.0011226923 -0.002421816 -0.0005488389 0.0034074315 -0.00025202337
-0.000544355 -0.002741888 -0.0025004612 -0.0034697657 -0.003771048 -0.0034270321 -0.003831695 0.001859282
0.0006015468 -0.0016158663 -0.0012463835 -0.0036712063 -0.0007363002 0.0017267667 -0.00077056524 -0.0018592477
-0.0029564002 0.0040826555 -0.0058041033 0.0013063304 -0.0036083374 0.0023714951 0.0012370893 0.003393382
0.006669268 -0.0017964946 0.00018348666 -0.0015356115 -0.001614819 -0.00828636 -0.003812924 -0.0030476106
-0.0001393375 -0.00046860558 -0.004265487 -0.0024821674 -0.00074432 -0.0003499677 -0.0042861453 -0.0046749157
0.001448836 -0.0031434868 0.00064723525 0.00037673768 -0.0009970888 0.0014119737 -0.0010531831 0.004275773
