keras/npy_weights/Block17_6_Branch_1_Conv2d_0c_7x1_kernel.npy (npy, 458880 bytes, 1 tensors)

array f4 [7, 1, 128, 128]
00000000: 168a 243c 6a61 0ebb c762 113c bc5b e8bb
00000010: c691 333c 3481 093b 155c d53b 50ff 5dbb
00000020: 63d4 baba 8f6e 153c 63ec 32ba 3349 8a3a
00000030: 0e70 5bbb 0c45 60bb 9fb8 023c 098b 07bb
00000040: 6fb8 f3bb 748b 173c b210 9bba d767 1439
00000050: a3c1 5cbb 6c56 063a e807 81bb 4c5f 8fbb
00000060: 8907 c4ba 2c05 433c 584b 063b 55e5 163c
00000070: 223c d5ba a3ff 6dbb cc77 db3b 707b e83b
00000080: d57f abb8 ebe3 a7bb 9a94 923b 71e4 ecbb
00000090: 27b1 fb3a abc5 cfb9 f0cf 8f39 3067 95bb
000000a0: ff77 a73a c5f8 823b 5c37 a83a 9c1a 533b
000000b0: 01ac 423b a0a8 2abb 826b db3a 48d6 87ba
000000c0: c01b a7bb 9dfc 013c 5eae 633b 2166 cdba
000000d0: deff 2ebb fc4a 93bb 5ab7 f7ba 06f4 613b
000000e0: cae1 80ba e30f d7bb 396e 63ba 4228 eebb
000000f0: 9070 ca3a 62f9 3a3a 1d6a dd3b 7a39 4f3b
00000100: ea54 613b 64bc 393c dac6 1a3c fe18 7abb
00000110: 5ee6 caba fb20 893b de0e 99bb 66ea 593b
00000120: b811 14bb e2ea 563b 8e5b 57bb 5c05 48bb
00000130: 9ded 1d3b b3c3 42ba 8d70 a13b 7d8f 9eb6
00000140: 50da 3a3b be99 41bb e16a c63b b090 6d3b
00000150: 3bf4 8fba f0c8 863a 1c23 283a 49e9 4a3b
00000160: b7c5 be39 19ac 8c3b 7867 9a3a a9f6 59bb
00000170: 4aa1 dbba 1de5 c6bb 078a 4439 a5af d13b
00000180: f01a 003c 261e fcba 9158 d2bb 0dd2 a4bb
00000190: 3696 caba a63f ae3b e91f b5bb b0a6 b73a
000001a0: ef7a 5d3a 86fc 553b acda 9fbb a987 83bb
000001b0: 34a6 f33a 5810 963b a1f0 2b3c 3ad4 1abc
000001c0: 372a 5eba 3983 9bbb e666 6dba ad52 e7bb
000001d0: bd86 3fb8 16cc 0cbb bd86 e738 fe71 aebb
000001e0: 07f7 17ba 7af4 273a 6cbc 6b3b 2b40 fc3b
000001f0: ca2c 083c cf71 563b e198 92b9 c786 f0b9
00000200: dec5 c538 473b 23bb 807b e9bb d376 01bc
00000210: 6d81 ed3a ffec f93b db1d 0d3b 03c7 87bb
00000220: 41ad d5ba 3d4e 853a 40c2 e83b d84a ac3b
00000230: 6bde 0dbc 3b70 77bb ec76 98bb ea9e eab8
00000240: bafb efb9 ccf5 703a 98f4 5c3a c0d8 203a
00000250: cb86 27ba b659 bdb9 54e3 173b 0ffc 3eba
00000260: 244f 883a 6ebf 91bb 0b44 4ebb 2738 02ba
00000270: ff58 03bb 4246 3bbb e625 11bb b2c5 94bb
00000280: 6001 98ba 7e5f 1439 4a1c dcb9 acd4 4dbb
00000290: 9109 0b3c f62c 5ebb 4bec 093b 1e2f 0e3a
000002a0: 8073 4a3b 2143 ecbb ca5a 51bb 2c53 bb39
000002b0: bd87 e4ba 3cee 3ebb 621f d43a 8e68 4eba
000002c0: 3495 24bb 1673 bc3a c2d7 1fba 55d4 53bb
000002d0: f0c4 41ba 53b5 2cb9 bc09 08bb d12b 803a
000002e0: a1ad 3ebb 4aae 673b 82cc 76bb 281b 0dbb
000002f0: 00d7 08ba 6694 cbba 902b 2f3a badf 2e3b
00000300: c7b3 953b 78ff 38bb b338 993b abdb 7dbb
00000310: 28fd a0bb d730 07ba 6af5 8abb b2b8 353b
00000320: 2504 b43b 4318 d5b9 89b5 10bb 6661 a4ba
00000330: e9ad 8d3a 80de b83a 6d7f 18b9 2962 c23b
00000340: 251f 6c3b 412d babb 88be 4c3b f40b 57bb
00000350: 397c 20bb 1403 d33a 7c17 7a3b f8aa 443b
00000360: c44d 39bb 7cd3 0cb9 c495 aebb 3d19 cd3a
00000370: 2f30 78b7 090f 00bc 0824 d939 1613 163b
00000380: 8e6c d8bb e799 92bb 54cc 0d3b a0bb 9cbb
00000390: 4080 95bb 1c55 193b ee20 80bb ca8d 1a3b
000003a0: 2b88 d23b 09fb 8f39 67d3 fab9 7084 29ba
000003b0: 61ad c13a 252e 873a b14d adbb d7bf aeb9
000003c0: c42d c6bb 2f6d 12b9 9080 65ba a2d5 acbb
000003d0: 0eab 06ba 31f7 953b b060 973b 3b13 d13a
000003e0: 0c31 9bba c597 c53a 2d18 293a 9631 89ba
000003f0: 70e8 a9bb c4db c9ba 504c a93a 9ef5 66ba
0.010042688 -0.0021725544 0.008873648 -0.0070910137 0.010960048 0.0020981552 0.006511221 -0.0033874102
-0.001425397 0.0091205975 -0.00068253855 0.001055038 -0.0033483538 -0.0034220843 0.007978587 -0.0020682237
-0.0074377577 0.009249557 -0.0011830537 0.00014153063 -0.0033684752 0.0005124572 -0.00393771 -0.004375374
-0.0014955859 0.011903089 0.0020491686 0.00920995 -0.0016268531 -0.0036315701 0.0066976305 0.007094793
-8.177726e-05 -0.0051236055 0.004473281 -0.007229381 0.0019202576 -0.0003962939 0.0002743001 -0.00455942
0.001277685 0.003996941 0.0012833881 0.0032211905 0.0029704573 -0.002604045 0.0016740414 -0.0010363543
-0.0050997436 0.007933763 0.0034741382 -0.0015670696 -0.0026702802 -0.004495023 -0.0018899248 0.0034477725
-0.0009832915 -0.006563173 -0.0008675787 -0.0072679827 0.0015444923 0.0007132498 0.0067570345 0.0031619952
0.0034382888 0.01133642 0.009446824 -0.003816187 -0.0015480032 0.00418484 -0.0046709618 0.0033251285
-0.002259357 0.003279381 -0.0032860967 -0.0030520773 0.0024097927 -0.0007429674 0.004926747 -4.725471e-06
0.0028511472 -0.00295411 0.0060552214 0.003624957 -0.001098282 0.0010283273 0.0006413923 0.0030961803
0.00036386933 0.0042929766 0.0011780104 -0.0033258593 -0.0016756442 -0.006069793 0.00018743436 0.0063991123
0.007818922 -0.0019235059 -0.0064192493 -0.005029923 -0.0015456143 0.005317646 -0.0055274856 0.0014011469
0.00084487995 0.0032651736 -0.0048783626 -0.0040139747 0.0018588961 0.004579585 0.010494382 -0.009450013
-0.00084749184 -0.0047458676 -0.00090561656 -0.0070594163 -4.5663433e-05 -0.002148395 0.00011040035 -0.0053236475
-0.0005797003 0.0006406974 0.0035970462 0.007698079 0.00831146 0.0032721644 -0.00027961194 -0.00045876784
9.430548e-05 -0.0024907158 -0.007125318 -0.007901865 0.0018120237 0.007627129 0.0021532688 -0.004143597
-0.0016302244 0.0010170412 0.0071032345 0.0052579455 -0.008658986 -0.0037756104 -0.0046528485 -0.000111875896
-0.00045773183 0.00091919 0.00084287813 0.0006135814 -0.000639063 -0.0003611573 0.002317627 -0.00072854845
0.0010399562 -0.004447869 -0.0031473662 -0.0004967474 -0.002004206 -0.0028575812 -0.0022147833 -0.0045401687
-0.001159709 0.00014149953 -0.00041982747 -0.003140728 0.0084861675 -0.003390131 0.0021045383 0.0005423891
0.0030891597 -0.007210151 -0.0031944984 0.00035729387 -0.0017435473 -0.0029133698 0.0016183669 -0.0007873856
-0.0025113346 0.001437756 -0.0006097519 -0.0032322605 -0.00073917117 -0.00016470747 -0.0020757755 0.0009778683
-0.002909519 0.0035351687 -0.0037658517 -0.002153108 -0.0005220026 -0.0015531897 0.00066822115 0.0026683644
0.0045685503 -0.0028228443 0.0046759485 -0.0038735669 -0.004912991 -0.0005157119 -0.0042406814 0.0027728495
0.005493658 -0.00040644602 -0.002208086 -0.0012541234 0.0010809276 0.0014104396 -0.0001454332 0.0059321118
0.0036029306 -0.005681664 0.0031241495 -0.003281352 -0.0024488105 0.001609894 0.003816097 0.0030009132
-0.0028275112 -0.00013430224 -0.005327912 0.001564778 -1.47931705e-05 -0.007816085 0.0004141631 0.002289956
-0.0066047376 -0.004473913 0.0021636682 -0.004783109 -0.0045624077 0.0023396676 -0.0039101755 0.0023583048
0.006424924 0.0002746212 -0.00047841223 -0.0006466573 0.0014776402 0.0010313435 -0.0052888026 -0.00033330798
-0.006047936 -0.00013964319 -0.0008754814 -0.0052744905 -0.00051371835 0.0045765867 0.0046196803 0.0015951166
-0.0011840179 0.0015075138 0.0006450441 -0.0010467048 -0.0051851794 -0.0015400578 0.001291642 -0.00088104035
