keras/npy_weights/Conv2d_1a_3x3_kernel.npy (npy, 3584 bytes, 1 tensors)

array f4 [3, 3, 3, 32]
000000 c9 09 75 3d b8 e9 54 be 19 40 b7 ba 70 d4 02 bd
       0.059823785 -0.20792282 -0.0013980895 -0.031940877
000010 32 23 b0 bd 72 91 93 3d 20 66 69 3d 9e 5b d1 bd
       -0.08600463 0.07205476 0.05698216 -0.10222553
000020 67 70 e9 3c 27 f0 46 3e 5d 6e 09 3d f0 0a 87 bd
       0.02849598 0.19427548 0.033552516 -0.06593883
000030 76 11 10 bd 49 b0 be 3d f8 69 02 3d d9 ff 08 3d
       -0.035172902 0.093109675 0.03183934 0.03344712
000040 1c 51 ac 3b 71 a9 a5 3c e6 a8 82 3d b4 0a f7 bd
       0.0052586924 0.020222398 0.06379871 -0.12062588
000050 9b b6 a4 bb 02 16 21 3d ce 34 18 be 2a cb 42 3d
       -0.005026651 0.03932763 -0.14863893 0.047557034
000060 51 dd 77 bd 44 02 d2 3c 49 49 ab bc 2f 7e 88 bd
       -0.0605138 0.025635846 -0.020908969 -0.066646926
000070 72 95 cc bc 52 d8 81 3e 64 1d ad 3b 53 b7 cd 3b
       -0.024973605 0.25360352 0.0052830447 0.0062779575
000080 cb 21 b7 3c 7a 00 7c be fa cd 51 3c 82 62 79 bd
       0.02235498 -0.24609557 0.012805456 -0.06088496
000090 92 69 24 be e9 3d e5 3d aa 2c c1 3c 88 72 87 3c
       -0.16055897 0.11193449 0.023580868 0.016534105
0000a0 49 95 5f 3c 66 f2 f7 bd f2 21 56 bc fa e0 f6 bb
       0.013646432 -0.12106781 -0.013069617 -0.0075341435
0000b0 94 0b e8 bc 98 9d f3 3c d3 2f 24 3c 3a ab db 3c
       -0.028325833 0.029738232 0.010021168 0.026815046
0000c0 c9 0a bd bc 3f 60 06 3d 09 40 8e 3d 71 48 53 be
       -0.023076432 0.03280663 0.069458075 -0.20633103
0000d0 7d c5 11 bd 34 4a 47 bd 64 de 4c be 71 e1 74 3d
       -0.03558873 -0.04865475 -0.2000671 0.05978531
0000e0 d9 49 fe bc 62 8d 61 3c 13 90 35 bc e4 d4 20 bc
       -0.031041073 0.013766618 -0.011081713 -0.009816382
0000f0 0b 9c a4 bb 25 1c 84 3e 48 4c a1 ba 0c e7 8c 3c
       -0.0050234846 0.25802723 -0.0012306059 0.017200015
000100 35 21 be 3d 29 06 5e be 63 7c 0c bd 20 d7 a9 38
       0.092836775 -0.21682037 -0.034298312 8.098618e-05
000110 ea 90 85 bd c0 9b 57 3d 95 85 71 bc 3c fb 42 3d
       -0.06521781 0.05263877 -0.014741321 0.047602877
000120 5f 56 d4 bb 78 8e 3d 3a db c9 9c 3a 3e de 99 bb
       -0.006480023 0.00072310073 0.0011962013 -0.004695683
000130 47 74 21 bd e0 d7 1c 3e c3 66 74 3c aa dc ff 3c
       -0.03941753 0.15316725 0.014917078 0.03123315
000140 c2 20 fb bb 4a 8c 1e 3d 59 dd 52 3c 41 bf 02 be
       -0.007663817 0.03870801 0.012870156 -0.1276827
000150 31 05 6f 3c 51 15 54 bd e3 f6 17 be 4f 5e 16 3d
       0.01458864 -0.05177814 -0.14840274 0.036711033
000160 d5 82 d0 bc ab f5 f9 bc 2a 37 c0 bb f9 7b cd bb
       -0.02545301 -0.030512651 -0.005865951 -0.006270882
000170 8b 5d 28 3c f0 42 6b 3e c4 0d 6b 3c 36 a3 62 3d
       0.010276209 0.22974753 0.014346544 0.05533143
000180 8d d5 37 3e 6d d3 bd bd 36 aa 20 bb ee b1 a8 bd
       0.17952557 -0.09268842 -0.0024515516 -0.082370624
000190 91 5f 41 be 0b b6 d4 3d 4e fc 63 3d 51 05 d4 bd
       -0.18884112 0.103862844 0.05566054 -0.103525765
0001a0 fc 4e 93 3c a7 4a 63 3e fc ca b7 ba a8 db 49 bd
       0.017981999 0.22196446 -0.0014022286 -0.049281746
0001b0 81 bb b4 3d fd 5a 10 bd a4 47 21 3c 9a 8f 00 3d
       0.08824826 -0.035243023 0.009843741 0.03138695
0001c0 95 19 36 bd 80 54 9f 3c 82 f1 13 3d db 51 4b 3d
       -0.04445799 0.019449472 0.03611899 0.04963861
0001d0 54 4a 4e bd 1f fe 41 3d 6d 37 f9 bc 32 2b ce 3c
       -0.050363854 0.04736149 -0.030421937 0.025167082
0001e0 f9 51 a4 bd 2c 00 d1 3c 06 d4 81 bc 41 7c 5f bd
       -0.080234475 0.025512777 -0.015848171 -0.054561857
0001f0 12 99 8b bc e3 b0 d6 3d a7 f5 18 3b 23 4e a0 bc
       -0.017040763 0.10482957 0.002333978 -0.019568508
000200 b3 9a 3d 3e 47 94 f7 bd 4a 74 2c 3d d8 36 eb bd
       0.18516044 -0.120888285 0.04210309 -0.1148507
000210 cd 6a 86 be 12 fb 10 3e ab c3 03 3d b5 7a 04 3d
       -0.26253358 0.14158276 0.032169025 0.032343585
000220 08 ef d9 3c 5e 2b 22 be 5c 35 86 bd c5 e9 16 3c
       0.026603237 -0.15836856 -0.06553146 0.009211008
000230 eb a6 f2 3d ac ca 0b be d4 e8 82 bc 63 b4 72 3c
       0.11848243 -0.13651532 -0.015980162 0.014813515
000240 13 23 9e bd b6 c9 49 3d a5 74 89 3b b7 10 89 3d
       -0.077215336 0.049264632 0.0041948133 0.06692641
000250 aa 25 9d bd cb c7 ca bc a5 74 1a bd 50 8a 9a 3c
       -0.076731995 -0.024753472 -0.037708897 0.01886478
000260 89 7d 4d bd 99 b8 eb 3c df e4 16 bb 11 22 e6 3a
       -0.050168548 0.028774546 -0.0023024601 0.001755776
000270 b8 93 bc 3c 61 b5 0d 3e 18 aa a1 3c 05 a9 85 bd
       0.023019657 0.13838722 0.019734427 -0.065263785
000280 f6 d1 4c 3e 37 03 fc bd 4a 96 f6 bb 05 4e 09 bd
       0.20001969 -0.12305301 -0.00752524 -0.03352167
000290 d1 06 26 be 2b a9 cb 3d c8 50 b1 bc 28 6f 97 3d
       -0.16213538 0.099443756 -0.021644965 0.07394248
0002a0 6b 03 a9 bb 75 25 87 bd 1f 26 e2 bc ed 7d 58 3c
       -0.005157878 -0.06598941 -0.027606068 0.013213617
0002b0 eb da a6 3d bd f2 e9 3d 38 10 37 3c 50 aa 20 3d
       0.08147224 0.11423252 0.0111733 0.039224923
0002c0 27 ad ee bc 0a d5 4c 3d 6d 9c 58 bb d8 2b f1 3c
       -0.0291353 0.050007857 -0.0033052221 0.029439852
0002d0 89 9b fe 3a 3d 5e 05 bd e0 f0 26 bc c7 6d c4 3b
       0.0019425015 -0.032560576 -0.010189265 0.005994532
0002e0 33 79 e2 bc 4e 6c dd bc 85 e4 29 3b bf 2d e3 3b
       -0.027645683 -0.027029183 0.0025923562 0.0069329436
0002f0 4e c4 08 3d 10 7f 58 3d 4e f4 f4 3c 3c 40 3d 3d
       0.033390336 0.05285555 0.02990165 0.046203837
000300 50 19 94 3e c8 c6 c1 bd 1c f0 99 ba 87 5b 0c bd
       0.28925562 -0.09461743 -0.0011744532 -0.034266975
000310 43 c1 96 bd 6e 9d 53 3c 02 42 92 3d ae 77 c6 bd
       -0.073610805 0.012915952 0.07141496 -0.09690796
000320 43 30 17 3d 62 1c 7b 3e d2 37 bb bc b2 d1 a0 bd
       0.03691126 0.24522546 -0.022853766 -0.07852496
000330 7b 9a 06 3e 4a c1 0d be b8 c3 40 bc 37 89 cf 3c
       0.13144867 -0.13843265 -0.011765413 0.025333984
000340 74 80 5b bd 3f 50 e4 3c 4d e6 a7 3d c7 e1 73 bd
       -0.0535893 0.027870296 0.08198223 -0.05954149
000350 15 fd 94 bd c4 73 25 3d 12 36 0d 3e fd 73 bd 3b
       -0.07274834 0.040393606 0.13790157 0.005781649
000360 2c 43 c3 bd 30 af f6 3c a6 2f 82 bc 12 fa a5 bd
       -0.095342964 0.030112833 -0.015891861 -0.08104338
000370 05 94 8d bc a8 73 b1 bd 10 26 49 3c e9 c6 39 be
       -0.017282495 -0.08664638 0.012277141 -0.18142284
000380 6c c7 9e 3e 20 96 05 be ce a6 41 3d 5f 0c 73 bd
       0.31011522 -0.1304555 0.047278218 -0.05933797
000390 10 57 fd bd bf bf 1c 3d 66 9d 0d 3d f6 45 60 3d
       -0.123701215 0.0382688 0.034573935 0.05475422
0003a0 f1 70 23 3d 51 86 41 be c9 91 c6 bd a3 1c 2c bc
       0.03990263 -0.18898894 -0.09695775 -0.010504874
0003b0 7c e4 38 3e 0f 47 61 be 08 8e 18 bd 48 ef 39 3c
       0.1805591 -0.21999763 -0.037244827 0.011348553
0003c0 49 f9 b2 bd b3 91 38 3d 10 18 af 3c 6f 57 93 bc
       -0.087389536 0.045060825 0.021373779 -0.017986028
0003d0 50 15 c2 bd cb 94 12 bd ca 85 2f 3e da cd 6f bc
       -0.09476721 -0.03578643 0.1714088 -0.014636481
0003e0 40 32 64 bd 6c 6d c0 3c fa 72 fd ba cf 1f 84 bc
       -0.055711985 0.023489676 -0.0019336634 -0.016128449
0003f0 44 f4 b3 3c f6 73 83 bd d9 6c b8 3c 38 ca 93 be
       0.02196706 -0.06418602 0.02251284 -0.28865218
