keras/npy_weights/Mixed_7a_Branch_2_Conv2d_0a_1x1_kernel.npy (npy, 917632 bytes, 1 tensors)

array f4 [1, 1, 896, 256]
000000 21 f5 d7 3b 2d 78 b4 3a ef c2 4a 3a 0f 0f 1e 3c
       0.006590501 0.0013768725 0.0007734736 0.009647145
000010 99 74 0d 3c 0e 0d 99 3b 49 49 51 3a c3 eb d9 3b
       0.008633756 0.0046707457 0.00079836376 0.0066504194
000020 f3 17 37 3b 96 28 30 b9 a3 86 0a 3c 61 f4 bc 3b
       0.0027937859 -0.00016799787 0.008454951 0.005766437
000030 81 36 a4 3b 70 48 2f bb b2 6e 3e 3c 26 fb ec bb
       0.00501138 -0.0026746057 0.0116230715 -0.0072320877
000040 39 5b 49 bb ff 50 a0 ba a6 55 32 bb 2b 90 9c ba
       -0.003072454 -0.001223117 -0.0027211695 -0.0011944821
000050 2d 20 34 bc 2b 8e 47 3b dc bc db 3c e7 39 9b 3c
       -0.010993999 0.003044973 0.026823454 0.018948508
000060 2c 82 3b 3b 38 00 3c 3c 85 57 8b bb ec b2 27 3b
       0.0028611524 0.0114746615 -0.0042523765 0.0025588823
000070 5c 52 21 bc 99 4c d4 3b f0 9d 43 bb 41 db 7c bb
       -0.009846296 0.0064788577 -0.0029848777 -0.0038582834
000080 b9 bf 5d bc a8 c4 c8 3b 07 cd f4 3b 4c fa 0d 3c
       -0.01353448 0.006126959 0.00747073 0.008665632
000090 5a 71 00 bc f9 cd 32 3c 00 0d e0 3b 2c 17 a8 3b
       -0.007839525 0.0109133655 0.006837487 0.0051297154
0000a0 1e 78 16 ba 3b c9 5e 3b 94 68 a4 bb 98 be ee b7
       -0.0005739945 0.0033994454 -0.0050173495 -2.8460563e-05
0000b0 97 17 01 3b 67 d3 13 bb 05 f9 a4 ba b7 4d 23 3a
       0.0019697899 -0.0022556426 -0.0012586421 0.0006229537
0000c0 78 44 0c bc ed 1d ff bb 1b 6f f4 bb 3c dc 04 3b
       -0.008561246 -0.00778555 -0.007459534 0.0020272871
0000d0 de a1 8f bb 0f b6 51 3b 8c 32 88 bb f3 a2 83 ba
       -0.0043833097 0.0031999385 -0.0041564163 -0.001004307
0000e0 85 77 af bb 3b 17 da 39 b8 31 09 bc 5e 97 0a bc
       -0.005354824 0.00041597508 -0.00837367 -0.00845894
0000f0 a0 17 72 3c 9c ee b0 3a 57 e1 d6 3b b0 f4 b6 3c
       0.01477614 0.0013498846 0.0065576243 0.022333473
000100 e4 b8 dd b9 d2 93 02 bc 44 78 2f 3c 1f 9d 5b bc
       -0.0004229016 -0.007969813 0.010709826 -0.01340416
000110 0a be 2f bc 20 03 9f bb 44 ec 76 bb d3 7d bf ba
       -0.010726461 -0.0048526675 -0.0037677446 -0.0014609642
000120 e4 34 37 3b d2 6e 39 3b 89 8a b4 39 92 fd 3a 3c
       0.002795511 0.0028294814 0.00034435492 0.011412995
000130 07 c7 0f bb 4f e0 fe 3b f7 27 9d bb b7 34 e7 bb
       -0.0021938698 0.0077782045 -0.004796024 -0.0070558446
000140 7d 9b 6b 3a fa e9 93 3c e7 30 82 b9 2f ae 3e 3c
       0.0008987708 0.018055905 -0.00024831967 0.011638208
000150 77 36 e1 3a e5 fd e0 bb ce ea bc bc ed 99 c1 3b
       0.001718237 -0.006866204 -0.023061182 0.005908242
000160 cf 06 b2 3a 9c 45 33 3b b2 15 20 bb d2 5a d1 3b
       0.0013582351 0.0027354723 -0.0024426994 0.0063890005
000170 ff 51 47 3a 93 73 cc 39 9b a4 1c 3b 1b 6a bb ba
       0.0007603466 0.00038996022 0.0023901823 -0.001429859
000180 74 b5 19 bb 02 c6 dd bb 13 c3 23 3c 6a 7d a3 b9
       -0.0023454102 -0.006767989 0.00999524 -0.00031183223
000190 8b 84 c0 39 ef 4d 97 3c f5 a0 eb 38 6c aa e3 bb
       0.00036719846 0.018469779 0.00011235654 -0.006947806
0001a0 f8 68 2f 3c 56 2b f0 bb 7c 8a 6b ba f3 56 a8 bb
       0.010706179 -0.007329385 -0.00089851744 -0.0051373183
0001b0 c6 bd cf 3c c1 0b 93 3c 1a 3e ca 39 80 0a 05 bc
       0.025359046 0.01794994 0.00038574712 -0.008120179
0001c0 1e 16 45 3b 71 ca e0 bb 78 1e 4f bb b7 64 e4 3b
       0.0030072997 -0.0068600704 -0.0031603854 0.006970014
0001d0 a3 44 9d 3c c6 a4 09 3c 6e 47 db 3b 2f a6 b0 3b
       0.019197768 0.008401101 0.0066918647 0.0053909044
0001e0 2d d9 63 bb 3f 1b 24 bc 00 07 bb ba f3 e7 8d bb
       -0.0034766898 -0.010016262 -0.0014269054 -0.004330629
0001f0 c2 bb 83 bc 8c 63 0d bb 75 44 01 3c 90 5c c8 3b
       -0.01608074 -0.0021574227 0.007889857 0.00611455
000200 7f 9d 0d ba ae 66 9c bb a0 74 8b ba d4 9f 3e 3c
       -0.0005402192 -0.0047729826 -0.0010639615 0.011634786
000210 b7 29 88 bb 39 cc 2d bc 18 5c 76 3b 8b d6 ae 3a
       -0.0041553634 -0.0106077725 0.0037591513 0.0013339085
000220 4e 16 d6 3a 0e c7 04 bc b7 e1 b3 3a 25 9e bb 3b
       0.0016333552 -0.008104099 0.0013723884 0.0057256394
000230 aa 69 6b 3c d6 cf b3 bb f7 4f c1 3b c2 c8 7a bb
       0.014368454 -0.0054874225 0.005899425 -0.0038266634
000240 d9 0e 78 bb fd 30 2d 3c 80 82 95 3b 1b c8 91 bc
       -0.0037850647 0.010570762 0.004562676 -0.017795613
000250 75 84 a6 bb c6 ac 37 3b 4a 4b 7a 3b ef f5 4d ba
       -0.005081708 0.0028026565 0.0038191848 -0.00078567764
000260 56 a1 3b 3c 6e ff 57 3c 11 7c 97 3b 40 3f d6 3c
       0.01145204 0.013183458 0.004622944 0.026153207
000270 65 c4 ca 3b 1a 0d 09 bc 98 0d b8 bc 78 81 aa b9
       0.006187963 -0.00836494 -0.02246742 -0.00032521388
000280 2b a0 0e bb b5 0b 97 3b 16 82 7b 3c a4 c2 f4 3b
       -0.0021762948 0.00460955 0.015350839 0.007469492
000290 cc c0 22 bc 0d c5 85 bb cf a4 b3 bb 40 8a 02 3c
       -0.009933662 -0.004082328 -0.005482293 0.007967532
0002a0 e7 b0 cc 3b e3 14 a8 3c 5b e4 94 bb 56 50 a9 3b
       0.0062466743 0.020517772 -0.0045438237 0.0051670475
0002b0 af 45 29 3c 93 4e 71 3a 66 4e e2 3b 58 15 33 bc
       0.010331555 0.0009205129 0.0069063185 -0.010930382
0002c0 bc c4 dd bc fe 6d 2c ba f3 86 fc 3a e8 96 99 ba
       -0.02707135 -0.00065776694 0.0019266292 -0.0011717947
0002d0 24 3b f9 3a 5a 3b 91 3b df 9a 6b ba 56 46 88 3b
       0.0019014818 0.004432124 -0.0008987616 0.0041587753
0002e0 65 c8 2d 3b 83 df 40 3b 5c ad 86 ba 52 f3 d5 3b
       0.002651715 0.0029430098 -0.0010275054 0.00652925
0002f0 80 c5 9c bc 6f e4 d0 bb e6 87 fb 3b c7 b4 ca 3b
       -0.019137144 -0.0063748877 0.0076761125 0.006186101
000300 74 9b ba bb a9 18 7c bb 80 18 8e bc de 9b 06 bc
       -0.005694801 -0.0038466847 -0.017345667 -0.008215873
000310 6f 8d 80 3b be 92 a3 bb 75 e3 04 3b e6 a6 81 3c
       0.00392311 -0.0049918583 0.0020277177 0.015826654
000320 29 7f 22 3b f2 2c 0a 3c 23 b3 4a ba e2 d4 51 3b
       0.0024795032 0.008433567 -0.0007732382 0.0032017757
000330 0b 97 7c 3a b3 67 85 3c bc 97 93 3b e1 e1 d8 3b
       0.0009635544 0.0162848 0.004504172 0.0066187237
000340 7b c7 f3 bb f3 20 64 3b 56 e9 9e 39 01 9d a0 3a
       -0.0074395514 0.0034809678 0.00030309957 0.0012253822
000350 ce b3 a6 3b 2d a1 1a 3b 24 ef 94 bb 51 b5 0b bb
       0.0050873524 0.0023594603 -0.0045451093 -0.002131779
000360 cd 51 50 bb 2d e5 72 bc 21 a2 19 3b f2 20 5e bc
       -0.0031787038 -0.014825148 0.0023442584 -0.013557659
000370 53 0f b2 bb 14 18 d6 bb 31 3e 98 bb 22 35 1f 3b
       -0.0054339557 -0.006533632 -0.0046460857 0.0024293144
000380 e5 25 9c bb 31 43 bf bb 36 a5 68 bc 65 06 03 3b
       -0.0047652596 -0.0058368673 -0.014199546 0.0019992825
000390 dc 63 02 bc 1e d1 bc bb 63 f5 82 bb a5 cd 39 3a
       -0.007958379 -0.0057622334 -0.0039965375 0.00070878334
0003a0 33 04 a1 3b f5 53 8f bb 15 f9 8d 3a de 4a 23 3c
       0.0049138307 -0.004374022 0.0010831679 0.00996658
0003b0 95 c8 01 bc f6 80 2e bb fb 59 e5 b9 be c3 9a 3b
       -0.007921358 -0.002662716 -0.00043745324 0.0047230413
0003c0 17 52 a8 3b a0 2f b2 3b a0 4b db 3b 6c 7e c6 39
       0.005136739 0.0054378062 0.006692365 0.00037859695
0003d0 66 0f 06 3c af 3c ec 3b 26 7f 66 3c 0a 30 24 bc
       0.008182382 0.0072093825 0.0140684005 -0.010021219
0003e0 94 a3 dc bb bf 32 4e 3b 50 79 43 bc e5 ca 4e 3b
       -0.006733367 0.0031463352 -0.011930779 0.003155404
0003f0 13 95 af bb ea 21 96 b9 a2 26 d3 bb e2 5e dc 3a
       -0.005358347 -0.00028635497 -0.0064438144 0.0016812945
