keras/npy_weights/Mixed_6a_Branch_1_Conv2d_0a_1x1_kernel.npy (npy, 196736 bytes, 1 tensors)

array f4 [1, 1, 256, 192]
-0.006325599 -0.0029536553 0.0044905944 -0.011225456 0.0016400473 -0.004686648 0.013685968 0.0024870273
0.02826276 -0.018055292 -0.0061826613 0.016927892 0.004003579 -0.008639702 -0.0086209895 -0.020945933
0.005656232 -0.0082138525 -0.012954213 -0.0052671917 0.0058741253 -0.0112363305 0.0066083544 -0.020769034
-0.002507621 -0.006344402 -0.002831921 -0.0024045932 0.01308803 0.013922046 -0.0121476315 0.009557432
0.002925757 -0.0064679193 -0.0114002675 -0.004797488 0.00046922077 -0.009371481 0.03170858 0.00024681506
0.014338102 -0.030919649 0.04914252 0.017741483 0.0042288206 0.033538777 -0.0062333024 0.020348059
0.022934576 0.0031147683 -0.0021369124 -0.00025245824 0.006810023 -0.00016805682 -0.03543331 -0.0041514197
-0.007059212 -0.03119804 0.003941311 0.00019633412 -0.044077095 -0.013501957 0.03875184 -0.0035636863
0.006017325 0.015101147 0.019523032 0.0005788849 0.0039980877 0.0084776385 0.013344366 0.019664066
0.010001804 -0.01193966 0.001880453 0.011614705 0.010509924 0.010315237 0.0093634585 -0.007358153
0.0032111485 -0.010499142 -0.013023309 0.016720207 -0.017723208 -0.0006734783 -0.004181968 -0.022707373
0.0055102715 -0.012199894 0.00036045542 -0.0012549177 -4.55256e-05 0.0004950988 -0.017151136 0.023369651
-0.0034384686 -0.00607811 -8.0877726e-05 0.025077911 -0.017731808 -0.0037607094 0.008730365 0.0070332307
0.0005415139 0.017867362 0.0022609904 0.0065999446 0.019273397 -0.0075447946 -0.013335266 -0.026069432
-0.0046206107 0.003969092 0.003478589 5.1396608e-05 -0.01785944 -0.009304995 -0.028608337 -0.0049713757
-0.024333347 -0.015676577 -0.01714298 -0.014096245 -0.021947574 -0.008297694 -0.0063873827 -0.0118243415
-0.00062616385 -0.00049702224 0.0119165 0.03451308 -0.0017989629 -0.006860277 -0.00036727724 0.0037221136
-0.002833196 -0.01913319 -0.008064789 -0.011065121 -0.0125477705 -0.010795891 0.0073372987 -0.013562521
0.008462205 0.0075697117 0.016280847 0.0037893872 -0.006203458 0.02028026 0.0005775308 0.002100919
0.0035377273 0.02250168 -0.0035694637 0.0312277 0.0109847225 0.00096550107 -0.016485285 -0.011307442
-0.043746803 0.01003715 0.0003795471 0.0049700513 -0.016757002 -0.004851065 -0.030820144 -0.019574184
-0.010091996 0.0120823495 -0.014196057 0.03024679 0.002774212 -0.010942357 0.031460643 0.024507532
-0.007966528 0.0008677505 -9.7016906e-05 0.012281395 0.004551384 -0.0068221786 -0.004890191 -0.024841392
-0.0061217747 -0.010554335 0.0148581145 -0.002296683 0.013954821 -0.010556452 7.485379e-05 0.0053790496
-0.0008514656 0.0035054109 0.011548192 -0.007920281 -0.024212018 0.03685292 0.010866564 0.0029926656
-0.03841805 -0.03159556 4.1534033e-05 0.041446175 0.055417303 -0.016272916 -0.009116112 0.05183805
0.030659089 -0.0052079596 0.010009661 0.052253213 -0.0016706671 0.028832281 0.02680532 0.02721995
0.028227614 -0.007863984 -0.004300359 0.0208178 -0.0031578701 -0.00814359 -0.021798687 0.013488879
0.017397502 -0.0069951443 -0.005522111 -0.003732518 -0.022674432 -0.03889042 -0.004781357 -0.021102658
-0.019089522 0.030357337 -0.0009462736 0.014055761 -0.022575714 0.014074512 -0.042509213 -0.03906861
0.011638636 0.034380157 -0.030258216 -0.03214787 -0.016921422 -0.018040642 0.00091445586 -0.019711828
-0.01922539 -0.025283061 -0.021709282 0.046476696 0.023465775 0.016694043 0.021750584 -0.025954401
00000000: f846 cfbb 1d92 41bb d625 933b faea 37bc
00000010: dbf6 d63a 7492 99bb 1c3b 603c 65fd 223b
00000020: 4e87 e73c b1e8 93bc ec97 cabb 5dac 8a3c
00000030: 7430 833b 898d 0dbc 0d3f 0dbc ce96 abbc
00000040: ea57 b93b 6593 06bc e83d 54bc 6898 acbb
00000050: bc7b c03b 9618 38bc e58a d83b d223 aabc
00000060: e656 24bb b4e4 cfbb c097 39bb 6196 1dbb
00000070: 2d6f 563c 4b19 643c dc06 47bc c696 1c3c
00000080: 0fbe 3f3b d7f0 d3bb 30c8 3abc 3f34 9dbb
00000090: bf01 f639 d78a 19bc dbe0 013d f566 8139
000000a0: 5cea 6a3c 344b fdbc ab49 493d 9656 913c
000000b0: eb91 8a3b f55f 093d bb40 ccbb f9b0 a63c
000000c0: 4be1 bb3c 2421 4c3b 710b 0cbb 5f5c 84b9
000000d0: 9d26 df3b 6938 30b9 8522 11bd a208 88bb
000000e0: f650 e7bb 0893 ffbc 1d26 813b 0adf 4d39
000000f0: 2f8a 34bd 5037 5dbc 40ba 1e3d bc8c 69bb
00000100: fb2c c53b cd6a 773c c4ee 9f3c 4fc0 173a
00000110: 6402 833b cbe5 0a3c 54a2 5a3c 8916 a13c
00000120: 9bde 233c 909e 43bc 8879 f63a 9b4b 3e3c
00000130: d131 2c3c 3d01 293c 3169 193c a91c f1bb
00000140: 2272 523b 9804 2cbc b85f 55bc d1f8 883c
00000150: 4330 91bc 5d8c 30ba e408 89bb d004 babc
00000160: 828f b43b 10e2 47bc 82fb bc39 0d7c a4ba
00000170: bef2 3eb8 85c9 013a 8a80 8cbc b671 bf3c
00000180: ee57 61bb e22a c7bb e69c a9b8 3170 cd3c
00000190: 4c42 91bc 3c76 76bb ce09 0f3c 0477 e63b
000001a0: 62f4 0d3a 935e 923c 202d 143b 5944 d83b
000001b0: 3ee3 9d3c 533a f7bb 297c 5abc 908f d5bc
000001c0: 7e68 97bb 280f 823b 0af9 633b b092 5738
000001d0: f64d 92bc fa73 18bc 085c eabc ece6 a2bb
000001e0: ba56 c7bc 2a6c 80bc 6f6f 8cbc f0f3 66bc
000001f0: 66cb b3bc 0df3 07bc 404d d1bb e2ba 41bc
00000200: 2525 24ba 994a 02ba 6c3d 433c 965d 0d3d
00000210: 2ecb ebba 2dcc e0bb 1e8f c0b9 b4ee 733b
00000220: 24ad 39bb 35bd 9cbc 2d22 04bc 7b4a 35bc
00000230: 2a95 4dbc 40e1 30bc b96d f03b 5635 5ebc
00000240: 0fa5 0a3c 580b f83b 695f 853c 5e57 783b
00000250: 6146 cbbb ca22 a63c 7065 173a 92af 093b
00000260: 37d9 673b 7155 b83c aaed 69bb 3cd1 ff3c
00000270: 44f9 333c ae19 7d3a 260c 87bc d942 39bc
00000280: d92f 33bd dc72 243c f3fd c639 d0db a23b
00000290: fb45 89bc aff5 9ebb 877a fcbc 0a5a a0bc
000002a0: e658 25bc 0cf5 453c 9496 68bc 1ec8 f73c
000002b0: 8ecf 353b 9247 33bc e0dc 003d 05c4 c83c
000002c0: 0a86 02bc c079 633a 8e75 cbb8 e737 493c
000002d0: c723 953b 958c dfbb e53d a0bb 2d80 cbbc
000002e0: 2b99 c8bb 17ec 2cbc 736f 733c f283 16bb
000002f0: c3a2 643c f8f4 2cbc d3fa 9c38 bd42 b03b
00000300: e434 5fba 09bb 653b a134 3d3c 11c4 01bc
00000310: 4858 c6bc 16f3 163d ac09 323c 9920 443b
00000320: 3f5c 1dbd 596a 01bd d434 2e38 77c3 293d
00000330: 41fd 623d c74e 85bc bf5b 15bc 2354 543d
00000340: c528 fb3c 88a7 aabb 90ff 233c 7707 563d
00000350: 49fa daba ad31 ec3c d596 db3c 5ffc de3c
00000360: 993d e73c f1d7 00bc 07ea 8cbb 178a aa3c
00000370: 45f4 4ebb b16c 05bc 2993 b2bc 7600 5d3c
00000380: 3585 8e3c 8637 e5bb d3f2 b4bb 439d 74bb
00000390: bbbf b9bc 904b 1fbd eeac 9cbb 7bdf acbc
000003a0: a161 9cbc f3af f83c 590f 78ba 224a 663c
000003b0: b4f0 b8bc c898 663c 241e 2ebd 6806 20bd
000003c0: faaf 3e3c 35d2 0c3d 14e0 f7bc 7cad 03bd
000003d0: cb9e 8abc f8c9 93bc 18b8 6f3a b37a a1bc
000003e0: 917e 9dbc 6c1e cfbc aad7 b1bc 595e 3e3d
000003f0: 4c3b c03c f2c1 883c 482e b23c 539e d4bc
